preTrained/MountainCarContinuous-v0/3level/HAC_MountainCarContinuous-v0_level_2_actor.pth (torch_old, 19516 bytes, 6 tensors)

actor.0.weight f4 [64, 4]
1.2714432 5.2744875 -0.3526849 -0.18671338 0.5047125 -0.9170201 -0.9576096 1.5432092
0.034519553 0.38842756 0.31790012 -0.45700467 0.9728049 0.378543 0.16932553 -0.34139323
0.27928936 0.5037436 -0.95588976 -3.6793623 0.64011115 0.7473196 -1.0343969 -0.7129943
0.3071659 -0.21081874 -0.057922058 0.10604358 -0.15362121 -0.21682572 -0.15533029 0.27967295
0.22587918 2.3125355 -0.88481224 -0.8151754 0.83132404 -1.5373911 0.51021284 -0.4843166
0.31375465 1.4924798 0.52110094 0.47626522 0.2639681 4.6453114 0.20878476 0.10115903
0.5092972 3.3994095 0.29736748 0.14436652 0.47638458 0.88291925 0.7598368 0.28439942
0.14252676 4.2412376 -0.38060758 -1.2118671 0.19124049 -0.02893883 -0.10844308 0.054246604
-0.7233508 -1.3669026 0.3300622 -0.07973192 0.29287153 -0.2931335 0.43561548 -0.07642233
0.38489777 -1.9381903 -0.64354515 1.3478053 -0.27502513 -2.8126462 -0.094674155 -0.2706855
0.27538094 0.64112777 0.24309209 -0.6017182 0.089990616 -0.42807114 0.24205619 -0.2410053
0.75650054 2.0857713 0.19227031 -1.2288913 0.33210945 6.9521623 -0.4067513 -0.95497644
0.108007014 -0.027711153 0.23713398 -0.32712585 0.41010755 1.9606911 0.33181334 -0.1589378
0.2494245 0.053743422 -0.57019955 -1.4313581 -0.09380281 0.44873643 0.29053104 0.49911416
-0.12955786 -1.1583171 0.15199548 -0.6446575 -0.1803004 4.576849 -0.56359005 -1.1464002
0.60174406 -0.32737157 -0.19605371 0.35258242 -0.012078166 -0.06444681 -0.30505818 0.41449028
0.9796531 1.6333681 -0.16135272 -0.55686927 -0.40288454 -3.7040355 -0.06246497 0.2376189
0.21859059 2.2354977 0.06384524 0.93691254 0.027395844 -0.19013941 0.23999739 0.009917617
-0.10455885 -0.47558674 0.3447428 0.020485833 0.05600234 0.35405836 -0.17961825 -0.08261735
0.31130344 -2.3523154 -0.27752241 1.4206902 0.34271187 0.16376066 -0.11455977 -0.4747675
-0.3557965 2.9862375 -0.6356761 -1.3500253 1.0452334 7.1535544 0.10041223 0.1033533
0.5320421 -1.1942736 0.7027921 0.47488073 0.37717193 -1.0293605 -0.6045768 2.3945632
0.21260935 0.88792634 0.5531078 0.11201402 0.42247376 -1.4805987 0.547666 0.10962945
0.071760535 -0.9128085 -0.50013393 0.49877876 -0.33884123 1.2206392 -1.0945573 -0.3154976
-0.04864352 -1.6011685 0.71823955 -0.42655638 0.080156825 6.0649343 -0.278897 -1.5438216
0.3499384 1.8921033 0.03425102 0.009926769 -0.3351631 0.90653074 0.58366364 -0.37099946
0.45677996 -2.4111893 -0.78554845 1.6184003 -0.21607906 0.24228537 -1.389236 0.14542516
0.25157553 0.894252 -0.71774536 2.6582482 0.4233757 3.1963892 -0.5147262 0.8931047
0.13091128 0.5208756 0.7299267 0.014832069 0.27316648 -0.13822824 -0.23196208 -0.013468862
-0.27867472 -3.0054998 -0.64618 0.43039343 0.6827417 2.1569097 -0.4215585 -1.0351242
-0.19473529 -2.2543738 0.089077145 1.0511684 0.4238451 -0.4117755 0.22858553 -0.19733953
0.84094685 -2.2194397 0.8298363 0.23288782 0.17413704 -0.9685107 1.006635 0.40276265
00000000: a7be a23f 9ac8 a840 1d93 b4be cb31 3fbe
00000010: d734 013f d4c1 6abf e725 75bf e187 c53f
00000020: 6064 0d3d fadf c63e cec3 a23e 84fc e9be
00000030: be09 793f 63d0 c13e ac63 2d3e 18cb aebe
00000040: 04ff 8e3e 57f5 003f 31b5 74bf ac7a 6bc0
00000050: 53de 233f 5650 3f3f 1e67 84bf cb86 36bf
00000060: d944 9d3e dee0 57be ae3f 6dbd 602d d93d
00000070: e14e 1dbe 9007 5ebe e70e 1fbe 4b31 8f3e
00000080: df4c 673e 9500 1440 0e83 62bf 56af 50bf
00000090: a7d1 543f 3bc9 c4bf 4f9d 023f 58f8 f7be
000000a0: 73a4 a03e 9409 bf3f df66 053f 09d9 f33e
000000b0: d426 873e 64a6 9440 accb 553e 772c cf3d
000000c0: 4d61 023f ed8f 5940 8d40 983e d1d4 133e
000000d0: aee8 f33e ff06 623f aa84 423f cd9c 913e
000000e0: 89f2 113e 38b8 8740 ffde c2be 761e 9bbf
000000f0: 8cd4 433e 2011 edbc 6817 debd b031 5e3d
00000100: 852d 39bf aaf6 aebf eafd a83e 7d4a a3bd
00000110: 42f3 953e 9815 96be fe08 df3e 5083 9cbd
00000120: 5211 c53e 9f16 f8bf 60bf 24bf e284 ac3f
00000130: 18d0 8cbe 6502 34c0 86e4 c1bd 4a97 8abe
00000140: bbfe 8c3e f320 243f 22ed 783e 340a 1abf
00000150: 004d b83d 242c dbbe 94dd 773e 18ca 76be
00000160: 05aa 413f 477d 0540 82e2 443e 4f4c 9dbf
00000170: 400a aa3e 1d78 de40 b541 d0be 5679 74bf
00000180: c832 dd3d 8002 e3bc 40d3 723e 0a7d a7be
00000190: 9ef9 d13e edf7 fa3f 70e3 a93e 97c0 22be
000001a0: 2369 7f3e 1022 5c3d 99f8 11bf be36 b7bf
000001b0: b01b c0bd c8c0 e53e 7cc0 943e e48b ff3e
000001c0: d1aa 04be bc43 94bf b4a4 1b3e 4608 25bf
000001d0: aba0 38be 8c75 9240 7047 10bf 3ebd 92bf
000001e0: e60b 1a3f 3f9d a7be 4ec2 48be af85 b43e
000001f0: 80e3 45bc b0fc 83bd 9630 9cbe 1238 d43e
00000200: 8cca 7a3f 3512 d13f a639 25be fc8e 0ebf
00000210: e246 cebe eb0e 6dc0 45db 7fbd 5e52 733e
00000220: 36d6 5f3e 6512 0f40 4bc1 823d 80d9 6f3f
00000230: 406d e03c e8b3 42be e0c1 753e 807d 223c
00000240: f322 d6bd 1b80 f3be 2182 b03e e8d1 a73c
00000250: b662 653d 2347 b53e d9ed 37be 4933 a9bd
00000260: 2a63 9f3e 568c 16c0 6b17 8ebe 2dd9 b53f
00000270: ee77 af3e e0b0 273e 509e eabd ba14 f3be
00000280: f52a b6be 841e 3f40 abbb 22bf a1cd acbf
00000290: 35ca 853f ebe9 e440 eda4 cd3d e5aa d33d
000002a0: e933 083f f5dd 98bf 2fea 333f 9123 f33e
000002b0: ae1c c13e 16c2 83bf 8cc5 1abf 8640 1940
000002c0: 44b6 593e 244f 633f 7998 0d3f 9b67 e53d
000002d0: 7b4e d83e 4284 bdbf d733 0c3f 6885 e03d
000002e0: 30f7 923d d1ad 69bf c708 00bf ee5f ff3e
000002f0: 997c adbe e83d 9c3f 741a 8cbf e788 a1be
00000300: 6d3e 47bd 17f3 ccbf 8cde 373f 9965 dabe
00000310: 4329 a43d f113 c240 96cb 8ebe f29b c5bf
00000320: 202b b33e 7130 f23f cc4a 0c3d e3a3 223c
00000330: 7f9a abbe 6612 683f fb6a 153f a4f3 bdbe
00000340: 10df e93e ed50 1ac0 b419 49bf be27 cf3f
00000350: d443 5dbe a819 783e 7cd2 b1bf 55ea 143e
00000360: 82ce 803e b3ed 643f 29be 37bf bd20 2a40
00000370: b3c4 d83e a491 4c40 19c5 03bf 82a2 643f
00000380: 9b0d 063e 1a58 053f 7adc 3a3f 3502 733c
00000390: 7adc 8b3e b48b 0dbe 7887 6dbe 80ac 5cbc
000003a0: 74ae 8ebe 1c5a 40c0 0d6c 25bf 875c dc3e
000003b0: 29c8 2e3f cf0a 0a40 84d6 d7be f37e 84bf
000003c0: b068 47be a947 10c0 146e b63d b08c 863f
000003d0: 3a02 d93e 3dd4 d2be 5312 6a3e 6013 4abe
000003e0: 4b48 573f 4d0b 0ec0 2770 543f 257a 6e3e
000003f0: fb50 323e 51f0 77bf 6ad9 803f e836 ce3e

actor.0.bias f4 [64]
-0.13572958 0.4038867 -0.33740616 0.50007516 -0.3480535 0.08324481 -0.25749844 -0.4053404
-0.15927696 0.38225496 0.32258067 -0.18506908 0.51115274 -0.037619747 0.17334446 -0.24589497
-0.27268988 -0.47285706 0.071837164 -0.45106125 0.2757188 -0.14759314 0.26911044 0.12981361
-0.38480103 0.26828748 -0.022036944 -0.43830246 0.21488059 0.15016869 0.43474522 -0.4641779
-0.12456297 -0.13582425 0.25456563 -0.24013066 0.10539574 -0.3263969 0.04979111 -0.3624887
0.13673206 -0.32073128 0.03453976 -0.02626391 0.023486294 0.051608507 -0.38126937 -0.21576974
-0.11336068 0.07457426 0.40208286 0.12335742 0.090193264 -0.4720124 0.22140078 0.04365564
0.3618596 -0.49705243 -0.038687423 0.37301815 -0.06583787 -0.3337203 0.2086434 -0.092724495
00000000: b2fc 0abe 3dca ce3e 80c0 acbe ed04 003f
00000010: 1134 b2be 417c aa3d d6d6 83be c788 cfbe
00000020: 8019 23be ecb6 c33e 4b29 a53e c082 3dbe
00000030: e8da 023f 2a17 1abd 3681 313e e4cb 7bbe
00000040: 029e 8bbe 521a f2be 5d1f 933d 80f1 e6be
00000050: 042b 8d3e a822 17be d8c8 893e dced 043e
00000060: a404 c5be fa5c 893e d286 b4bc 2e69 e0be
00000070: a809 5c3e d2c5 193e ed96 de3e baa8 edbe
00000080: df1a ffbd 8315 0bbe 6d56 823e d0e4 75be
00000090: b9d9 d73d 7f1d a7be c3f1 4b3d 1e98 b9be
000000a0: 7d03 0c3e e436 a4be 9079 0d3d 6927 d7bc
000000b0: 5466 c03c 7163 533d bd35 c3be bef2 5cbe
000000c0: a529 e8bd 64ba 983d cedd cd3e d1a2 fc3d
000000d0: 3fb7 b83d 9cab f1be e3b6 623e 42d0 323d
000000e0: a945 b93e a87d febe b476 1ebd 3cfc be3e
000000f0: 01d6 86bd 63dd aabe 9ea6 553e 57e6 bdbd

actor.2.weight f4 [64, 64]
0.015206394 -0.005635926 0.1131662 0.04402027 0.97623247 0.039403964 -0.116386116 0.06764163
0.32566437 0.14713062 0.033384528 0.32319632 -0.023022762 0.012668954 0.061164703 -0.107143074
0.32195354 -0.044751763 -0.32854354 0.7061883 0.086022325 -0.11512807 -0.2054864 0.27032378
-0.06827733 -0.07495538 -0.95601517 -0.0837203 0.1819903 0.107100196 0.07989478 -0.0014265776
-0.054408602 0.30090725 -0.093581855 -0.009547353 0.11267205 0.044165686 -0.21904722 -0.03801994
-0.08236953 0.12875065 -0.030991482 -0.893864 0.05363417 0.09510742 -0.091421105 -0.55593574
-0.34940404 0.012010581 -0.095477335 0.14232388 -0.22654706 0.6965587 0.31473747 -0.93601644
0.14832959 0.09484838 -0.35464388 -0.09733505 0.09761694 0.069882214 -0.0652433 0.81885564
0.07958874 0.50700897 -0.04681456 0.45320222 0.5911369 0.6181853 0.08662355 0.042194612
-0.46365935 0.26349172 0.07863698 0.631521 0.1938069 -0.29060984 0.13379228 0.03026183
-0.84084594 0.10134633 2.0542753 -1.1838403 0.12418649 0.05050403 -0.21866588 0.16450906
-0.06601977 0.11329496 1.0446311 0.02499339 0.08958002 0.17715184 0.056407288 -0.014773086
-1.1443706 -2.0301743 0.3222015 0.11631963 -0.84435624 -0.006087945 -0.044691246 0.042012483
0.30487543 0.35502452 -0.107534826 0.6779989 -0.8344197 -1.3721535 1.7146249 -0.79419065
-0.62799877 0.28074536 0.45747897 -1.0827494 1.8521937 -1.9295328 0.21139596 -0.43295464
0.22063422 0.00875482 0.7231375 0.52501136 0.9324482 -0.08888364 -0.6187561 -0.28254765
0.26514825 -0.27545187 0.0019027889 0.16817337 -0.67736596 -1.3996271 -0.0651758 -0.033622466
-1.1823885 -0.2160112 0.013815576 0.010457708 0.32603714 0.49544695 -0.21240519 -0.108467355
-0.16969948 0.050988555 0.3406275 -1.7740803 -0.17716482 0.063571215 0.40070954 -0.19993906
-0.11260931 0.56062835 0.89396966 0.123062134 -0.16220541 -0.54892886 0.046749525 -0.10501279
-0.3541243 0.8211639 0.45761782 0.11737916 -0.17931375 0.034328457 0.75418025 0.069379285
-0.5900016 0.37237915 -0.43568122 1.8464957 0.5404009 -0.2379273 0.036065254 -1.0260686
0.22247471 -0.51035726 0.13439392 -0.10692359 1.4071559 -1.611185 -0.35996044 -0.5311289
-0.112723425 0.032249287 0.022196854 0.26386064 -0.73329186 -0.0172213 -0.05395738 -0.6215472
0.057650466 0.047860533 -0.09522048 0.04455114 -0.020308843 -0.063249834 0.05892323 -0.041934818
-0.09269637 0.076644644 -0.0118056685 -0.02301079 -0.03203194 -0.056684986 0.05615212 -0.035198554
-0.11508103 0.016110003 -0.030497462 -0.104316786 -0.012728035 0.023484975 -0.06985621 -0.009071189
0.09784952 -0.098379515 -0.06075397 0.014615983 -0.11897093 -0.07347499 -0.0050554723 0.10270023
0.038008668 -0.029179454 -0.08895768 0.07017611 -0.06148672 -0.11482392 -0.08378975 0.00970085
0.0389795 0.021487162 -0.015999988 -0.042338654 -0.10829146 -0.020364435 0.037638165 -0.07807918
-0.048494413 -0.12390149 -0.025439426 -0.011766046 -0.118323416 -0.029145572 0.053964503 -0.009829992
0.009249821 0.012914389 -0.01659584 0.031908374 0.026760554 -0.0978758 -0.06511356 -0.019098103
00000000: 3d24 793c 93ad b8bb aec3 e73d 994e 343d
00000010: 5fea 793f 0d66 213d d85b eebd b287 8a3d
00000020: 7bbd a63e 69a9 163e 37be 083d fd79 a53e
00000030: 3b9a bcbc 7291 4f3c d787 7a3d d46d dbbd
00000040: 18d7 a43e a04d 37bd dc36 a8be c2c8 343f
00000050: 792c b03d 44c8 ebbd 076b 52be e167 8a3e
00000060: fcd4 8bbd 3582 99bd 69bd 74bf 8c75 abbd
00000070: aa5b 3a3e 5957 db3d e09f a33d 00fc baba
00000080: 8edb 5ebd 8410 9a3e d8a7 bfbd 806c 1cbc
00000090: 9bc0 e63d 14e7 343d ea4d 60be ccba 1bbd
000000a0: 5bb1 a8bd 36d7 033e d9e1 fdbc 45d4 64bf
000000b0: 81af 5b3d aec7 c23d fd3a bbbd ce51 0ebf
000000c0: 16e5 b2be 07c8 443c 9f89 c3bd 5abd 113e
000000d0: f4fb 67be ac51 323f 4525 a13e c69e 6fbf
000000e0: b6e3 173e de3f c23d e293 b5be 9957 c7bd
000000f0: 64eb c73d 681e 8f3d 479e 85bd 86a0 513f
00000100: 6cff a23d 57cb 013f a0c0 3fbd 1f0a e83e
00000110: bf54 173f 6441 1e3f b067 b13d 42d4 2c3d
00000120: c264 edbe 63e8 863e 6d0c a13d 5cab 213f
00000130: 5175 463e d0ca 94be d800 093e a8e7 f73c
00000140: ae41 57bf aa8e cf3d 3f79 0340 1488 97bf
00000150: 7d55 fe3d 50dd 4e3d f3e9 5fbe 1075 283e
00000160: 6035 87bd 3007 e83d 79b6 853f f0be cc3c
00000170: bb75 b73d 4b67 353e 540b 673d d00a 72bc
00000180: bc7a 92bf 60ee 01c0 98f7 a43e fc38 ee3d
00000190: bb27 58bf 627d c7bb 2b0e 37bd 4815 2c3d
000001a0: a218 9c3e c6c5 b53e 383b dcbd 5691 2d3f
000001b0: 889c 55bf baa2 afbf d478 db3f 1450 4bbf
000001c0: 87c4 20bf dbbd 8f3e af3a ea3e 8897 8abf
000001d0: af14 ed3f eefa f6bf 2f78 583e 3bac ddbe
000001e0: f0ed 613e 6070 0f3c 8a1f 393f 2567 063f
000001f0: edb4 6e3f a008 b6bd cd66 1ebf 16aa 90be
00000200: 83c1 873e 0708 8dbe 0067 f93a a435 2c3e
00000210: db67 2dbf fb26 b3bf e47a 85bd b6b7 09bd
00000220: 8258 97bf 0a32 5dbe ba5a 623c ce56 2b3c
00000230: 57ee a63e 39ab fd3e bf80 59be 2224 debd
00000240: b3c5 2dbe 60d9 503d ba66 ae3e 1015 e3bf
00000250: b26a 35be a031 823d cd29 cd3e d3bc 4cbe
00000260: b69f e6bd 5785 0f3f 32db 643f 0008 fc3d
00000270: 2d19 26be 9a86 0cbf 6e7c 3f3d f210 d7bd
00000280: c84f b5be cc37 523f e24c ea3e 7c64 f03d
00000290: 069e 37be ff9b 0c3d f511 413f ba16 8e3d
000002a0: 580a 17bf 7ba8 be3e 9c11 dfbe f959 ec3f
000002b0: b757 0a3f 37a3 73be 29b9 133d 3756 83bf
000002c0: 69d0 633e c6a6 02bf 8f9e 093e c1fa dabd
000002d0: af1d b43f 4f3b cebf bc4c b8be 10f8 07bf
000002e0: 8adb e6bd d417 043d 2dd6 b53c be18 873e
000002f0: 04b9 3bbf af13 8dbc 6a02 5dbd b81d 1fbf
00000300: e522 6c3d 6809 443d f402 c3bd 427b 363d
00000310: bb5e a6bc 2189 81bd 7c59 713d d8c3 2bbd
00000320: 98d7 bdbd def7 9c3d 906c 41bc 2081 bcbc
00000330: ec33 03bd 842e 68bd c4ff 653d 5c2c 10bd
00000340: 9aaf ebbd 20f9 833c d0d5 f9bc 0aa4 d5bd
00000350: 4089 50bc 9063 c03c c610 8fbd 539f 14bc
00000360: 5465 c83d 337b c9bd 28d9 78bd e077 6f3c
00000370: 08a7 f3bd 0e7a 96bd 60a8 a5bb 8054 d23d
00000380: faae 1b3d c009 efbc 722f b6bd 7eb8 8f3d
00000390: 80d9 7bbd ce28 ebbd f699 abbd 50f0 1e3c
000003a0: f8a8 1f3d d805 b03c 6812 83bc 4c6b 2dbd
000003b0: eac7 ddbd 51d3 a6bc 7a2a 1a3d fae7 9fbd
000003c0: 14a2 46bd 10c0 fdbd 5866 d0bc 60c6 40bc
000003d0: 8c53 f2bd b2c2 eebc e209 5d3d fa0d 21bc
000003e0: 908c 173c e096 533c 00f4 87bc 5bb2 023d
000003f0: f338 db3c 1c73 c8bd 425a 85bd a073 9cbc

actor.2.bias f4 [64]
-0.057023816 0.1545215 -0.043138184 -0.13648866 0.033725772 -0.14956315 -0.28785247 -0.023759766
-0.04550725 -0.38138074 0.062748425 0.002874336 -0.05724914 -0.14481325 -0.0043882523 -0.10730783
-0.13993827 -0.0050191428 -0.09472377 -0.08534504 -0.04052552 -0.06996202 -0.06493344 -0.02696411
-0.12425253 0.034216292 -0.069862254 -0.16851093 -0.14264008 0.10870814 -0.14009306 -0.16145942
-0.2993122 0.09339261 -0.10158086 -0.15424787 0.28367165 -0.025917571 -0.10003449 -0.21839543
-0.020960145 0.03548892 0.026752401 -0.30977526 -0.13906494 -0.17440304 -0.112582296 -0.46484667
-0.03792243 -0.07047759 -0.020218045 -0.029663084 -0.17826019 -0.16215275 -0.16368015 0.040239193
-0.20987241 -0.24777207 0.027306816 -0.08910062 -0.07828879 -0.2927925 -0.012934944 -0.05028325
00000000: ce91 69bd e23a 1e3e aab1 30bd afc3 0bbe
00000010: 0924 0a3d 1527 19be 6661 93be d7a3 c2bc
00000020: cf65 3abd 5644 c3be 3f82 803d 5b5f 3c3b
00000030: 137e 6abd ed49 14be 54cb 8fbb 35c4 dbbd
00000040: fa4b 0fbe 9f77 a4bb 89fe c1bd 61c9 aebd
00000050: 16fe 25bd 3f48 8fbd d3fb 84bd d6e3 dcbc
00000060: 1c78 febd 6226 0c3d f113 8fbd 218e 2cbe
00000070: 3e10 12be 60a2 de3d 8e74 0fbe 9e55 25be
00000080: 733f 99be a044 bf3d a009 d0bd 27f3 1dbe
00000090: 693d 913e 1651 d4bc e2de ccbd 0da3 5fbe
000000a0: 9cb4 abbc d45c 113d da27 db3c dd9a 9ebe
000000b0: 0a67 0ebe b696 32be 8c91 e6bd 6200 eebe
000000c0: 8d54 1bbd 8e56 90bd 50a0 a5bc ffff f2bc
000000d0: d789 36be 5f0b 26be c59b 27be dad1 243d
000000e0: cbe8 56be f6b7 7dbe 8bb2 df3c 637a b6bd
000000f0: e055 a0bd e6e8 95be 16ed 53bc cff5 4dbd

actor.4.weight f4 [2, 64]
0.17922963 -0.06772976 -0.66108066 0.05018625 -0.030880494 -0.044996385 0.016211556 -0.013477717
-0.1632348 0.3293771 -0.092555776 -0.72277164 0.14903262 0.0059653334 0.022584856 0.05925316
0.24285507 0.21607985 0.0100457175 0.037395507 -0.010722379 -0.7285842 0.08317982 -0.017650828
0.073601276 -0.05125906 0.33874872 -0.6366828 -0.51350236 0.023312842 0.022313466 0.00039903302
-2.0108788 -0.49263817 0.032260276 -0.08849765 0.29753366 -0.003208549 0.06555511 -0.32433927
-0.058926966 0.85357726 0.5758359 0.35143873 -0.06477137 -0.11000634 -0.0003053695 -1.4250535
0.03170197 -0.050065488 -0.18638803 0.21649906 -0.18973766 -0.08741535 0.6206404 -0.01866598
0.13466428 0.15050836 1.0503799 0.07212621 0.26684767 -0.40444317 0.026499556 0.29999113
1.551648 -2.519246 -0.936601 -0.108329296 -0.075620875 -0.15037566 3.1226554 2.727041
-0.124091 0.6838133 0.67893153 -0.655216 0.2937993 -0.051889826 -0.011069053 0.066490084
-0.055789948 1.0601223 0.01400505 0.16395465 -0.07652279 -0.4900277 -0.008870938 -0.10258594
-0.11813933 -0.019529078 -0.5515894 -0.84167165 -0.22355977 -0.4923521 0.020875549 -0.087331936
0.0683332 -0.053738136 0.0043086717 0.3697078 0.034764457 -0.08368737 0.118939765 1.0907522
-0.05749827 0.43201256 0.517307 -0.17358579 -0.0774968 0.08619227 0.03466499 -2.9478853
-0.0635776 -0.054287095 0.56420827 -0.3624621 0.4054268 0.060282234 0.5063667 0.008531528
0.0968965 -0.5197307 -0.045036092 -0.092075 0.11544154 -0.26341593 2.8702462 0.18442576
00000000: f987 373e e7b5 8abd 953c 29bf 1990 4d3d
00000010: 17f9 fcbc 214e 38bd 19ce 843c a4d1 5cbc
00000020: 0627 27be 1ea4 a83e e28d bdbd 9007 39bf
00000030: 029c 183e d878 c33b e003 b93c 71b3 723d
00000040: 00af 783e 0944 5d3e cb96 243c 082c 193d
00000050: ebac 2fbc 7e84 3abf 2e5a aa3d 7898 90bc
00000060: 44bc 963d 05f5 51bd 7970 ad3e a5fd 22bf
00000070: e474 03bf 93fa be3c bbca b63c 4e35 d139
00000080: 3db2 00c0 123b fcbe 5a23 043d 423e b5bd
00000090: 5556 983e 8546 52bb c241 863d cc0f a6be
000000a0: 675d 71bd 0a84 5a3f fb69 133f c7ef b33e
000000b0: daa6 84bd 014b e1bd 001a a0b9 2768 b6bf
000000c0: edd9 013d 7811 4dbd 81dc 3ebe eeb1 5d3e
000000d0: 974a 42be d206 b3bd 4ae2 1e3f 66e9 98bc
000000e0: 6fe5 093e dd1e 1a3e d972 863f e8b6 933d
000000f0: 42a0 883e 2d13 cfbe 9915 d93c 7098 993e
00000100: 679c c63f 543b 21c0 15c5 6fbf c0db ddbd
00000110: 1edf 9abd 14fc 19be 96d9 4740 d787 2e40
00000120: 6c23 febd 630e 2f3f 75ce 2d3f 3cbc 27bf
00000130: dd6c 963e 6d8a 54bd f95a 35bc f42b 883d
00000140: 0084 64bd 16b2 873f 7075 653c bae3 273e
00000150: fbb7 9cbd e9e4 fabe 6957 11bc 9418 d2bd
00000160: 08f3 f1bd 72fb 9fbc f734 0dbf cb77 57bf
00000170: daec 64be 9315 fcbe 3303 ab3c 16db b2bd
00000180: 47f2 8b3d 851c 5cbd c22f 8d3b 574a bd3e
00000190: 2d65 0e3d 4964 abbd b196 f33d c59d 8b3f
000001a0: 4e83 6bbd c030 dd3e 3b6e 043f 79c0 31be
000001b0: a4b6 9ebd 9385 b03d e0fc 0d3d 27aa 3cc0
000001c0: f934 82bd 255c 5ebd f46f 103f a294 b9be
000001d0: 1a94 cf3e 81ea 763d 40a1 013f d2c7 0b3c
000001e0: ac71 c63d 120d 05bf c477 38bd d191 bcbd
000001f0: 9d6c ec3d 74de 86be 1db2 3740 1bda 3c3e

actor.4.bias f4 [2]
-0.005068186 -0.13693143
00000000: 0713 a6bb c137 0cbe
