preTrained/MountainCarContinuous-v0/3level/HAC_MountainCarContinuous-v0_level_0_actor.pth (torch_old, 19256 bytes, 5 tensors)

actor.0.weight f4 [64, 4]
-0.7055288 1.9997735 0.43008074 2.478746 0.33318081 2.1842852 0.6256366 2.7067275
0.2724305 0.031012159 0.49581614 2.5502594 -0.44549072 2.2966716 0.5524279 3.7446232
0.40961498 0.37100703 -0.12374735 0.49541116 -0.090045586 1.2108743 0.7300569 1.8897706
-0.4571379 2.7364025 -0.12467868 4.4976506 -0.11044373 -2.9681273 -0.3178803 -3.9690075
0.48097485 -0.46774197 0.004836738 0.09029192 0.11157777 1.6549987 0.8662502 3.1221697
-0.08916199 0.10606682 -0.04456973 0.354841 0.1897089 0.8178979 -0.27548972 0.89659804
0.086280994 0.4596259 -0.19957379 1.638571 0.1715613 -0.43308392 -0.451242 -0.16369134
0.039895475 -0.06297263 0.009926766 -0.08153183 0.32225287 -0.1271594 1.3746552 1.223795
0.33736503 -1.9610436 -0.09150883 -3.5386667 0.6058759 -3.425397 -0.6310572 -5.2391067
1.0456749 0.8433059 0.10735024 0.048620462 0.32824117 -0.40326256 -0.20091784 0.42738062
0.047231495 0.29124248 0.2192958 0.45441478 0.48623246 -2.7467477 -0.4759312 -5.3545575
-0.70517224 2.4902837 0.56267136 3.7835577 -0.210347 -1.9150147 -0.3871346 -3.4089966
0.73838955 -0.09292701 0.8451371 1.084098 -0.23599248 -1.4153893 -0.41219214 -1.9796535
0.30134016 0.3884673 -0.20344359 0.19565177 0.18497902 -3.2463882 -0.4710123 -4.841949
0.8200467 1.5916308 1.1291553 2.8041887 -0.41129452 -0.43232125 0.22296643 -0.1685729
-0.3412983 2.7093747 0.30417302 4.131353 0.6435793 -1.602269 0.108059816 -2.2301981
-0.2642559 2.825556 0.23581979 4.68609 -0.19756049 -0.09438074 -0.18799 1.5030142
0.47441566 -0.06600636 0.15483218 -0.023725867 -0.7738448 1.6856457 0.13177273 4.3818784
-0.019281508 0.13908906 -0.025119878 -0.4291717 0.274405 0.1833244 -0.014050841 -0.09920001
-0.030698325 -0.59271395 -0.08237544 0.16257088 -0.23974118 -2.7437272 -0.30554384 -4.0865474
-0.14985283 0.4550391 0.47489718 2.4753466 0.033416755 -0.5071971 0.071894966 -0.44382802
-0.23746288 -0.81490374 -0.010793181 0.38923714 0.38560998 -0.38895014 -0.29785305 -0.60375416
-0.38661075 0.10794918 0.5712684 2.088011 0.24468453 -2.8392236 -0.5022594 -4.939177
-0.5297801 -0.17733215 0.6463023 -0.106815934 0.060084157 1.0450026 0.4228939 2.7023745
-0.29742503 -0.45814052 -0.2485655 0.27604827 0.1102391 0.17273688 -0.33502623 -0.22469658
-0.46683297 2.973368 0.24934982 4.258798 -0.078903615 0.27034885 0.050528407 0.11812973
0.054528814 -2.766325 -0.425262 -4.1257477 -0.16581547 -0.032015894 -0.22010076 0.89798206
-0.09559381 0.21194732 -0.10761583 -0.07914388 0.9159736 3.3635514 -0.19222483 3.1484354
0.5967909 2.4697897 0.44010043 3.0947287 0.9388723 0.9276868 0.87488574 1.7198416
-0.459031 2.7640016 -0.05607425 4.434493 -0.8571523 2.1240437 0.16489814 3.6940408
0.2626142 -2.0443387 -0.38952625 -4.2175536 0.42463344 -0.22264105 -0.25733554 -0.2566719
0.0916661 -0.4708495 0.4788124 0.029948652 -0.0663827 0.030373726 -0.27012312 0.7872787
00000000: 899d 34bf 94f8 ff3f 8b33 dc3e c6a3 1e40
00000010: ad96 aa3e 54cb 0b40 b829 203f 063b 2d40
00000020: 037c 8b3e 360d fe3c 9ddb fd3e 7337 2340
00000030: 5c17 e4be abfc 1240 ea6b 0d3f e8a7 6f40
00000040: 0eb9 d13e a2f4 bd3e 406f fdbd 88a6 fd3e
00000050: d269 b8bd eefd 9a3f 02e5 3a3f 01e4 f13f
00000060: fb0d eabe 3821 2f40 8957 ffbd c1ec 8f40
00000070: 5330 e2bd ccf5 3dc0 35c1 a2be 3804 7ec0
00000080: 5642 f63e e07b efbe 807d 9e3b f8ea b83d
00000090: e382 e43d ffd6 d33f 93c2 5d3f a1d1 4740
000000a0: 909a b6bd 9039 d93d c08e 36bd b8ad b53e
000000b0: 0d43 423e c261 513f fd0c 8dbe 7387 653f
000000c0: 17b4 b03d 1654 eb3e 125d 4cbe b2bc d13f
000000d0: c4ad 2f3e 2dbd ddbe 3109 e7be b49e 27be
000000e0: 7069 233d cbf7 80bd e0a3 223c 29fa a6bd
000000f0: 54fe a43e 1336 02be b4f4 af3f 51a5 9c3f
00000100: 1cbb ac3e 7a03 fbbf fb68 bbbd 8479 62c0
00000110: af1a 1b3f b439 5bc0 f78c 21bf c3a6 a7c0
00000120: add8 853f e5e2 573f 71da db3d 4026 473d
00000130: 3a0f a83e 6e78 cebe 68bd 4dbe a2d1 da3e
00000140: d075 413d bc1d 953e 148f 603e 0ea9 e83e
00000150: 76f3 f83e b7ca 2fc0 41ad f3be 8958 abc0
00000160: 2b86 34bf cf60 1f40 3b0b 103f cf25 7240
00000170: 3465 57be 341f f5bf 8236 c6be 002d 5ac0
00000180: 1907 3d3f 8450 bebd e85a 583f b9c3 8a3f
00000190: 03a8 71be 7a2b b5bf d90a d3be 4965 fdbf
000001a0: 4249 9a3e 30e5 c63e 8453 50be f058 483e
000001b0: 246b 3d3e d3c4 4fc0 8628 f1be 3ff1 9ac0
000001c0: 95ee 513f 8fba cb3f 2988 903f d477 3340
000001d0: 3295 d2be 3659 ddbe 5051 643e 609e 2cbe
000001e0: a7be aebe 6566 2d40 91bc 9b3e 0b34 8440
000001f0: 9dc1 243f 2717 cdbf 774e dd3d 91bb 0ec0
00000200: 8d4c 87be e9d5 3440 be7a 713e 73f4 9540
00000210: 4c4d 4abe b04a c1bd 7380 40be c562 c03f
00000220: 9ce6 f23e 582e 87bd 548c 1e3e c05c c2bc
00000230: b11a 46bf 3dc3 d73f 6eef 063e 5938 8c40
00000240: 41f4 9dbc 5d6d 0e3e 34c8 cdbc 65bc dbbe
00000250: d07e 8c3e 64b9 3b3e 8035 66bc 6029 cbbd
00000260: 0e7b fbbc 1abc 17bf 74b4 a8bd fb78 263e
00000270: b67e 75be 3a99 2fc0 3e70 9cbe ffc4 82c0
00000280: 0573 19be e3fa e83e b925 f33e 146c 1e40
00000290: 02e0 083d abd7 01bf ab3d 933d 6d3d e3be
000002a0: 7829 73be 889d 50bf e2d5 30bc 174a c73e
000002b0: ac6e c53e 7924 c7be 3280 98be a28f 1abf
000002c0: d8f1 c5be 7614 dd3d a53e 123f f9a1 0540
000002d0: 958e 7a3e d7b5 35c0 1294 00bf bd0d 9ec0
000002e0: ab9f 07bf 8f96 35be 1174 253f 50c2 dabd
000002f0: ce1a 763d a5c2 853f 8d85 d83e b4f3 2c40
00000300: 1848 98be 6591 eabe f487 7ebe 3356 8d3e
00000310: 0ac5 e13d f0e1 303e 8f88 abbe dc16 66be
00000320: bb04 efbe a94b 3e40 8f55 7f3e 1348 8840
00000330: 3898 a1bd 2a6b 8a3e e0f6 4e3d 00ee f13d
00000340: 9b59 5f3d 780b 31c0 f1bb d9be 2006 84c0
00000350: 88cb 29be 1923 03bd 1862 61be 27e2 653f
00000360: b0c6 c3bd b808 593e b065 dcbd 3016 a2bd
00000370: 3f7d 6a3f 6d44 5740 96d6 44be f77f 4940
00000380: 4ac7 183f 0911 1e40 d854 e13e 0910 4640
00000390: ef59 703f e27c 6d3f 83f8 5f3f c523 dc3f
000003a0: 1c06 ebbe 67e5 3040 1dae 65bd 5ee7 8d40
000003b0: 556e 5bbf 55f0 0740 0fdb 283e 2a6b 6c40
000003c0: 5e75 863e 72d6 02c0 fc6f c7be 33f6 86c0
000003d0: 8e69 d93e 04fc 63be 7cc1 83be 806a 83be
000003e0: 70bb bb3d 3013 f1be e626 f53e e056 f53c
000003f0: a7f3 87bd 52d2 f83c 944d 8abe 198b 493f

actor.0.bias f4 [64]
-0.123830825 -0.040579844 0.25743753 0.13809948 -0.39569438 0.4532641 -0.16399969 -0.10094692
-0.47304565 0.12429884 -0.23920155 -0.14352363 -0.16555396 -0.42882574 -0.023171665 0.38395974
0.28973296 0.16039617 0.2864714 -0.3047245 -0.26653963 0.13992107 -0.012189233 -0.28458288
0.3804732 -0.18453014 -0.2801603 -0.044040218 0.4368258 -0.401649 -0.013195666 0.40471846
-0.0066033644 -0.4357115 -0.43224794 -0.20884188 -0.083881125 -0.47154963 -0.16443133 -0.13183382
0.24972132 -0.06755146 -0.37312084 -0.21691377 0.15771852 -0.03266439 0.003201335 0.31957802
-0.61706024 -0.33664593 -0.11533099 -0.43815666 -0.06888946 -0.4685926 -0.4509601 -0.025114885
0.20701718 0.42720306 -0.1866753 -0.092642345 0.2157426 -0.35344654 -0.4310947 -0.42366332
00000000: 049b fdbd 0d37 26bd dace 833e f369 0d3e
00000010: 7498 cabe 3b12 e83e 89ef 27be 42bd cebd
00000020: 0a33 f2be 6490 fe3d 40f1 74be dcf7 12be
00000030: fa86 29be 0c8f dbbe 81d2 bdbc 5f96 c43e
00000040: e157 943e e53e 243e 61ac 923e da04 9cbe
00000050: e277 88be 7847 0f3e 59b5 47bc d9b4 91be
00000060: 62cd c23e 78f5 3cbe 2c71 8fbe 8463 34bd
00000070: a2a7 df3e f0a4 cdbe a232 58bc 4237 cf3e
00000080: 0961 d8bb 9415 dfbe 9a4f ddbe a5da 55be
00000090: dec9 abbd f46e f1be b060 28be 72ff 06be
000000a0: f2b6 7f3e 6b58 8abd b209 bfbe a51e 5ebe
000000b0: f780 213e 18cb 05bd 7dcd 513b bb9f a33e
000000c0: a9f7 1dbf db5c acbe a732 ecbd 1256 e0be
000000d0: eb15 8dbd 5feb efbe 3ee4 e6be bbbd cdbc
000000e0: 50fc 533e 5cba da3e cf27 3fbe 45bb bdbd
000000f0: a1eb 5c3e f2f6 b4be 72b8 dcbe 66ea d8be

actor.2.weight f4 [64, 64]
0.026486743 0.04671097 -0.1314096 -0.057220936 -0.04660037 0.07352731 0.0670046 0.018492192
0.0015935153 -0.11596876 -0.071848005 0.05471653 0.08798957 -0.026502976 -0.09103929 -0.1862184
-0.0040372065 0.09501443 -0.0017990752 0.0009557009 -0.026769131 0.079248965 -0.12355353 -0.0723281
-0.16499208 -0.08346291 -0.07342449 -0.14018919 -0.060885612 -0.07548234 -0.0720764 0.105156824
0.0077679814 -0.08521847 0.12120144 -0.00058585923 0.095239334 -0.10182473 -0.078617916 -0.1445727
-0.0516999 0.050863504 -0.073838554 0.07999668 -0.17377158 -0.048149303 -0.092776604 -0.0841115
-0.09047998 0.01478229 -0.05534896 0.04714398 0.047772843 -0.11806994 -0.07066281 -0.17305705
-0.14622869 0.017836565 -0.029910749 -0.004053954 0.004749907 -0.048244044 0.11541869 0.08516984
0.07805656 0.08644615 -0.037493646 -0.08013516 -0.06991233 -0.058122724 -0.039071415 -0.07058606
-0.008310571 -0.026833788 -0.02877079 -0.06453155 -0.096673965 -0.053239852 -0.102372736 0.028902298
0.058646645 0.06421758 0.042447593 0.04130815 0.0002465248 -0.010694791 0.028790722 -0.016149234
-0.09825004 0.03167924 0.072585374 -0.123412386 -0.12674077 0.08967765 -0.034810346 -0.095569044
-0.12286149 -0.07769925 0.0119472 -0.10454562 0.030186102 -0.049873218 -0.08989774 0.035753716
0.12048153 0.06452109 -0.0424476 -0.034968063 -0.06153238 -0.078365326 -0.122035325 0.06912635
0.10319287 -0.09222415 -0.021811172 0.08995837 -0.015416825 -0.097388975 -0.1042968 0.08314066
-0.0682101 -0.037311114 -0.08289224 0.03506602 0.035331465 0.07646458 0.027110368 -0.13884416
0.90535545 -0.8087606 -0.13152067 0.17729178 0.09557386 0.08978159 0.3767762 -0.38055423
-0.083917335 -0.8749102 -0.0669657 -0.044088636 -0.17521012 0.027648661 0.049945716 -0.69665587
-0.30927435 -0.44049346 -0.7630705 -0.08068186 0.062171265 -0.4106081 0.6155492 -0.17964944
-0.5740214 -0.23149827 0.0016769767 -0.11013559 -0.60312575 0.034560233 0.4996345 -0.27304208
0.53062105 0.2690775 -0.07149495 0.39934233 -0.08760863 0.0659343 0.17264044 -0.39174518
0.10576676 0.07226434 0.04038795 0.039562747 -0.007322493 -0.14258042 -0.015946306 0.017181074
0.026135312 -0.0638537 0.74895686 -0.044629306 -0.089140445 -0.041495923 0.11896807 -0.118080854
-0.7708839 -0.98226684 0.4762359 0.24216266 -0.10255107 -0.05143985 0.07589126 -0.28535104
0.07174867 -0.020044267 0.0052008634 0.057589073 -0.04950863 -0.07869367 -0.12567799 0.063538365
0.123667896 -0.105058566 0.0026601255 0.067039035 -0.113564685 -0.0058164946 0.04884193 -0.1338461
0.048665356 -0.07324156 -0.07052649 -0.025552064 0.08428563 -0.018346662 -0.11547313 -0.042353373
-0.004629632 0.06520385 -0.11948216 0.07121003 0.048742555 0.050291702 0.041869305 -0.01499629
-0.1443875 -0.09616551 -0.07522568 0.09643875 0.071412206 0.012151092 0.03686585 0.05151348
0.015062697 0.08943698 -0.021347443 0.003464799 -0.053724963 0.05102147 0.041856144 0.092047386
-0.117320456 0.05634011 0.045699485 0.111079186 -0.09249027 0.049923003 0.10325548 0.02524965
-0.17123868 0.0033381244 -0.10437982 -0.08914696 -0.0435553 -0.11444411 -0.08037561 -0.13787548
00000000: bafa d83c 0154 3f3d 3d90 06be 8060 6abd
00000010: 08e0 3ebd 7c95 963d b539 893d f07c 973c
00000020: 80dd d03a 0781 edbd 0c25 93bd 711e 603d
00000030: e033 b43d c51c d9bc cf72 babd 09b0 3ebe
00000040: 8b4a 84bb ed96 c23d f2ce ebba 0088 7a3a
00000050: f04a dbbc 484d a23d a209 fdbd c120 94bd
00000060: aff3 28be 9aee aabd 945f 96bd c18d 0fbe
00000070: 3163 79bd 7c96 9abd cb9c 93bd 765c d73d
00000080: 8d8a fe3b 0587 aebd 7638 f83d 5994 19ba
00000090: d70c c33d 7c89 d0bd 6e02 a1bd de0a 14be
000000a0: 46c3 53bd 4056 503d ab38 97bd 4dd5 a33d
000000b0: 2df1 31be 3438 45bd a901 bebd a642 acbd
000000c0: 914d b9bd 6b31 723c 97b5 62bd 0c1a 413d
000000d0: 75ad 433d a7ce f1bd aab7 90bd de35 31be
000000e0: f9bc 15be fd1d 923c 6307 f5bc 08d7 84bb
000000f0: 1ca5 9b3b 8c9b 45bd a260 ec3d 866d ae3d
00000100: 1edc 9f3d ae0a b13d f092 19bd e71d a4bd
00000110: 322e 8fbd 1812 6ebd 5909 20bd 6d8f 90bd
00000120: 1029 08bc 88d2 dbbc b8b0 ebbc 1e29 84bd
00000130: 00fd c5bd 0812 5abd cca8 d1bd 83c4 ec3c
00000140: 7737 703d 8284 833d 87dd 2d3d bc32 293d
00000150: 0040 8139 3439 2fbc 85da eb3c 664b 84bc
00000160: 5137 c9bd 17c2 013d a4a7 943d a2bf fcbd
00000170: 55c8 01be eaa8 b73d 4b95 0ebd b4b9 c3bd
00000180: ce9e fbbd c920 9fbd 30be 433c 041c d6bd
00000190: d848 f73c dc47 4cbd 4e1c b8bd 7d72 123d
000001a0: 05bf f63d a223 843d 89dd 2dbd ac3a 0fbd
000001b0: 6009 7cbd 007e a0bd a8ed f9bd 1e92 8d3d
000001c0: c956 d33d 04e0 bcbd 58ad b2bc 183c b83d
000001d0: da96 7cbc df73 c7bd 9099 d5bd a645 aa3d
000001e0: bdb1 8bbd 8ad3 18bd 68c3 a9bd 63a1 0f3d
000001f0: bab7 103d 7699 9c3d 9016 de3c 2a2d 0ebe
00000200: 60c5 673f ef0a 4fbf 5bad 06be fa8b 353e
00000210: 3abc c33d 69df b73d cfe8 c03e 01d8 c2be
00000220: dadc abbd 1dfa 5fbf 5025 89bd 4996 34bd
00000230: 486a 33be 727f e23c e193 4c3d 0a58 32bf
00000240: 3559 9ebe 5c88 e1be 9758 43bf 883c a5bd
00000250: 4ca7 7e3d 3a3b d2be a294 1d3f 06f6 37be
00000260: 11f3 12bf e20d 6dbe 00ce db3a c58e e1bd
00000270: 7366 1abf 088f 0d3d 18d0 ff3e 2ccc 8bbe
00000280: c8d6 073f 87c4 893e f26b 92bd 9976 cc3e
00000290: 276c b3bd 9008 873d a8c8 303e d392 c8be
000002a0: 3e9c d83d 54ff 933d d66d 253d 8c0c 223d
000002b0: 86f1 efbb 9a00 12be d4a1 82bc 53bf 8c3c
000002c0: b919 d63c bbc5 82bd a3bb 3f3f 38cd 36bd
000002d0: 448f b6bd a1f7 29bd 88a5 f33d 60d4 f1bd
000002e0: a658 45bf d775 7bbf 31d5 f33e 7df9 773e
000002f0: 4c06 d2bd 98b2 52bd e06c 9b3d 8819 92be
00000300: f7f0 923d e033 a4bc 016c aa3b 85e2 6b3d
00000310: 90c9 4abd 262a a1bd bbb1 00be 6720 823d
00000320: 9845 fd3d f228 d7bd 8055 2e3b c34b 893d
00000330: 9a94 e8bd 4b98 bebb 7a0e 483d f40e 09be
00000340: 5355 473d acff 95bd 3170 90bd 9052 d1bc
00000350: f29d ac3d bd4b 96bc 2d7d ecbd bb7a 2dbd
00000360: 2bb4 97bb 9989 853d 10b3 f4bd 90d6 913d
00000370: 46a6 473d acfe 4d3d 267f 2b3d 00b3 75bc
00000380: 51da 13be 6cf2 c4bd ec0f 9abd ae81 c53d
00000390: 9040 923d 6015 473c a500 173d ccff 523d
000003a0: 88c9 763c bc2a b73d d5e0 aebc ae11 633b
000003b0: b50e 5cbd e4fb 503d 5971 2b3d 5783 bc3d
000003c0: b545 f0bd e3c4 663d 622f 3b3d 7c7d e33d
000003d0: 8a6b bdbd 107c 4c3d 9c77 d33d 5bd8 ce3c
000003e0: 3159 2fbe 6fc4 5a3b 16c5 d5bd ae92 b6bd
000003f0: 0b67 32bd ac61 eabd f89b a4bd 3b2f 0dbe

actor.2.bias f4 [64]
-0.02853965 -0.025067808 -0.03875112 -0.09626331 0.06720916 -0.13335422 -0.042863842 0.07888304
-0.07521111 -0.03313853 -0.05467177 0.47687513 -0.02945854 -0.113403544 -0.08854789 -0.13109808
0.4319614 0.047445502 -0.24705085 -0.1139864 0.12596546 0.07131022 0.020841345 -0.08049052
0.046803497 -0.025622785 -0.008235601 0.18602465 -0.016983137 -0.09634471 0.031324886 0.16911878
-0.09745887 0.055747084 -0.029979711 0.42712632 0.16132186 -0.059070367 -0.0078401845 0.028876442
-0.08081086 0.08166935 0.26077786 0.31443772 0.25992927 0.16173755 0.04837486 -0.13387975
-0.034236465 -0.045249015 -0.10243912 0.027713304 -0.08228347 -0.024687454 0.26141632 -0.0973926
0.24854173 0.33976567 -0.019170834 0.16974488 -0.0783149 0.44404426 -0.11343364 0.055962525
00000000: fccb e9bc 015b cdbc 7fb9 1ebd b325 c5bd
00000010: f5a4 893d 028e 08be ff91 2fbd 6e8d a13d
00000020: 4808 9abd 44bc 07bd 82ef 5fbd fa28 f43e
00000030: 0953 f1bc 1e40 e8bd 9958 b5bd 933e 06be
00000040: 0b2a dd3e 3756 423d e6fa 7cbe b471 e9bd
00000050: 17fd 003e 180b 923d 78bb aa3c 37d8 a4bd
00000060: 06b5 3f3d e0e6 d1bc 9dee 06bc 3f7d 3e3e
00000070: 3820 8bbc 6050 c5bd 864e 003d 792d 2d3e
00000080: 8498 c7bd 0e57 643d 0398 f5bc 4db0 da3e
00000090: 8f31 253e c5f3 71bd 1e74 00bc 4a8e ec3c
000000a0: 2a80 a5bd 4342 a73d ad84 853e fbfd a03e
000000b0: 7315 853e 879e 253e b824 463d c617 09be
000000c0: 893b 0cbd 0857 39bd 9acb d1bd 0307 e33c
000000d0: 3c84 a8bd 583d cabc 5cd8 853e c575 c7bd
000000e0: b981 7e3e c4f5 ad3e 270c 9dbc 9ad1 2d3e
000000f0: 9063 a0bd c559 e33e e54f e8bd f638 653d

actor.4.weight f4 [1, 64]
0.021725863 -0.051399596 1.7117828 0.02470607 1.5819299 -0.04599201 2.3303237 1.7616992
0.11878806 0.124696836 2.776077 -1.305081 -0.0010441532 -0.08143093 -0.14975432 -0.00021278195
-0.9714589 0.04367359 0.51476204 0.0634618 -1.3315539 0.00017587555 -0.0056921383 0.06965185
-0.014147907 -0.074164465 -0.0022650133 -1.1836275 0.05071669 0.0018463101 -0.014924926 -1.1399399
0.11910118 -1.6213351 0.012627228 -1.1267418 -1.7091762 1.805772 -0.08053151 1.5847279
2.4641242 -0.57473 -1.6747974 -1.5041455 -1.6436263 -1.5920318 -0.5880499 -0.1103384
-0.059799638 -0.03180957 0.03703119 -0.025058184 -0.013797343 -0.02865474 -1.1607382 0.0075055105
-1.2083372 0.6626029 2.4532974 -1.4615066 -0.07222585 0.74916273 -0.08281907 -0.52937555
00000000: 70fa b13c 6288 52bd b31b db3f 6264 ca3c
00000010: ae7c ca3f 1e62 3cbd 0624 1540 5c7f e13f
00000020: 2847 f33d 0e61 ff3d 3fab 3140 e50c a7bf
00000030: f8db 88ba 42c5 a6bd 3259 19be 381e 5fb9
00000040: 88b1 78bf 14e3 323d 72c7 033f 43f8 813d
00000050: 5c70 aabf 3c6b 3839 1e85 babb a1a5 8e3d
00000060: 9fcc 67bc 8ae3 97bd 9e70 14bb 1b81 97bf
00000070: 4ebc 4f3d e3ff f13a ad87 74bc 8de9 91bf
00000080: 52eb f33d e987 cfbf 6fe2 4e3c 1339 90bf
00000090: 49c6 dabf 8923 e73f b4ed a4bd 5dd8 ca3f
000000a0: 36b4 1d40 8121 13bf c35f d6bf d787 c0bf
000000b0: 5962 d2bf b3c7 cbbf 708a 16bf 19f9 e1bd
000000c0: 77f0 74bd c04a 02bd 04ae 173d d246 cdbc
000000d0: 400e 62bc 58bd eabc 1293 94bf c9f0 f53b
000000e0: cbaa 9abf 58a0 293f d302 1d40 a612 bbbf
000000f0: 25eb 93bd 21c9 3f3f 0b9d a9bd 2885 07bf
