preTrained/MountainCarContinuous-v0/3level/HAC_MountainCarContinuous-v0_level_1_actor.pth (torch_old, 19516 bytes, 6 tensors)

actor.0.weight f4 [64, 4]
00000000: 3601 f3be f294 4ebf 05c5 53be dce5 c93d
00000010: 21e0 173d 685d 9bbf 4d4c e6be 043a 91be
00000020: b33f b63e 1564 313d cf0d e8bc 2c8a 16bd
00000030: 36ae e23e 5ae5 363f b0b9 d5be 943c 8dbf
00000040: 29bd abbe 29ca cabf 0e1d 51bd 36ac 053f
00000050: f6aa d4be efd5 58bf 9004 57be 68a9 c9bf
00000060: 25c1 acbe af1c 34bf 1dae d4bd c95b 01be
00000070: 3899 073f ee1d 0d40 e634 0fbf fd0f 2dbf
00000080: 6a05 dbbe 135f 6cbf 9c54 023f 5e9c 47bf
00000090: bc8b 173e 96e0 673f bac8 b83e 0f54 14bf
000000a0: 478a e53e 883b 86be b4f6 a1be ac45 b5bd
000000b0: 3cf6 99be b365 58be 5465 1dbe 38dc 8f3f
000000c0: 77ae ee3e 4de2 1cbf 83cd c0be 356c 85bd
000000d0: 34f2 79be aaa0 0ebe 1d24 04bf c6ed 053e
000000e0: 8926 acbe f361 81bb 418d 42bd 36de 57be
000000f0: 0737 2dbe dc9d b83f f190 db3e 8ddc 6fbf
00000100: 6bd5 303e fc65 81bd 1355 b63e 9a7e 19bc
00000110: f796 83bd 681b 88bf e1ea 303e 5428 8cbe
00000120: 9ff9 e4bd d34d 45bf 4225 bdbd 507a 3240
00000130: 0d5b 053e d607 88be 9b70 b23e 05fb 23bf
00000140: 0dcd f8be 2157 47bf a48b d53e b3f2 20bf
00000150: 6ce8 2cbe 9c25 aabe fa8c 023e 3485 9b3f
00000160: 6286 73bc 965f ac3f af07 243e 012e fd3f
00000170: 3c62 c23d df4a a53e d6c6 a0be ed23 2240
00000180: aed9 ed3e 376e dc3e b865 e2be 032f a93f
00000190: c0e2 7d3c 6848 873d a482 1dbe 1c49 543e
000001a0: d458 fabe 5201 91bf 1d0f 2d3f e78e b33e
000001b0: c797 cfbe 3d3b 08bf 526e 5ebe 59de 333f
000001c0: db60 fc3d 0edf 55bf 325f a23e da1f 1fbf
000001d0: 3c91 d7be 2d90 b2bf f08d 93be 4015 96bd
000001e0: c340 e0bd 89a5 8bbd 02ba c3bd aef1 8fbf
000001f0: 1c37 c9be 69f2 b9bf 01d8 0a3f 38c9 56be
00000200: 3628 83bd 6cf8 bcbe bda1 e63e 03dc cf3e
00000210: 2096 0ebd 6206 d83e 280f db3d 9221 edbe
00000220: 1396 313e 07d6 74bf 697c 9fbe 0b44 9f3f
00000230: 385d 973e f906 b83e 7a3f 7abe 3b15 5abd
00000240: 5314 94be 3782 6dbe 01ba b73e b2b0 e8bf
00000250: 2451 883e 9a35 df3f 2113 0bbf bab4 94be
00000260: 162f d03e a914 17bc fcec b4bd e8f5 053e
00000270: 9f01 01be f5c9 15c0 0770 453e 2612 4bbf
00000280: 5404 773e 4d43 93bf 7ac7 8dbe cccc 1e40
00000290: 42db 043e 27aa 98bf aa5c 27be 0e62 17c0
000002a0: d454 efbe 6470 00c0 73c4 1f3e feba 70bf
000002b0: 2b9e 47bc 3361 b53f 6c54 d4be 32c1 853f
000002c0: 84c8 613e 708b 2cbe 285c 133e aef8 a53e
000002d0: 5b0c f73e b9bc f03f ebe0 f1be f143 853f
000002e0: 0a7c 01bf f46d f1bf 0cc9 0e3f 0361 ba3e
000002f0: 2954 ddbe eea5 6abf 5a6e 9abe 0ad0 2a3f
00000300: 7079 213f fa47 933f 41d0 08bf 303d bbbf
00000310: 687e 0a3e c909 613f 2d68 04bf 4ced d43f
00000320: c60e f93c 139a 753f 00dd 2a3e 291c 8ebf
00000330: b307 0dbe 9376 a8bf cb8a b93c 7752 2f3f
00000340: d843 b5be 4375 d4be 6cad 75be 2c6e 0d3f
00000350: e2e8 c93d 2328 703f e92e e7bd 5cab 1d40
00000360: c0cc bdbd 5f13 ecbe b575 2fbe df97 943d
00000370: 863d fcbe e62c d5be a65f 013f 2bfd 09be
00000380: bfe9 00be c500 62bf 1565 6f3e 30e9 ee3f
00000390: b36d f13e 96b1 4c3f 109e 1f3f 3944 06bf
000003a0: d566 8bbe f091 17bf 43c3 843e 7825 1c40
000003b0: 0a40 5f3e cb1f c53e 871a 89be 67e5 95bf
000003c0: b335 1e3d 934c dfbe fdc5 b0be 0e2c a53e
000003d0: 2f47 41be 8e42 cfbf 06d2 3f3f a629 1f3f
000003e0: 5ee1 033e 42f3 28c0 680d 663e 7f4e b43f
000003f0: 35c5 67bd 58a3 1dc0 51c8 053e 7022 663f
-0.4746186 -0.8069602 -0.20680626 0.09858295 0.03707898 -1.213788 -0.44980088 -0.28364575
0.35595474 0.043308336 -0.028326897 -0.036752865 0.44273537 0.7144371 -0.4174323 -1.1034112
-0.33542755 -1.5842944 -0.0510531 0.522159 -0.41536683 -0.84701437 -0.20997834 -1.5754824
-0.33741108 -0.7035627 -0.10384772 -0.1263267 0.5296817 2.2049518 -0.5594009 -0.6760252
-0.42777568 -0.9233257 0.50910354 -0.7797297 0.14799398 0.90577066 0.36090642 -0.57940763
0.4483206 -0.26217294 -0.31633532 -0.088511795 -0.30070674 -0.21132545 -0.15370685 1.123908
0.4661748 -0.6128281 -0.37656793 -0.065147795 -0.244088 -0.13928476 -0.51617604 0.13078985
-0.3362315 -0.003948444 -0.04749799 -0.2108086 -0.16915523 1.4423175 0.4288402 -0.9369591
0.17268912 -0.0631828 0.3561178 -0.009368563 -0.06425279 -1.0633364 0.17277099 -0.27374518
-0.11180424 -0.77071875 -0.09235622 2.7887154 0.13023014 -0.26568478 0.34851536 -0.640549
-0.4859394 -0.77867323 0.417081 -0.6287033 -0.16885537 -0.3323182 0.12749091 1.2150025
-0.014863582 1.346667 0.16018556 1.9779664 0.09491393 0.32283685 -0.314017 2.5334427
0.4645514 0.43052837 -0.4421823 1.3217472 0.015495956 0.06605607 -0.15381867 0.20731014
-0.48895895 -1.1328528 0.67601186 0.35069963 -0.40545484 -0.5321539 -0.21721771 0.7026115
0.12323161 -0.8354348 0.31713253 -0.62157977 -0.42102993 -1.3950249 -0.28819227 -0.07328272
-0.10949852 -0.06818683 -0.095569625 -1.124563 -0.39299858 -1.4527103 0.54235846 -0.20975196
-0.06404154 -0.3690828 0.45045272 0.40597543 -0.03481114 0.4219237 0.1069625 -0.46314675
0.17342405 -0.9563908 -0.31149605 1.244264 0.29563308 0.3594282 -0.24438277 -0.053242903
-0.28921756 -0.23194204 0.35884097 -1.8178923 0.26624405 1.7438233 -0.54326063 -0.29044133
0.40660924 -0.009221234 -0.08834264 0.13082087 -0.12598275 -2.3404515 0.19281016 -0.7932457
0.24122745 -1.1504914 -0.2769125 2.4812498 0.12974265 -1.1926926 -0.16343942 -2.3653598
-0.46744406 -2.0068598 0.15602283 -0.9403533 -0.012183706 1.4170288 -0.4147066 1.0449584
0.22049147 -0.16850066 0.14390624 0.3241629 0.48251614 1.8807594 -0.4724191 1.0411359
-0.50579894 -1.886168 0.55775523 0.3640214 -0.43228272 -0.9165944 -0.30162317 0.6672369
0.63075924 1.150634 -0.5344277 -1.4628048 0.13524783 0.87905556 -0.5172146 1.6634917
0.030402552 0.95938224 0.16685867 -1.1102344 -0.13772468 -1.3161186 0.02264919 0.68485206
-0.35403323 -0.41495714 -0.23991936 0.55246234 0.09858872 0.93811244 -0.11288244 2.463584
-0.092675686 -0.4610853 -0.17134745 0.072555296 -0.4926569 -0.41635817 0.5053657 -0.13475482
-0.12589167 -0.88282424 0.23378403 1.8664913 0.47154006 0.79958475 0.6235056 -0.5244785
-0.27226892 -0.5920706 0.25930223 2.439787 0.21801773 0.3850082 -0.2677805 -1.1710633
0.03862543 -0.4361311 -0.34526053 0.32260174 -0.1887481 -1.6192186 0.74929845 0.62172925
0.1287894 -2.6398473 0.22466052 1.4086455 -0.056584556 -2.4630947 0.13064696 0.898963

actor.0.bias f4 [64]
00000000: 0482 febe 0b94 92be c87a 57be aadc f63c
00000010: d3f0 bebe 9250 93be 0463 fcbb 9fc3 48bd
00000020: 9185 ed3d cd64 fa3e 84a4 02bf 577d a23c
00000030: e727 293d 95d8 53bf 16d1 f9be e767 873e
00000040: 5cae 053e b1f4 c43d 400b 12be 639a 9b3e
00000050: 1efa 023c 5a9c 973c 1a2c a8bd 3ee8 9c3d
00000060: 4456 013e a620 9ebe 7eaa e9be f739 5d3e
00000070: 43f3 ef3d 39de 2cbe 56c6 4cbc 5848 403e
00000080: 0a6d a9be f009 64be 925f 89be 5679 053e
00000090: 37a8 ea3c 91de 67be f2a9 74be 7504 283e
000000a0: 275f 9dbd c8e0 dcbd 09af 7bbe 1b3e e8bd
000000b0: b0df ebbe 49d1 8c3c 5fe8 47bd a0db e4be
000000c0: 5834 8c3e e037 ccbd 2518 4f3e 3371 543d
000000d0: 907a 5c3e d6ed ddbc eeaa 093e 72ed 4d3e
000000e0: ce3a b33d 2bf3 c2be ff7d 6b3c ec77 a83d
000000f0: b537 f2be e00c a0be d0f0 813e a737 923d
-0.4970857 -0.28628573 -0.21042931 0.030134518 -0.3729311 -0.28772408 -0.0077022333 -0.049014684
0.115977414 0.4890503 -0.5103228 0.019835157 0.04129782 -0.8275235 -0.48792332 0.2644646
0.13054794 0.09616984 -0.14262104 0.30391225 0.007994203 0.018507171 -0.08211537 0.07661484
0.12630564 -0.30884284 -0.45637888 0.21604143 0.1171632 -0.16881646 -0.012498459 0.18777597
-0.33091003 -0.22269416 -0.26830727 0.13034567 0.028644664 -0.22643496 -0.23892954 0.1640795
-0.076841645 -0.10785061 -0.2457849 -0.11339971 -0.46069098 0.017189639 -0.04880559 -0.4469881
0.27383685 -0.09971595 0.20224054 0.051865768 0.21531129 -0.027090948 0.13444111 0.2011011
0.087514505 -0.38076147 0.0143733015 0.08225998 -0.47308126 -0.31259823 0.25379038 0.07139521

actor.2.weight f4 [64, 64]
00000000: 84ca a3bd 70fd 423c aa21 dc3d ceba 97bd
00000010: 42bd a0bd 0ebf cbbd 8b20 c3be dcf8 b23d
00000020: 148b 4b3a 3a79 0abe e069 803d a07b aabe
00000030: 6904 0b3f f8c8 ef3c 2e7b 9dbd 1ba0 a2bd
00000040: 017b cf3d 0d0e 31bd 66bd f3be 3378 553d
00000050: 8091 e33c e323 70be 3332 9e3e e033 fc3c
00000060: 0925 2bbf 2478 673d 83d9 a33e 1bc4 85be
00000070: 82f7 cd3d a40b 343d 581c debd 094e a1bd
00000080: 0745 3abd e4c1 323d 648c f3bd a90e 9fbe
00000090: 8e88 4abe 36a9 823d a019 7e3c 2e29 fdbd
000000a0: 78e3 acbd e865 3fbd 670c 623e 6c0e 10bd
000000b0: f086 c1bd f365 f3bd 361d 523f b69f 55bc
000000c0: 3777 0dbf e8f9 20bd 2660 543c d297 c7be
000000d0: 1778 cabe c21f 9c3e 4752 b8be b7d3 6cbc
000000e0: d9be 86be 93db 503f 1a2b 5bbe 9a74 e83d
000000f0: 1453 3ebd a201 263f 87d2 aebe d532 78be
00000100: f210 7ebc 7c01 69bd dc88 8ebd 4e98 913c
00000110: bcfd 443d f0bd c33c 6498 27be 899c 12bc
00000120: aa9e 9a3d ea42 a53c 803d f13c dd06 bfbd
00000130: aa42 29be 9340 993d e8a5 983d b10b 0ebc
00000140: 05e7 80bd bffc abbd 6a32 8ebd 4ee2 2ebe
00000150: 78aa 98bc 03e9 c03d 314b 083e c7ec c9bd
00000160: 8bc3 b23c 26d6 b1bd a018 d03d 70f8 8dbd
00000170: 2bdc 99bd f06b 02be e7e8 c6bc d86f fabd
00000180: 0098 eabd 2478 b8bd f3c0 113d 15ad 15be
00000190: cbc9 3a3c a494 9abd 0700 443c 3d4e b3bd
000001a0: 4257 ab3d 6816 97bd 84fa 2b3d 68a6 45bd
000001b0: e8f4 723d 9bad 8f3d ed87 a73d 8f9a 0939
000001c0: 013b 633d ad30 663d a238 f1bd de7f 943d
000001d0: 091a 09bd 5931 cf3d e080 2bbe e869 f8bd
000001e0: 8631 0fbe 2443 2bbd 84be 7a3d 00b2 c6bd
000001f0: e117 3f3d 10e2 23bc f011 d43c 2e9c a839
00000200: 801b 783d f713 243c 9017 e23c 5c0f b93d
00000210: fc26 f3bd 523a b6bd d205 93bd fb86 81bc
00000220: bc31 bb3d ddfd 9ebd be10 8cbd 1bf7 58bd
00000230: df2f 14bd 70cb dbbc 0025 1b3b 1a4b fbbd
00000240: f29d c63d d2b0 82bd 0f98 9e3c 8894 1abd
00000250: 40ca 4d3c be2f cf3a 52b9 91bd 9549 803d
00000260: ea19 cb3d 30fb 883c aa1d aa3d 832d abbc
00000270: 6acf de3d 509d 8a3d c002 95bd f402 993d
00000280: 9a89 883d 8064 773d 450e 6fbd ff05 82bb
00000290: f2e5 e43d a1f0 c43b 5e8a e53d fe42 893c
000002a0: 1b4f cc3c b3f4 893d 7c53 fb3d 3d1d 0e3d
000002b0: ea06 a6bd 11b3 ae3c c83b 56bd ec38 bdbd
000002c0: 0fd9 fdbd eb50 c93a c993 95bd 522d 08be
000002d0: ddd6 6bbd e522 adbd 81c4 99bd c0fa ccbc
000002e0: b43d ce3d 764e dabd 6250 f2bd 539b 0a3d
000002f0: 1802 dabd c014 583b 1acf 06bc 2ab1 a6bd
00000300: a6f6 b73d 04b0 a23d acef f4bd 6829 b7bd
00000310: a47a a2bd 40ac bb3b 88fd 813c a658 ac3d
00000320: 0c62 a4bd e055 00bc aab0 dcbd cc2d 8c3d
00000330: c256 febd 8a5f d0bd 0828 87bc a8f7 843c
00000340: cae5 a8bd 347e 91bd 784f 09bd de2b c6bd
00000350: 08d6 8cbc d8f3 8dbc d41f 703d c01f fc3b
00000360: f82c 393d 68c7 9e3c fcd5 7e3d 22f6 a0bd
00000370: 8492 d23d 903c cd3d 10a2 733d 0cba 033d
00000380: 9046 8c3c 000a 44bd b029 723c 2c33 c4bd
00000390: f0e5 efbd 8097 91bc 082a bebc 7821 d4bc
000003a0: 007f 703b 6409 8ebd 28cd 3dbd 40f4 db3b
000003b0: 42fe b3bd 2c87 2abd 841e 863d 4023 673d
000003c0: 62f7 ddbd 00d7 2dbb be9e cb3d 92ce 8dbd
000003d0: 00b8 e738 de64 e3bd 78a4 ccbc 844e 53bd
000003e0: 2e3d 9d3d a00a d43d e083 cc3b f886 cbbc
000003f0: 6000 dfbb 42f6 f13d 68af 90bd 8e58 ba3d
-0.07997611 0.0119012445 0.107486084 -0.07408677 -0.07848598 -0.0994855 -0.38110766 0.087388724
0.00077645597 -0.13522807 0.06270194 -0.33297443 0.54303604 0.029270634 -0.0768951 -0.07940694
0.10130883 -0.04322629 -0.47605437 0.052116584 0.02777934 -0.2345119 0.30897674 0.030786455
-0.66853386 0.05651106 0.32001886 -0.2612618 0.10056974 0.043956414 -0.1084525 -0.07876212
-0.045475986 0.04364194 -0.11892012 -0.31065872 -0.19778654 0.06379931 0.015509039 -0.1236137
-0.08441824 -0.046728045 0.22075044 -0.035170004 -0.094495654 -0.1188468 0.8207582 -0.013038566
-0.5526003 -0.03930083 0.012962377 -0.38983017 -0.39544746 0.3049298 -0.36000273 -0.014454774
-0.2631748 0.81585044 -0.2140316 0.11350365 -0.04646595 0.6484624 -0.34144995 -0.24238141
-0.01550697 -0.05688618 -0.069596976 0.01777282 0.048093542 0.02389428 -0.16366726 -0.008948454
0.07549794 0.020173509 0.02944827 -0.09327481 -0.16529337 0.0748302 0.07453519 -0.00866978
-0.062940635 -0.08397817 -0.069432095 -0.17078516 -0.018635973 0.094194435 0.13309933 -0.09859615
0.021821758 -0.08683424 0.10160947 -0.06932151 -0.07512697 -0.12736487 -0.024280978 -0.12228364
-0.11454773 -0.0900729 0.0355844 -0.14616807 0.01140065 -0.07547882 0.011962897 -0.08755157
0.083662525 -0.073773205 0.041986957 -0.0482544 0.059315592 0.070155345 0.08180223 0.00013122916
0.055476192 0.056198765 -0.1177838 0.07250951 -0.033472095 0.10116834 -0.1674838 -0.12129575
-0.13983735 -0.041812077 0.061216846 -0.097019196 0.046653632 -0.010002628 0.02588746 0.0003215982
0.0605731 0.010014526 0.027599126 0.09036133 -0.1187267 -0.088978425 -0.071788445 -0.015811434
0.091403455 -0.07763264 -0.06839131 -0.052970033 -0.036178466 -0.026830405 0.0023673177 -0.12270184
0.096980944 -0.06381382 0.019359617 -0.037739307 0.012560427 0.0015807075 -0.07115425 0.06264035
0.09917052 0.016721338 0.08306439 -0.020895725 0.10879405 0.06768286 -0.07275915 0.074712664
0.066668704 0.06039858 -0.058363218 -0.003968 0.11176671 0.0060101305 0.11208032 0.016755577
0.024940064 0.06736126 0.12271783 0.034695853 -0.081067875 0.02132562 -0.052303106 -0.092393726
-0.12394916 0.0015359198 -0.073035784 -0.13298538 -0.057577956 -0.08453921 -0.07508183 -0.02502191
0.10070363 -0.106594965 -0.11831738 0.033839535 -0.106449306 0.0032971352 -0.008228088 -0.0813926
0.08982591 0.079437286 -0.11959776 -0.089434445 -0.07933548 0.005727321 0.015867963 0.08415346
-0.080265135 -0.007832974 -0.107758835 0.068446726 -0.124188915 -0.10174473 -0.01649858 0.016231373
-0.08246954 -0.071041495 -0.033523053 -0.09676336 -0.017191902 -0.017328188 0.058624104 0.0076942146
0.0452089 0.019382194 0.06221579 -0.07859446 0.10281852 0.10021317 0.059480727 0.03215985
0.01712349 -0.0478611 0.014780447 -0.09580073 -0.11713779 -0.017772436 -0.023213401 -0.025894865
0.0036696792 -0.06935385 -0.04633823 0.0067124665 -0.0878873 -0.041632816 0.06548789 0.0564301
-0.108382 -0.0026525855 0.09942387 -0.06924166 0.00011049211 -0.11103223 -0.024980769 -0.05158855
0.07677685 0.10353589 0.0062413067 -0.024844632 -0.0068054646 0.11814548 -0.07064706 0.09098922

actor.2.bias f4 [64]
00000000: 4d31 afbd cf0f 3f3c 81aa 66bd a8f6 efbd
00000010: 50a4 343d 48af 36bd 72e7 03be d45b d6bc
00000020: a6fc 963d 4894 d0bb a308 473b e006 d2bd
00000030: 97b3 b2bd a56c 06be 4ec8 fcbd c3f2 8fbd
00000040: 8af6 c7bd a5e1 243d fda3 1dbd 23d7 2dbb
00000050: ec55 4b3d b372 a6bd edf3 25bd 6fbe 67bd
00000060: db6f c1bd 1cf4 093d 4a9c e9bd 4d5b 0fbd
00000070: 40c5 a5bd 747c 0a3e 8e0b 39be a319 41bd
00000080: edb9 43bd 17b5 d1bc 4fab c43b 8391 edbd
00000090: 7242 dcbd 34b4 7bbc 0ff6 ecbd 9af3 b6bd
000000a0: 47df 943d 0be6 913d 2acb 5cbd 4e10 b4bd
000000b0: aae7 433d 7093 2f3e d66a c7bd 6ac1 92bc
000000c0: 058b a53c 16e7 a939 84e5 f9bc e2ae a2bd
000000d0: 8964 a6bd c624 c03c b521 ed3d cda4 da3d
000000e0: 807d d8bd 3c6a 27bd 1cf4 133d 83e6 9dbd
000000f0: 1426 19be b079 77bb c50f f43c 1e15 e9bb
-0.08554325 0.011661484 -0.05631495 -0.11716968 0.044102013 -0.044600755 -0.12881258 -0.026166834
0.073724076 -0.0063653328 0.0030370138 -0.102552176 -0.0872566 -0.13127382 -0.123428926 -0.07028725
-0.097638205 0.040254254 -0.03848647 -0.0026525937 0.04964249 -0.08127346 -0.04051583 -0.056578096
-0.09445163 0.033680066 -0.11406763 -0.03499918 -0.08094263 0.13524038 -0.18070814 -0.04714359
-0.047784735 -0.025599046 0.006001867 -0.1160002 -0.10754861 -0.015362788 -0.115703695 -0.08933182
0.07269149 0.07123955 -0.05390469 -0.08792172 0.047828354 0.17146087 -0.09737174 -0.017914493
0.020207891 0.00032406364 -0.03050495 -0.079435125 -0.08124644 0.023455035 0.11578695 0.106759645
-0.10570812 -0.040872797 0.036121473 -0.07709982 -0.14955932 -0.003776174 0.029792676 -0.007113113

actor.4.weight f4 [2, 64]
00000000: 8014 993f 0410 82bd 46b6 49bd 002b a53a
00000010: 453f 65bc c197 f2be 4114 1c3e be81 0b3f
00000020: 3dc8 8c3e 78ad 523a 9998 913d 98db 85bc
00000030: cd7e d3bd b186 1ebc 99a9 013e a63c 1dbe
00000040: 2af4 bebe 8fdb 71bd c739 eabe b5da 5e3d
00000050: 6e72 87bd d5ba 853e 123d e0bb d145 193e
00000060: 8b32 ec3d 2dd8 bf3d 9e17 bb3d d27b 9fbc
00000070: e7b9 a8bd ab0b 043e 1f63 103d 3ad0 1b3e
00000080: fc51 ef3b ee57 efbe 6809 853d 72b4 233c
00000090: ceed 5abd 6809 a5bd 6bc3 0e3e 8e38 b4bd
000000a0: 326e 23be 6494 de3d ebc8 08bd 6390 d7bc
000000b0: 1ed9 813d acc2 98be 5f44 9ebf 0e6e 863c
000000c0: e445 a03d 6572 b1ba ed20 b13e 859b 3e3c
000000d0: 7204 12be d2c1 8abd 3629 393d dd4e c03d
000000e0: 1d31 63bd e923 4cbd bcf3 b138 a6b8 d13e
000000f0: a14e d23c 3195 76be fe18 64bd 7a0d 5cbd
00000100: 28e7 75be ae96 d0bc fc67 b9bd 482b e4bc
00000110: 8969 0ebb c9e1 1abe ad55 043f d2af bb3f
00000120: 46a9 653d b789 2e3d b9d1 1fbe 98cc d0bd
00000130: 1bd1 a13d 7669 fe3c 4c24 303d e6ea 0b3f
00000140: 64d1 09bf 3860 dd3e ddae 1040 90bc d93e
00000150: 3617 ee3d 0076 15be d7e1 45bc f3e7 81be
00000160: d148 a13c a6de 553e 20c4 903c b9c0 6c3f
00000170: 48b2 15bd 8002 62be 871f 2cbf 0bc5 163f
00000180: d673 02be 695b e2be 7b28 5a3f dd6b 8b3d
00000190: f6b5 df3d f661 4e3d 3002 113f a811 d8bd
000001a0: 7555 3dbe f425 39be 1038 bcba 3a4c af3c
000001b0: 5d3f d63c b964 17be d048 2abe 77a5 493d
000001c0: 5eed 3cbe 6cfe 39bd 6f6b a7bd e6f2 14be
000001d0: dbc7 d93f 03b3 c2bd f0e9 d8be 0c4d 72bd
000001e0: f432 19bf 2992 f43f 33be c03b 9327 373d
000001f0: 5d09 4dbd d3fd 1abf f9ca 47bd db7f c4be
1.1959381 -0.06350711 -0.049246095 0.0012601316 -0.013992135 -0.47381404 0.15242101 0.54494846
0.2749652 0.0008036713 0.07109184 -0.016340062 -0.1032692 -0.009675668 0.12662353 -0.15355167
-0.37295657 -0.059047278 -0.45747206 0.054407794 -0.066136226 0.26119104 -0.0068432176 0.14968039
0.11533078 0.09367404 0.09135364 -0.019468222 -0.08238583 0.12895076 0.03525078 0.15216151
0.0073034745 -0.46746773 0.06495935 0.009991752 -0.053449444 -0.08058435 0.13941734 -0.087998495
-0.15960005 0.10868147 -0.033394735 -0.026313966 0.0634024 -0.29836023 -1.2364615 0.0164099
0.078258306 -0.001353812 0.34595433 0.011633758 -0.14259508 -0.067752495 0.045205317 0.09390042
-0.05546676 -0.049838934 8.485417e-05 0.40961188 0.025672259 -0.2408035 -0.055687897 -0.05372379
-0.2401396 -0.025462475 -0.090530366 -0.02785267 -0.0021730384 -0.15125193 0.5169323 1.4663031
0.056069635 0.042611804 -0.15607347 -0.10195273 0.07901212 0.031056147 0.043003365 0.546553
-0.5383513 0.43237472 2.2606728 0.42526674 0.11625521 -0.14595795 -0.01207777 -0.25372276
0.019688042 0.20885715 0.017671645 0.9248157 -0.036546975 -0.22071266 -0.67235607 0.58894414
-0.127395 -0.44210365 0.8521802 0.06807683 0.10923378 0.05038639 0.5664396 -0.10550243
-0.1848963 -0.18080884 -0.001435997 0.021398652 0.02615326 -0.14784516 -0.16629338 0.049230065
-0.18449923 -0.04540865 -0.08174788 -0.14545783 1.7014116 -0.095068 -0.4236598 -0.05915551
-0.59843373 1.9107105 0.0058820485 0.044715475 -0.050057758 -0.60543555 -0.048777554 -0.38378796

actor.4.bias f4 [2]
00000000: bb21 e73c 6ddb 8bbe
0.028214326 -0.27315846
