preTrained/MountainCarContinuous-v0/3level/HAC_MountainCarContinuous-v0_solved_level_1_actor.pth (torch_old, 19516 bytes, 6 tensors)

actor.0.weight f4 [64, 4]
000000 0d 97 ef be de 51 52 bf 69 23 4f be b2 60 cd 3d
       -0.4679493 -0.8215617 -0.20228352 0.10028209
000010 1b 9f 0e 3d 25 81 9d bf bd 57 e7 be 1c 13 88 be
       0.034819704 -1.2305037 -0.45184126 -0.2657708
000020 b3 3f b6 3e 15 64 31 3d cf 0d e8 bc 2c 8a 16 bd
       0.35595474 0.043308336 -0.028326897 -0.036752865
000030 08 16 e2 3e 99 6c 37 3f 43 7e d6 be 44 81 8b bf
       0.44157434 0.7165008 -0.41893205 -1.0898824
000040 46 ec a6 be 7a bc cf bf 60 bf 58 bd 98 a3 f8 3e
       -0.32602137 -1.6229393 -0.052916884 0.48562312
000050 ad 79 d2 be 55 d6 56 bf 37 2f 51 be 0e 17 c9 bf
       -0.41108456 -0.83920795 -0.20428167 -1.5710161
000060 15 87 ac be b2 91 31 bf 0c d4 cd bd 67 69 eb bd
       -0.3369681 -0.6936294 -0.1005021 -0.11494713
000070 a8 64 06 3f f7 53 0f 40 60 a0 0f bf 06 70 31 bf
       0.5249734 2.2394998 -0.5610409 -0.6931156
000080 93 ef d9 be b3 37 6c bf d2 84 03 3f 6e cf 45 bf
       -0.42565593 -0.9227249 0.5137454 -0.7726964
000090 b3 f0 17 3e bb 9f 68 3f 28 62 b8 3e 55 8f 14 bf
       0.14837913 0.9086873 0.36012387 -0.5803121
0000a0 47 8a e5 3e 88 3b 86 be b4 f6 a1 be ac 45 b5 bd
       0.4483206 -0.26217294 -0.31633532 -0.088511795
0000b0 f4 5f 99 be 64 60 50 be 05 98 1c be cc 5b 90 3f
       -0.2995602 -0.2034927 -0.15292366 1.1278014
0000c0 0d ec ec 3e 83 d3 1d bf 97 70 c1 be 26 78 2e bd
       0.46273842 -0.61650866 -0.37781212 -0.04259505
0000d0 61 da 75 be 76 bb 0f be 11 6d 04 bf 47 39 cd 3d
       -0.24009086 -0.14036354 -0.5172892 0.100206904
0000e0 89 26 ac be f3 61 81 bb 41 8d 42 bd 36 de 57 be
       -0.3362315 -0.003948444 -0.04749799 -0.2108086
0000f0 89 45 2b be c5 9e b9 3f ca c8 d9 3e eb 72 72 bf
       -0.16725744 1.4501578 0.42536002 -0.947066
000100 0a f1 30 3e ef a4 27 bd 0c 88 ba 3e dc 43 9a 3b
       0.17279449 -0.040928777 0.3643192 0.0047077965
000110 b6 95 94 bd 3d df 87 bf 09 bb 33 3e a2 c3 88 be
       -0.072551176 -1.0615002 0.17551817 -0.26711756
000120 20 c1 db bd 77 dc 42 bf 0f ef ac bd 32 a5 32 40
       -0.10730195 -0.7611765 -0.08444034 2.7913327
000130 b1 05 06 3e ac fe 8a be 1e 47 b0 3e 26 23 24 bf
       0.13088109 -0.27147424 0.34429258 -0.6411613
000140 dc 5a f8 be 99 fe 47 bf d4 31 d7 3e a4 5d 20 bf
       -0.4850682 -0.7812286 0.42030203 -0.62642884
000150 d5 01 2a be 1a 31 ab be 53 b0 02 3e 8f bb 99 3f
       -0.16602261 -0.334359 0.12762575 1.2010363
000160 d7 5d 2e bc d0 ed ac 3f f9 c8 2c 3e 31 e4 fd 3f
       -0.01064249 1.3510075 0.1687354 1.9835263
000170 a1 08 c2 3d 17 3a a5 3e e7 73 a1 be f5 7a 22 40
       0.09474302 0.32270882 -0.3153374 2.5387547
000180 20 e6 ee 3e c2 24 e5 3e 4a 10 e5 be 51 52 a9 3f
       0.46659946 0.44754606 -0.4473899 1.3228246
000190 c0 e2 7d 3c 68 48 87 3d a4 82 1d be 1c 49 54 3e
       0.015495956 0.06605607 -0.15381867 0.20731014
0001a0 20 c0 fe be 52 7c 8e bf 9f 05 2c 3f 94 74 b8 3e
       -0.49755955 -1.113169 0.6719608 0.36026442
0001b0 d0 d8 cd be d2 2e 09 bf eb 10 5b be f6 3c 33 3f
       -0.40204477 -0.5358707 -0.21393172 0.70014894
0001c0 7c b1 ee 3d f7 3b 59 bf 1f 58 9d 3e 2f 2a 22 bf
       0.11654946 -0.84857124 0.30731294 -0.6334562
0001d0 e2 13 d6 be 66 a0 b3 bf a0 77 93 be 79 50 ae bd
       -0.41812044 -1.4033325 -0.28802204 -0.08511443
0001e0 61 f6 d9 bd 62 51 9f bd 1b 0f ad bd bc b5 91 bf
       -0.10642696 -0.077791944 -0.08450147 -1.1383586
0001f0 ef d2 c8 be 0e a2 ba bf 20 49 0b 3f cd f1 57 be
       -0.3922343 -1.4580705 0.54408455 -0.21088333
000200 36 28 83 bd 6c f8 bc be bd a1 e6 3e 03 dc cf 3e
       -0.06404154 -0.3690828 0.45045272 0.40597543
000210 20 96 0e bd 62 06 d8 3e 28 0f db 3d 92 21 ed be
       -0.03481114 0.4219237 0.1069625 -0.46314675
000220 78 6e 4c 3e d8 50 87 bf 82 bc 9d be 8a 7f 91 3f
       0.19964015 -1.0571547 -0.30807883 1.1367047
000230 86 ae 97 3e ec b4 bc 3e 91 33 7d be 7b dc 64 bd
       0.29625338 0.36856782 -0.24726702 -0.05587433
000240 8b 4a 98 be 8b 08 86 be 6d 33 b0 3e be ed eb bf
       -0.29744372 -0.26178393 0.34414235 -1.8431928
000250 1b 47 87 3e 67 11 dd 3f 40 38 0c bf e0 66 9d be
       0.26421437 1.7270936 -0.5477333 -0.3074255
000260 16 2f d0 3e a9 14 17 bc fc ec b4 bd e8 f5 05 3e
       0.40660924 -0.009221234 -0.08834264 0.13082087
000270 a7 38 01 be 87 74 16 c0 bd 38 44 3e 66 ef 4b bf
       -0.12619267 -2.3508623 0.19162269 -0.7966217
000280 03 6f 6d 3e c5 ce 99 bf b6 e3 8e be fc 75 20 40
       0.23186879 -1.2016226 -0.27908105 2.5072012
000290 4b 77 05 3e b3 b4 99 bf f3 0c 2f be 67 b0 18 c0
       0.13033788 -1.200827 -0.17094783 -2.3857667
0002a0 e8 b0 ee be bd ac 01 c0 ca a6 1e 3e 59 a9 77 bf
       -0.46619344 -2.026168 0.15493312 -0.9674278
0002b0 02 08 58 bc 6d 8d b5 3f a4 4c d4 be 40 0d 86 3f
       -0.013185503 1.4183785 -0.41464722 1.0472794
0002c0 84 c8 61 3e 70 8b 2c be 28 5c 13 3e ae f8 a5 3e
       0.22049147 -0.16850066 0.14390624 0.3241629
0002d0 f6 df f5 3e a2 a4 f1 3f 78 a9 f3 be 98 04 87 3f
       0.4802243 1.8878367 -0.47590232 1.0548277
0002e0 82 0b ff be 58 e3 f6 bf 5a 60 0d 3f 89 9d b8 3e
       -0.49813467 -1.928813 0.55225146 0.3605769
0002f0 e8 c8 dc be 14 b3 6e bf 12 ce 97 be 6a 64 2a 3f
       -0.4312203 -0.93242 -0.29649407 0.6655947
000300 f2 d5 20 3f 8c 9b 92 3f d7 e5 09 bf 7e bf bb bf
       0.62826455 1.1453719 -0.5386633 -1.4667814
000310 94 9c 0b 3e cc 72 5f 3f 84 66 04 bf c2 ad d3 3f
       0.13633949 0.8728454 -0.51718926 1.6537402
000320 4e bf ea 3c bc 4f 76 3f 06 7e 28 3e 87 4b 8d bf
       0.028655674 0.96215415 0.16454324 -1.1038674
000330 e7 9a 09 be e4 13 a8 bf 07 29 c2 3c 3d 37 2b 3f
       -0.13437997 -1.313107 0.023701204 0.6688116
000340 af 69 b3 be 71 3b d5 be 91 a5 70 be dc 58 0d 3f
       -0.35041568 -0.41646913 -0.23500659 0.55213714
000350 60 38 c0 3d f9 b4 6b 3f 91 8c eb bd 3b d7 1d 40
       0.09385753 0.9207302 -0.1150142 2.4662616
000360 68 ed b1 bd ba 58 ef be 4d bf 2c be 2c d8 81 3d
       -0.0868786 -0.4674738 -0.1686985 0.0634006
000370 33 90 fc be 85 5f c6 be 68 1f 01 3f bf 45 e6 bd
       -0.49328765 -0.3874475 0.5043855 -0.11243772
000380 e3 25 fe bd 6b 26 66 bf 42 97 6b 3e dd 68 ef 3f
       -0.1240957 -0.8990237 0.23006919 1.8703877
000390 00 1a f5 3e ed ec 4f 3f 61 6e 1e 3f 48 f8 05 bf
       0.478714 0.81220895 0.61887175 -0.5233197
0003a0 49 bd 89 be 95 05 17 bf e2 f3 84 3e 20 86 1c 40
       -0.26902226 -0.5899289 0.25967318 2.4456863
0003b0 d1 dd 56 3e 25 52 bd 3e 45 26 8c be eb ea 95 bf
       0.20983054 0.36976734 -0.27372947 -1.1712316
0003c0 b3 35 1e 3d 93 4c df be fd c5 b0 be 0e 2c a5 3e
       0.03862543 -0.4361311 -0.34526053 0.32260174
0003d0 a5 cb 37 be 82 14 d0 bf 99 a3 40 3f db 3c 24 3f
       -0.17948778 -1.6256258 0.7524963 0.6415536
0003e0 a9 c8 00 3e bd 11 29 c0 42 03 61 3e 4a 43 b4 3f
       0.12576546 -2.6417077 0.21973899 1.4083035
0003f0 cc 10 5f bd 42 a4 1e c0 4e 2f 06 3e 6b bf 61 3f
       -0.054459378 -2.4787755 0.13103983 0.88182706

actor.0.bias f4 [64]
000000 69 12 01 bf 13 90 92 be c8 7a 57 be aa fd 0d 3d
       -0.50418717 -0.28625545 -0.21042931 0.03466574
000010 27 18 c2 be ca 31 96 be 47 76 ed bb dd 08 41 bd
       -0.37909052 -0.2933486 -0.007246766 -0.047127593
000020 06 1f e2 3d 17 1c fa 3e 84 a4 02 bf 1c 32 93 3c
       0.110410735 0.48849556 -0.5103228 0.01796823
000030 77 73 2b 3d b6 40 54 bf 16 d1 f9 be 3e 6d 87 3e
       0.041858163 -0.8291124 -0.48792332 0.26450533
000040 7b 79 07 3e 02 b9 b6 3d b0 c5 15 be 0a 75 9c 3e
       0.13229935 0.08922006 -0.14626193 0.30558044
000050 57 d4 09 3c 35 37 81 3c 0b f0 9c bd 61 32 94 3d
       0.008412442 0.015773395 -0.07662972 0.072361715
000060 92 53 f3 3d a6 20 9e be 6d 80 e9 be 94 20 5e 3e
       0.11881174 -0.30884284 -0.45605794 0.21692115
000070 84 3f e6 3d 6d 9d 2f be ca 9f 4e bc 4d 3f 3e 3e
       0.112425834 -0.17149897 -0.012611339 0.18578835
000080 0a 6d a9 be f0 09 64 be aa 66 88 be 2d f2 00 3e
       -0.33091003 -0.22269416 -0.26640826 0.12592383
000090 24 21 1d 3d b7 86 68 be f2 a9 74 be af 21 28 3e
       0.038361683 -0.2270764 -0.23892954 0.164191
0000a0 01 ba 92 bd cb f7 d1 bd 98 7b 78 be b5 9a ea bd
       -0.07164384 -0.10252341 -0.24265897 -0.11455289
0000b0 b0 df eb be 7a 62 80 3c 25 4b 4f bd 80 7b e6 be
       -0.46069098 0.015671957 -0.050608773 -0.45016098
0000c0 c8 e0 8c 3e 26 5c cc bd 6e 1e 4f 3e d8 53 5a 3d
       0.27515244 -0.099785134 0.20226452 0.053302616
0000d0 46 47 5d 3e ab 70 ee bc d5 e1 05 3e 39 e9 4c 3e
       0.2160922 -0.029106459 0.1307443 0.20010842
0000e0 5b 5e ad 3d 00 7d c4 be bf 05 86 3c 90 24 b1 3d
       0.084652625 -0.38376617 0.016360162 0.08649552
0000f0 b5 37 f2 be 6e 86 9e be 6d d0 83 3e 17 a9 8f 3d
       -0.47308126 -0.30961937 0.25744954 0.07014673

actor.2.weight f4 [64, 64]
000000 84 ca a3 bd 70 fd 42 3c aa 21 dc 3d ce ba 97 bd
       -0.07997611 0.0119012445 0.107486084 -0.07408677
000010 42 bd a0 bd 0e bf cb bd 8b 20 c3 be dc f8 b2 3d
       -0.07848598 -0.0994855 -0.38110766 0.087388724
000020 14 8b 4b 3a 3a 79 0a be e0 69 80 3d a0 7b aa be
       0.00077645597 -0.13522807 0.06270194 -0.33297443
000030 69 04 0b 3f f8 c8 ef 3c 2e 7b 9d bd 1b a0 a2 bd
       0.54303604 0.029270634 -0.0768951 -0.07940694
000040 01 7b cf 3d 0d 0e 31 bd 66 bd f3 be 33 78 55 3d
       0.10130883 -0.04322629 -0.47605437 0.052116584
000050 80 91 e3 3c e3 23 70 be 33 32 9e 3e e0 33 fc 3c
       0.02777934 -0.2345119 0.30897674 0.030786455
000060 09 25 2b bf 24 78 67 3d 83 d9 a3 3e 1b c4 85 be
       -0.66853386 0.05651106 0.32001886 -0.2612618
000070 82 f7 cd 3d a4 0b 34 3d 58 1c de bd 09 4e a1 bd
       0.10056974 0.043956414 -0.1084525 -0.07876212
000080 07 45 3a bd e4 c1 32 3d 64 8c f3 bd a9 0e 9f be
       -0.045475986 0.04364194 -0.11892012 -0.31065872
000090 8e 88 4a be 36 a9 82 3d a0 19 7e 3c 2e 29 fd bd
       -0.19778654 0.06379931 0.015509039 -0.1236137
0000a0 78 e3 ac bd e8 65 3f bd 67 0c 62 3e 6c 0e 10 bd
       -0.08441824 -0.046728045 0.22075044 -0.035170004
0000b0 f0 86 c1 bd f3 65 f3 bd 36 1d 52 3f b6 9f 55 bc
       -0.094495654 -0.1188468 0.8207582 -0.013038566
0000c0 37 77 0d bf e8 f9 20 bd 26 60 54 3c d2 97 c7 be
       -0.5526003 -0.03930083 0.012962377 -0.38983017
0000d0 17 78 ca be c2 1f 9c 3e 47 52 b8 be b7 d3 6c bc
       -0.39544746 0.3049298 -0.36000273 -0.014454774
0000e0 d9 be 86 be 93 db 50 3f 1a 2b 5b be 9a 74 e8 3d
       -0.2631748 0.81585044 -0.2140316 0.11350365
0000f0 14 53 3e bd a2 01 26 3f 87 d2 ae be d5 32 78 be
       -0.04646595 0.6484624 -0.34144995 -0.24238141
000100 f2 10 7e bc 7c 01 69 bd dc 88 8e bd 4e 98 91 3c
       -0.01550697 -0.05688618 -0.069596976 0.01777282
000110 bc fd 44 3d f0 bd c3 3c 64 98 27 be 89 9c 12 bc
       0.048093542 0.02389428 -0.16366726 -0.008948454
000120 aa 9e 9a 3d ea 42 a5 3c 80 3d f1 3c dd 06 bf bd
       0.07549794 0.020173509 0.02944827 -0.09327481
000130 aa 42 29 be 93 40 99 3d e8 a5 98 3d b1 0b 0e bc
       -0.16529337 0.0748302 0.07453519 -0.00866978
000140 05 e7 80 bd bf fc ab bd 6a 32 8e bd 4e e2 2e be
       -0.062940635 -0.08397817 -0.069432095 -0.17078516
000150 78 aa 98 bc 03 e9 c0 3d 31 4b 08 3e c7 ec c9 bd
       -0.018635973 0.094194435 0.13309933 -0.09859615
000160 8b c3 b2 3c 26 d6 b1 bd a0 18 d0 3d 70 f8 8d bd
       0.021821758 -0.08683424 0.10160947 -0.06932151
000170 2b dc 99 bd f0 6b 02 be e7 e8 c6 bc d8 6f fa bd
       -0.07512697 -0.12736487 -0.024280978 -0.12228364
000180 00 98 ea bd 24 78 b8 bd f3 c0 11 3d 15 ad 15 be
       -0.11454773 -0.0900729 0.0355844 -0.14616807
000190 cb c9 3a 3c a4 94 9a bd 07 00 44 3c 3d 4e b3 bd
       0.01140065 -0.07547882 0.011962897 -0.08755157
0001a0 42 57 ab 3d 68 16 97 bd 84 fa 2b 3d 68 a6 45 bd
       0.083662525 -0.073773205 0.041986957 -0.0482544
0001b0 e8 f4 72 3d 9b ad 8f 3d ed 87 a7 3d 8f 9a 09 39
       0.059315592 0.070155345 0.08180223 0.00013122916
0001c0 01 3b 63 3d ad 30 66 3d a2 38 f1 bd de 7f 94 3d
       0.055476192 0.056198765 -0.1177838 0.07250951
0001d0 09 1a 09 bd 59 31 cf 3d e0 80 2b be e8 69 f8 bd
       -0.033472095 0.10116834 -0.1674838 -0.12129575
0001e0 86 31 0f be 24 43 2b bd 84 be 7a 3d 00 b2 c6 bd
       -0.13983735 -0.041812077 0.061216846 -0.097019196
0001f0 e1 17 3f 3d 10 e2 23 bc f0 11 d4 3c 2e 9c a8 39
       0.046653632 -0.010002628 0.02588746 0.0003215982
000200 80 1b 78 3d f7 13 24 3c 90 17 e2 3c 5c 0f b9 3d
       0.0605731 0.010014526 0.027599126 0.09036133
000210 fc 26 f3 bd 52 3a b6 bd d2 05 93 bd fb 86 81 bc
       -0.1187267 -0.088978425 -0.071788445 -0.015811434
000220 bc 31 bb 3d dd fd 9e bd be 10 8c bd 1b f7 58 bd
       0.091403455 -0.07763264 -0.06839131 -0.052970033
000230 df 2f 14 bd 70 cb db bc 00 25 1b 3b 1a 4b fb bd
       -0.036178466 -0.026830405 0.0023673177 -0.12270184
000240 f2 9d c6 3d d2 b0 82 bd 0f 98 9e 3c 88 94 1a bd
       0.096980944 -0.06381382 0.019359617 -0.037739307
000250 40 ca 4d 3c be 2f cf 3a 52 b9 91 bd 95 49 80 3d
       0.012560427 0.0015807075 -0.07115425 0.06264035
000260 ea 19 cb 3d 30 fb 88 3c aa 1d aa 3d 83 2d ab bc
       0.09917052 0.016721338 0.08306439 -0.020895725
000270 6a cf de 3d 50 9d 8a 3d c0 02 95 bd f4 02 99 3d
       0.10879405 0.06768286 -0.07275915 0.074712664
000280 9a 89 88 3d 80 64 77 3d 45 0e 6f bd ff 05 82 bb
       0.066668704 0.06039858 -0.058363218 -0.003968
000290 f2 e5 e4 3d a1 f0 c4 3b 5e 8a e5 3d fe 42 89 3c
       0.11176671 0.0060101305 0.11208032 0.016755577
0002a0 1b 4f cc 3c b3 f4 89 3d 7c 53 fb 3d 3d 1d 0e 3d
       0.024940064 0.06736126 0.12271783 0.034695853
0002b0 ea 06 a6 bd 11 b3 ae 3c c8 3b 56 bd ec 38 bd bd
       -0.081067875 0.02132562 -0.052303106 -0.092393726
0002c0 0f d9 fd bd eb 50 c9 3a c9 93 95 bd 52 2d 08 be
       -0.12394916 0.0015359198 -0.073035784 -0.13298538
0002d0 dd d6 6b bd e5 22 ad bd 81 c4 99 bd c0 fa cc bc
       -0.057577956 -0.08453921 -0.07508183 -0.02502191
0002e0 b4 3d ce 3d 76 4e da bd 62 50 f2 bd 53 9b 0a 3d
       0.10070363 -0.106594965 -0.11831738 0.033839535
0002f0 18 02 da bd c0 14 58 3b 1a cf 06 bc 2a b1 a6 bd
       -0.106449306 0.0032971352 -0.008228088 -0.0813926
000300 a6 f6 b7 3d 04 b0 a2 3d ac ef f4 bd 68 29 b7 bd
       0.08982591 0.079437286 -0.11959776 -0.089434445
000310 a4 7a a2 bd 40 ac bb 3b 88 fd 81 3c a6 58 ac 3d
       -0.07933548 0.005727321 0.015867963 0.08415346
000320 0c 62 a4 bd e0 55 00 bc aa b0 dc bd cc 2d 8c 3d
       -0.080265135 -0.007832974 -0.107758835 0.068446726
000330 c2 56 fe bd 8a 5f d0 bd 08 28 87 bc a8 f7 84 3c
       -0.124188915 -0.10174473 -0.01649858 0.016231373
000340 ca e5 a8 bd 34 7e 91 bd 78 4f 09 bd de 2b c6 bd
       -0.08246954 -0.071041495 -0.033523053 -0.09676336
000350 08 d6 8c bc d8 f3 8d bc d4 1f 70 3d c0 1f fc 3b
       -0.017191902 -0.017328188 0.058624104 0.0076942146
000360 f8 2c 39 3d 68 c7 9e 3c fc d5 7e 3d 22 f6 a0 bd
       0.0452089 0.019382194 0.06221579 -0.07859446
000370 84 92 d2 3d 90 3c cd 3d 10 a2 73 3d 0c ba 03 3d
       0.10281852 0.10021317 0.059480727 0.03215985
000380 90 46 8c 3c 00 0a 44 bd b0 29 72 3c 2c 33 c4 bd
       0.01712349 -0.0478611 0.014780447 -0.09580073
000390 f0 e5 ef bd 80 97 91 bc 08 2a be bc 78 21 d4 bc
       -0.11713779 -0.017772436 -0.023213401 -0.025894865
0003a0 00 7f 70 3b 64 09 8e bd 28 cd 3d bd 40 f4 db 3b
       0.0036696792 -0.06935385 -0.04633823 0.0067124665
0003b0 42 fe b3 bd 2c 87 2a bd 84 1e 86 3d 40 23 67 3d
       -0.0878873 -0.041632816 0.06548789 0.0564301
0003c0 62 f7 dd bd 00 d7 2d bb be 9e cb 3d 92 ce 8d bd
       -0.108382 -0.0026525855 0.09942387 -0.06924166
0003d0 00 b8 e7 38 de 64 e3 bd 78 a4 cc bc 84 4e 53 bd
       0.00011049211 -0.11103223 -0.024980769 -0.05158855
0003e0 2e 3d 9d 3d a0 0a d4 3d e0 83 cc 3b f8 86 cb bc
       0.07677685 0.10353589 0.0062413067 -0.024844632
0003f0 60 00 df bb 42 f6 f1 3d 68 af 90 bd 8e 58 ba 3d
       -0.0068054646 0.11814548 -0.07064706 0.09098922

actor.2.bias f4 [64]
000000 4d 31 af bd cf 0f 3f 3c 81 aa 66 bd a8 f6 ef bd
       -0.08554325 0.011661484 -0.05631495 -0.11716968
000010 50 a4 34 3d 81 43 37 bd 72 e7 03 be ca c2 d2 bc
       0.044102013 -0.04474211 -0.12881258 -0.025727648
000020 fc 99 96 3d 48 94 d0 bb 7d 0b 04 3b e0 06 d2 bd
       0.07353589 -0.0063653328 0.002014845 -0.102552176
000030 97 b3 b2 bd a5 6c 06 be 4e c8 fc bd 84 25 93 bd
       -0.0872566 -0.13127382 -0.123428926 -0.0718489
000040 1a 8d bd bd a5 c6 2b 3d fd a3 1d bd 44 98 81 bb
       -0.092554286 0.04193749 -0.03848647 -0.003954919
000050 ec 55 4b 3d a3 9e a3 bd ed f3 25 bd 9f 64 6e bd
       0.04964249 -0.07989242 -0.04051583 -0.05820143
000060 db 6f c1 bd 91 09 fd 3c 4a 9c e9 bd 2f 11 0f bd
       -0.09445163 0.03088835 -0.11406763 -0.034928497
000070 77 b7 9f bd e3 03 0a 3e e2 53 3e be 24 5e 44 bd
       -0.07798665 0.13478045 -0.18586686 -0.047941342
000080 ff f5 4d bd 98 6e c8 bc c3 21 ce 3b 83 91 ed bd
       -0.05028343 -0.024466798 0.006290646 -0.1160002
000090 72 42 dc bd 34 b4 7b bc 6c e0 f2 bd 9a f3 b6 bd
       -0.10754861 -0.015362788 -0.11859211 -0.08933182
0000a0 4c 85 94 3d 2e bb 90 3d 2a cb 5c bd 4e 10 b4 bd
       0.07251987 0.07066952 -0.05390469 -0.08792172
0000b0 40 67 40 3d 0d fe 2f 3e 6a 32 c6 bd 6a c1 92 bc
       0.046973467 0.17186756 -0.096775845 -0.017914493
0000c0 17 aa a7 3c 16 e7 a9 39 49 34 00 bd e2 ae a2 bd
       0.020466847 0.00032406364 -0.031299863 -0.079435125
0000d0 89 64 a6 bd c6 24 c0 3c 28 20 ec 3d e0 b4 d8 3d
       -0.08124644 0.023455035 0.11529571 0.10581374
0000e0 80 7d d8 bd 4a 48 2f bd 1c f4 13 3d 04 d9 9b bd
       -0.10570812 -0.04279355 0.036121473 -0.07609752
0000f0 14 26 19 be 84 40 bd bb c5 0f f4 3c 7a b2 bb bb
       -0.14955932 -0.005775513 0.029792676 -0.005728063

actor.4.weight f4 [2, 64]
000000 80 14 99 3f 04 10 82 bd 46 b6 49 bd 00 2b a5 3a
       1.1959381 -0.06350711 -0.049246095 0.0012601316
000010 45 3f 65 bc ff b2 ec be 41 14 1c 3e 7b c4 0b 3f
       -0.013992135 -0.46230313 0.15242101 0.5459668
000020 1e d8 8b 3e 78 ad 52 3a 23 b2 91 3d 98 db 85 bc
       0.27313322 0.0008036713 0.07114055 -0.016340062
000030 cd 7e d3 bd b1 86 1e bc 99 a9 01 3e f5 94 1d be
       -0.1032692 -0.009675668 0.12662353 -0.15388854
000040 3c ea ae be 6e 50 79 bd c7 39 ea be 9d 0c 58 3d
       -0.34163082 -0.06086772 -0.45747206 0.052746404
000050 6e 72 87 bd 16 9a 88 3e 12 3d e0 bb b7 97 1e 3e
       -0.066136226 0.26680058 -0.0068432176 0.15487562
000060 8b 32 ec 3d 7d 0e d6 3d 9e 17 bb 3d 0e ee 9a bc
       0.11533078 0.10451982 0.09135364 -0.018912341
000070 09 15 ac bd 86 d5 03 3e a8 60 2a 3d 46 1a 18 3e
       -0.0840245 0.12874421 0.041596085 0.14853773
000080 98 7a 08 3c 91 5a f2 be 9d d3 85 3d 72 b4 23 3c
       0.00833001 -0.47334722 0.06534503 0.009991752
000090 ce ed 5a bd 68 09 a5 bd 3d 9a 09 3e 8e 38 b4 bd
       -0.053449444 -0.08058435 0.13437743 -0.087998495
0000a0 35 d6 23 be e6 3c de 3d eb c8 08 bd 63 90 d7 bc
       -0.15999682 0.10851459 -0.033394735 -0.026313966
0000b0 29 ca 81 3d 64 0f 99 be 7c 7d 9f bf 0e 6e 86 3c
       0.06337387 -0.29894555 -1.246017 0.0164099
0000c0 fd b8 a4 3d 65 72 b1 ba a2 ad b0 3e 85 9b 3e 3c
       0.08043096 -0.001353812 0.3450747 0.011633758
0000d0 72 04 12 be d2 c1 8a bd bf 56 36 3d bf 52 c0 3d
       -0.14259508 -0.067752495 0.04451632 0.093907826
0000e0 1d 31 63 bd 53 91 71 bd bc f3 b1 38 15 a4 d7 3e
       -0.05546676 -0.058976483 8.485417e-05 0.42117372
0000f0 a1 4e d2 3c 41 34 78 be fe 18 64 bd 5f fa 5d bd
       0.025672259 -0.24238683 -0.055687897 -0.05419385
000100 28 e7 75 be ae 96 d0 bc fc 67 b9 bd 48 2b e4 bc
       -0.2401396 -0.025462475 -0.090530366 -0.02785267
000110 89 69 0e bb 72 a1 1f be ad 55 04 3f 31 21 bb 3f
       -0.0021730384 -0.1558893 0.5169323 1.4619504
000120 f8 10 68 3d b7 89 2e 3d 86 cb 19 be 98 cc d0 bd
       0.056656808 0.042611804 -0.15019044 -0.10195273
000130 1b d1 a1 3d 76 69 fe 3c 4c 24 30 3d 8c f1 0a 3f
       0.07901212 0.031056147 0.043003365 0.5427482
000140 1d 7b 08 bf 1a a9 d9 3e dd ae 10 40 42 05 d5 3e
       -0.53312856 0.42511827 2.2606728 0.41605574
000150 36 17 ee 3d ae 86 10 be d7 e1 45 bc 7f e5 83 be
       0.11625521 -0.14113876 -0.01207777 -0.2576103
000160 d1 48 a1 3c a8 65 57 3e 20 c4 90 3c c6 70 6b 3f
       0.019688042 0.21034873 0.017671645 0.91968954
000170 da 01 e6 bc 4a c2 5f be fb f3 29 bf 62 42 15 3f
       -0.028077055 -0.21851459 -0.6638791 0.5830442
000180 b1 b8 ff bd 19 89 e0 be 7b 2d 59 3f dd 6b 8b 3d
       -0.12486399 -0.43854597 0.8483502 0.06807683
000190 f6 b5 df 3d f6 61 4e 3d c5 53 0b 3f a8 11 d8 bd
       0.10923378 0.05038639 0.544247 -0.10550243
0001a0 2b 9a 3b be 56 e4 33 be 10 38 bc ba 3a 4c af 3c
       -0.18320529 -0.17567572 -0.001435997 0.021398652
0001b0 f7 98 de 3c 77 43 16 be dd d1 32 be 77 a5 49 3d
       0.027172549 -0.14674173 -0.17462869 0.049230065
0001c0 ec ba 32 be 6c fe 39 bd 06 67 a8 bd e6 f2 14 be
       -0.17454118 -0.04540865 -0.08222775 -0.14545783
0001d0 db c7 d9 3f 03 b3 c2 bd ce 50 d6 be 92 db 6c bd
       1.7014116 -0.095068 -0.41858524 -0.057826586
0001e0 f4 32 19 bf cc 6d f7 3f 33 be c0 3b 78 76 63 3d
       -0.59843373 1.9330382 0.0058820485 0.055532902
0001f0 5d 09 4d bd 02 d1 1a bf f9 ca 47 bd 3c 77 bf be
       -0.050057758 -0.6047517 -0.048777554 -0.37395656

actor.4.bias f4 [2]
000000 4d e4 e8 3c ee b3 8b be
       0.028429175 -0.27285713
