preTrained/MountainCarContinuous-v0/3level/HAC_MountainCarContinuous-v0_level_0_crtic.pth (torch_old, 19525 bytes, 5 tensors)

critic.0.weight f4 [64, 5]
000000 73 1b f6 3e a4 28 dc bf 88 14 d0 be 6e 72 75 bd
       0.48067817 -1.7199903 -0.40640664 -0.05992358
000010 61 f8 11 bf b0 77 97 be d9 e0 2e c0 a7 25 9d bd
       -0.5701962 -0.29583502 -2.7324736 -0.07673197
000020 0c 6f 07 3f f8 db 16 3d cd f8 14 bb 73 ba 20 40
       0.5290382 0.036830872 -0.0022731305 2.51138
000030 02 7a 29 bb e7 ad 91 bc 14 22 14 40 7f c6 b1 3d
       -0.0025860076 -0.017783118 2.31458 0.08680438
000040 c5 84 b8 be fd 22 cc be a2 4b 02 be 20 e3 d1 be
       -0.36038795 -0.39870444 -0.12724164 -0.40993595
000050 04 39 c2 3e 3c d4 93 bf 8a 97 b5 be 3d 18 68 bc
       0.37934124 -1.1549144 -0.35467178 -0.014165935
000060 85 77 2f bf f2 da 5c 3d 3f 81 19 40 2c aa 65 bc
       -0.6854175 0.05391974 2.3985136 -0.014017623
000070 cb 68 f3 3d d9 bd 82 40 2d 62 a0 be d8 2c 69 c0
       0.11885222 4.085675 -0.31324902 -3.643362
000080 58 0b 61 3c f2 46 ac 3e fa 1c 4f 40 ba ce ef bc
       0.013735615 0.33647877 3.2361436 -0.02927338
000090 80 f3 07 3f 73 a5 da bc 2d 10 c6 be f3 48 69 3f
       0.53105927 -0.02669022 -0.38684216 0.91126937
0000a0 de 4d 38 3e 78 ac 34 40 d2 54 c4 bc 81 20 68 bd
       0.17998454 2.8230267 -0.023966227 -0.056671623
0000b0 8f 79 7b c0 5d 66 dd be 4b 82 22 c0 26 f2 d1 bb
       -3.9292943 -0.4324216 -2.5392025 -0.00640704
0000c0 83 ff e6 3e 61 58 09 3f 78 7d 59 bf 8e 04 95 bf
       0.45116815 0.5365048 -0.84957075 -1.1642015
0000d0 71 d5 54 3a 29 df 59 3f 37 5f 95 3e 4f 2b c1 be
       0.00081189635 0.8510614 0.29174206 -0.37728354
0000e0 de e7 91 40 6e 0c c4 3b ca f4 34 3c e8 75 cc 3f
       4.559554 0.005982927 0.01104469 1.5973482
0000f0 73 3d f3 be 38 19 da bf b5 93 5e bb 39 32 f6 3e
       -0.4750782 -1.7038946 -0.0033962552 0.48085192
000100 3a 21 04 c0 b2 59 02 3e 66 5e 8f 3e 6f 65 48 be
       -2.064528 0.12729529 0.28001708 -0.19569944
000110 3c b7 bc be 0e bd c4 3d 6a 89 8d be f9 36 e8 3f
       -0.36858547 0.09606372 -0.276439 1.8141776
000120 d5 7a a7 3d 9c f9 17 be d0 45 12 40 ab ca de be
       0.08177725 -0.14841312 2.285511 -0.43513998
000130 6a d8 6a c0 24 b6 84 bb 48 25 e0 3e 31 4f 51 40
       -3.6694589 -0.004050033 0.43778443 3.2704585
000140 35 91 bc bc 8b 00 ab bf 73 94 cb 3c d8 8b c5 3e
       -0.023018459 -1.3359541 0.02485106 0.38583255
000150 2b df 64 3e 8c dd 87 3e 51 99 54 40 b6 06 80 3d
       0.22350757 0.26536214 3.3218577 0.0625128
000160 82 5c 41 be df 46 f7 bf 86 fb 5c 3d 45 7b 80 c0
       -0.18882945 -1.9318503 0.05395081 -4.0150476
000170 cc fd 20 bd b2 9a c5 3e 02 1c 01 40 96 3c de 3e
       -0.03930454 0.38594586 2.0173345 0.43405598
000180 d0 35 ad be 3c da de bd d0 c1 49 bd 9f 7f c5 be
       -0.33830118 -0.10881469 -0.0492571 -0.3857393
000190 fd 0b d3 be 2f c3 b5 3f 36 3c ed 3a b2 b3 d1 3e
       -0.41220084 1.420019 0.0018099609 0.4095741
0001a0 01 e9 6e 40 ef 44 ab 3e e0 9c 87 be 43 4e 24 3e
       3.7329714 0.3345103 -0.26486874 0.1604548
0001b0 c0 03 21 bf 59 9b 4c be a4 d8 cb 3e a5 f6 8c 3e
       -0.6289635 -0.19981135 0.3981372 0.27531925
0001c0 c1 a7 72 be 87 2d a1 bd c2 59 31 3e 28 1b 9b be
       -0.23696806 -0.07870012 0.17319396 -0.30294156
0001d0 2a 87 dc bf bc b3 b8 be 18 c5 16 3f a2 f8 af bf
       -1.7228749 -0.36074626 0.5889449 -1.3747752
0001e0 37 a5 37 3f 75 45 f0 bd a0 e1 13 3e b9 7b 6d 3f
       0.7173647 -0.11731998 0.14441538 0.9276691
0001f0 ff 65 25 3f 76 ad 7b be 06 29 37 c0 9b 10 99 3c
       0.6460876 -0.24577889 -2.8618789 0.018684676
000200 17 32 dd bb 0b 19 30 40 10 f0 c9 3e f6 a0 3d 40
       -0.006750356 2.7515285 0.39440966 2.9629493
000210 7a 8f 4e 3e e4 24 d3 be 96 f9 cf be 55 99 6e 3f
       0.2017192 -0.41239083 -0.40620106 0.93202716
000220 55 80 7e 3f bf 90 59 be 38 0a 00 bf 3c 30 1b bd
       0.9941457 -0.21246623 -0.5001559 -0.037887797
000230 94 27 8a 3e fa dd a1 c0 79 17 21 bc 24 c2 9e bd
       0.2698332 -5.0583467 -0.0098322565 -0.07751873
000240 1f bd 0f bf 7c c8 12 be e6 ab 68 bf 20 70 5b be
       -0.5614795 -0.14334291 -0.90887296 -0.21429491
000250 a3 ee 5f 3f 7e 8c a2 3f 49 f2 49 bd 27 37 0d c0
       0.87473506 1.2699125 -0.049303327 -2.2064912
000260 3a 87 0e bc 9e 80 40 3e 51 86 5b bf 1c 86 19 bc
       -0.008699233 0.18799064 -0.85751826 -0.009370353
000270 a9 e6 72 c0 7b fd 24 bd 1c 1d d8 3d 48 df 62 40
       -3.7953284 -0.0402808 0.10552427 3.544878
000280 c5 2b 43 3f 77 a8 bc 3e 96 dd af 3a 93 fd 42 bf
       0.7623866 0.36847278 0.0013417478 -0.76168174
000290 5b 52 c4 3e 39 c4 1c bd d2 57 66 be 52 a4 a7 3e
       0.38344082 -0.03827307 -0.22494438 0.32742554
0002a0 fc 67 e0 bc bc 96 c9 3e e4 20 41 3e 1c 81 c5 be
       -0.027393334 0.39372814 0.18860203 -0.38575065
0002b0 60 a7 94 3d 44 7e 58 3e 00 09 d3 3e f7 4f 57 be
       0.07258487 0.21141917 0.41217804 -0.21026598
0002c0 af b8 d7 3f 54 1a ac 3e aa 24 15 3e 17 48 8e 3e
       1.6853236 0.33613837 0.14564767 0.27789375
0002d0 4f 52 56 be 2f 03 6f 40 29 8d fd bb f3 54 4b be
       -0.20929836 3.7345693 -0.007737775 -0.19856624
0002e0 46 12 33 c0 b6 3d 76 bd 7e 57 01 3f 01 94 aa 3c
       -2.7979903 -0.060117446 0.5052413 0.020822527
0002f0 3d e9 5e 3f 51 74 74 3f 5c 0c b8 3e 08 3c 50 3d
       0.87074643 0.95489985 0.3594693 0.0508385
000300 da 69 04 be d0 4c e8 bd d0 a3 87 3d 2f 4a 45 bd
       -0.12931004 -0.11342776 0.06623042 -0.04816645
000310 52 99 60 3e e1 96 e7 bc e4 ce ad 3d 2d 07 b4 bf
       0.21933487 -0.028270187 0.08486727 -1.406469
000320 ce f3 cf 3e a2 2b 2f bf 0b 59 9a bc 9a d4 33 3e
       0.40615696 -0.68425953 -0.018841287 0.1756157
000330 64 8a 0e c0 ac e2 b3 3d ae b2 23 c0 ee b1 1e bb
       -2.2271967 0.087834686 -2.5577807 -0.002421494
000340 3f 49 e0 3e f2 d8 13 40 3b b7 1c 3e 13 75 90 3f
       0.43805882 2.3101163 0.15304272 1.1285728
000350 c8 84 37 be 78 91 34 3f 1d 96 b3 3f a8 6f 59 3e
       -0.17921746 0.7053447 1.4030186 0.21234
000360 22 23 9c c0 10 77 77 bc b5 9e ed bd 78 d2 fa bf
       -4.8792887 -0.01510407 -0.116025366 -1.959548
000370 79 c4 90 3e 4c 0d 63 3e 52 a7 80 bd 13 72 ca be
       0.28274897 0.22173041 -0.06281914 -0.39540157
000380 d7 27 20 3f 98 af 70 bd c5 26 eb bf 6d d4 0a be
       0.6256079 -0.05876121 -1.8371207 -0.13557597
000390 f5 9b ea 3d 37 df 20 40 c6 34 8a bd 96 2d ed 3e
       0.11455528 2.513624 -0.06748347 0.46323842
0003a0 dc 96 06 3e a1 a3 f3 bd 88 8d 07 be d5 5f 1b 3f
       0.13143486 -0.11896444 -0.13237584 0.60693103
0003b0 88 88 c5 3f 09 78 35 3d 56 8f a3 3e 17 6f 8d 3f
       1.5432291 0.044303928 0.31945294 1.1049527
0003c0 69 50 ca 3c 72 b3 2a 40 17 50 5c 3d 7d 05 82 3d
       0.024696546 2.6672025 0.053787317 0.06348703
0003d0 f5 7f 4c c0 60 ae 4f 3c b8 ed 48 3d 8c 3d 27 3e
       -3.1953099 0.012675852 0.04905483 0.16332072
0003e0 aa 50 9c 3e d8 61 c3 3e f8 d3 70 3e 65 28 b2 3e
       0.30530292 0.38160586 0.2351836 0.34796444
0003f0 51 9a 1a be 17 e5 20 be f8 df 1e be 74 35 88 3e
       -0.1509793 -0.15712391 -0.15515125 0.26603281

critic.0.bias f4 [64]
000000 96 6e 4c be c8 32 25 3d e2 9a 6a bc 6c 51 1b bf
       -0.1996406 0.040331632 -0.0143191535 -0.60671115
000010 02 57 e3 be f6 1b e3 3d d3 d2 0a 3e df 53 d5 be
       -0.4440232 0.110893175 0.13556986 -0.4166555
000020 e7 f5 5e 3e 76 1e 68 bc ce 00 fe 39 bb 27 49 be
       0.21773492 -0.014167419 0.00048447255 -0.19644062
000030 4d 94 92 bc 74 ca 05 bf 71 3c 71 be 30 d0 01 3d
       -0.017892981 -0.52262044 -0.23558213 0.031692684
000040 c7 7a 5f 3b 4c d0 ea 3c 07 1a 99 3e aa 53 d3 be
       0.003410028 0.028663777 0.2990267 -0.41274768
000050 2e fd 9b bc 0a ba 35 be 7d 9e cb be 0e 6e 96 be
       -0.019041624 -0.1774675 -0.39769354 -0.2938084
000060 66 29 59 3d c1 d0 3b bd 28 be 8c be 0b ac e9 bd
       0.053017996 -0.04585338 -0.27488828 -0.11409768
000070 82 3b cd 3d f7 8b f7 bd 90 c6 33 3e f8 09 14 3e
       0.10021116 -0.12087243 0.17556214 0.14456928
000080 da ee 88 ba 6a 32 e1 be 13 19 a9 be bd 91 df be
       -0.001044716 -0.43983775 -0.33026943 -0.43665877
000090 ec 3b 1f be 03 75 9f be ed 82 a6 be e9 d9 f2 bd
       -0.15550202 -0.3114396 -0.32521763 -0.11857969
0000a0 38 08 8e 3e 07 1a 8e 3e 1f 09 5b 3e b1 db 42 3d
       0.27740645 0.27754232 0.21390198 0.047572795
0000b0 2c ed ac be 8e 74 f6 3b 2d c0 cd be ca 72 9f 3d
       -0.33774698 0.0075212186 -0.4018568 0.07785566
0000c0 65 2a da 3d d0 58 c7 be 9c e5 92 be f3 bc 2d 3d
       0.10652617 -0.38934946 -0.28690803 0.042416524
0000d0 95 6a f1 be 43 94 c7 be 3c 23 41 bc 5b 46 25 3e
       -0.47151628 -0.38980302 -0.011788186 0.1614012
0000e0 5e 07 73 3d a8 4a 12 3c a9 c4 5a 3e 78 3f fa 3d
       0.059333198 0.008928932 0.21364082 0.12219137
0000f0 9b 97 1d be 63 f0 24 bb c9 f0 c5 3d 01 3c e1 be
       -0.15389864 -0.0025167696 0.09665067 -0.43991092

critic.2.weight f4 [64, 64]
000000 38 83 4b bd 2e 8e 99 3d 72 36 af 3d c0 49 11 bd
       -0.049685687 0.07497822 0.085553065 -0.035470724
000010 10 be 69 3d 99 fa 07 be 59 5c 10 3d 7a a0 99 3d
       0.057066023 -0.13279189 0.03524432 0.075013116
000020 23 8a 9e 3d 40 78 dc bb 9e 5d d8 bd 7e 15 d2 bd
       0.07741191 -0.006728202 -0.10564731 -0.102580056
000030 78 87 ee bd ac 48 bd 3d 65 19 90 bd 15 eb 14 3d
       -0.11646932 0.09242377 -0.070360936 0.036357004
000040 78 33 49 bd a8 ce 2f 3d e8 9d b7 3b 0c 68 30 bd
       -0.04912135 0.042921692 0.0056035407 -0.043067977
000050 8c f0 db 3d de 08 1e 3c 96 fc a4 bd 50 4a 0e 3c
       0.1073924 0.009645669 -0.080559894 0.00868471
000060 2a 32 a7 bd 7e ca ed bd ac d6 d9 3d 20 55 f2 bd
       -0.08163865 -0.11610888 0.106366485 -0.118326426
000070 35 9c 38 3d d2 e7 b4 3d d5 4f bc 3d d0 25 aa bd
       0.045070846 0.08833279 0.09194914 -0.083079934
000080 3b da 75 3d 12 4f b0 bd 20 d7 17 3c 8f f0 b9 bd
       0.060022574 -0.086088315 0.009267598 -0.09079086
000090 82 eb e6 bd e4 53 3a 3d d4 24 e9 bd 92 a4 0e be
       -0.11275388 0.04549016 -0.113839775 -0.13929966
0000a0 a6 56 d1 bd 71 90 88 bd 77 f9 07 be 60 18 b6 bc
       -0.10221605 -0.06668175 -0.13278757 -0.02222842
0000b0 00 ca 63 3a 06 f9 1e bc 92 2b ed bd c7 3b d4 3d
       0.0008689463 -0.0097029265 -0.11580576 0.10362964
0000c0 a0 9b 02 be 14 4d 70 3d 08 7c d2 3c c9 2f b8 bd
       -0.12754679 0.058667257 0.025693908 -0.08993489
0000d0 48 05 82 bc ed be b8 bd 94 c5 90 bd 33 bd ab 3d
       -0.015871659 -0.09020791 -0.07068935 0.08385696
0000e0 59 02 88 3d 6a 4b d9 3d 04 94 93 3d ec 04 07 bd
       0.06641073 0.10610087 0.07205966 -0.03296368
0000f0 6f 46 f4 bd cb 14 2d bd 70 a5 b7 3c c8 b6 b5 3d
       -0.11927497 -0.042256158 0.022417754 0.088727534
000100 60 9c 44 bc 78 50 53 bd f4 dc b3 3d 92 77 fb 3c
       -0.012000173 -0.051590413 0.08782378 0.030696664
000110 a9 d4 17 bd 58 78 09 be 08 59 e8 bd 95 2f 49 be
       -0.037068043 -0.13424814 -0.11345106 -0.19647057
000120 18 7a dc bd 31 87 fb 3c c0 00 2c 3c f7 af c0 bd
       -0.10765475 0.030704113 0.010498226 -0.09408563
000130 04 e5 4a bd c6 ea 8b bd 30 2e 34 bd 68 47 d4 bd
       -0.049534813 -0.06831889 -0.04398936 -0.10365182
000140 3a 0a c2 3d 55 3c ca bc 83 52 34 3d e2 8f 8a bd
       0.09474607 -0.024686972 0.044024 -0.06765725
000150 64 f4 e8 3d 5d 25 09 3d 6a 3c 93 3d c4 e2 af bd
       0.11374739 0.033482898 0.071892574 -0.08588174
000160 35 1e a7 bd 1a 02 81 bd 06 00 68 bd 60 47 cc bd
       -0.081600584 -0.06299229 -0.056640647 -0.09974551
000170 bb 6a 25 3d 20 1c d7 bc 28 40 42 3d 0b de af 3d
       0.04038499 -0.026258528 0.047424465 0.08587273
000180 31 a6 32 3d 14 44 19 3d 48 22 72 bd 1b 8a 0e be
       0.043615524 0.03741844 -0.059114724 -0.1391987
000190 e7 11 5c 3d e0 bc 35 bd cc ea d7 3d fe 75 1d be
       0.05372801 -0.04436958 0.10542831 -0.15377042
0001a0 bc d8 ab bd 49 14 45 3d f3 62 93 3c 11 11 ab bc
       -0.08390948 0.04811505 0.017991519 -0.020882161
0001b0 bb 31 0f 3d 77 0b 62 3d a0 55 90 3c e2 41 99 bd
       0.034959536 0.055186715 0.017618954 -0.07483269
0001c0 48 e7 23 ba c0 65 7f 3d 2c 37 de bd 8b ff 89 3d
       -0.000625242 0.062352896 -0.10850367 0.06738194
0001d0 94 68 b9 3c 6c dd 98 bc a0 87 7b 3c 7d e9 d4 bd
       0.022632875 -0.01866027 0.01535216 -0.10396097
0001e0 20 12 03 be f4 9c 1a bd a8 6a 4d 3d 98 7f fa bd
       -0.12799883 -0.03774734 0.050150543 -0.12231368
0001f0 c8 92 8d 3d 29 af 61 3d 0b a0 92 bd 78 d8 c4 bc
       0.06912762 0.055098686 -0.07159432 -0.024029002
000200 9e 53 c9 bd 76 14 04 3d 94 04 93 bd 24 c6 30 3b
       -0.09830402 0.032246076 -0.071786076 0.002697357
000210 57 2e 64 bd 36 ca 3c bd c2 ec ac 3c 39 e3 e0 bd
       -0.055708256 -0.04609128 0.021108989 -0.10980839
000220 33 af 66 bd 97 aa 06 be ee 41 90 bd 56 1d 0c be
       -0.056319427 -0.13151012 -0.07043825 -0.13683066
000230 92 25 bb bd 54 eb 80 bd 18 6e f3 bd eb b5 ae bd
       -0.09138025 -0.06294885 -0.11886233 -0.08530792
000240 c6 7d 37 bd 43 2d e3 bd b3 74 5a bd 00 d4 85 3a
       -0.04479768 -0.11092617 -0.05333395 0.0010210276
000250 4f b2 1c bd 3c c5 08 be d4 3f 69 bd 68 31 d0 bc
       -0.038255986 -0.13356489 -0.056945637 -0.025414184
000260 c6 93 aa bd a5 dc 5f bc b5 2f 8f bd 5b 0c 96 be
       -0.08328967 -0.013663446 -0.06991521 -0.293063
000270 4b 81 4b be 16 2b ea 3c 9c 28 fb 3c c1 01 9a 3c
       -0.1987354 0.028584998 0.030659012 0.018799664
000280 9b 2c a3 3d d8 6d b2 bc fe 7e a3 3d b3 c6 91 bd
       0.07967492 -0.021780893 0.07983206 -0.07117977
000290 8e 41 89 3c b0 b0 07 be c0 84 3d 3c f3 81 4b be
       0.016754892 -0.13250995 0.011567295 -0.1987379
0002a0 53 78 63 be be bc 3b be 81 73 77 be 4b 0c e8 bb
       -0.22213869 -0.18333718 -0.24165155 -0.0070815436
0002b0 36 cf 97 bd 2e a1 1f be c4 16 0d 3d da c5 3a be
       -0.07412569 -0.15588829 0.03444554 -0.18239537
0002c0 5b 4c d4 bd a8 d8 d9 bc 80 15 fb ba fd 97 2b be
       -0.10366126 -0.026592568 -0.0019156188 -0.16757198
0002d0 4d ae 44 be 67 49 48 bd d0 a0 48 be e5 23 9b bc
       -0.19207115 -0.048898127 -0.19592595 -0.018938014
0002e0 c9 2b 5c be e7 2b 96 be 20 60 0e be d3 c1 1c be
       -0.21501078 -0.2933037 -0.13903856 -0.15308313
0002f0 d0 6b 54 3d 9e f4 ef bd 4f 3e 19 be ae d4 f8 3d
       0.05186063 -0.11716579 -0.14965175 0.121499404
000300 7d 9a 6e 3d c5 97 8c bd 98 6d 06 bd 3c 02 ed 3d
       0.0582528 -0.06864885 -0.03281936 0.11572692
000310 41 76 12 be c0 7d eb bd 9d 11 91 3d e4 fe e6 bd
       -0.14302923 -0.11498594 0.070834376 -0.11279085
000320 c4 80 05 3d d1 15 5e 3c 19 f1 bd bc 0e 49 32 3d
       0.032593504 0.013555006 -0.023186253 0.0435267
000330 f0 1d 9e 3d 34 8c 4d 3d 3d 6a ff bd 0a 0e 44 3c
       0.07720554 0.050182536 -0.12471435 0.011966238
000340 63 51 84 bd 41 9d ce bd 7d 29 b6 bd f2 c8 8d bd
       -0.06460836 -0.100885876 -0.08894632 -0.06923093
000350 c6 dc 93 3d fe 6d cd 3d 4c 87 75 3d 73 5f 9c 3d
       0.072198436 0.10030745 0.059943482 0.07635393
000360 12 d2 a1 bd 08 28 cf 3d 9a eb b3 bd ed 3a ba 3b
       -0.07901396 0.10115057 -0.08785172 0.005683294
000370 a7 5f 81 bd 4b a6 14 3d b2 97 58 bc 8a 71 6d bd
       -0.06317072 0.0362914 -0.013219761 -0.057969607
000380 08 60 84 3d a0 26 ec 3d d0 7c 1d 3d 52 48 d5 bd
       0.06463629 0.11530805 0.03844911 -0.10414185
000390 65 da b1 bd f8 87 54 3d 60 2d 83 bd 07 2d b4 bd
       -0.086842336 0.051887482 -0.06405139 -0.08797651
0003a0 2b 2a 98 3d 8a 5b 04 3d 06 d9 a2 bd 75 4f 1d bd
       0.07429918 0.03231386 -0.0795155 -0.038405854
0003b0 75 c9 84 3d d4 38 bb 3d ca c6 cc bd e1 3f 0e be
       0.064837374 0.091416985 -0.099988535 -0.13891555
0003c0 cb fc 1d 3d b0 4f e6 bd 80 0c 67 3c 10 ab 0e be
       0.03857116 -0.11245668 0.014102101 -0.13932443
0003d0 4b 94 29 3a e4 b1 64 3d 93 75 d1 3c 0a a3 24 bd
       0.0006468936 0.055833712 0.02556876 -0.04019455
0003e0 c3 7e a1 3d 70 5f e1 bc e0 ac a1 3c 6d fa 0b be
       0.07885506 -0.027511328 0.019735754 -0.13669749
0003f0 24 69 3f bd 50 6e 46 bd 4b ab c6 3d 52 09 a6 bd
       -0.04673113 -0.048445046 0.0970064 -0.081072465

critic.2.bias f4 [64]
000000 64 89 1f bd 2c f7 72 bc 27 cd 39 3d 31 d8 dc bd
       -0.038949385 -0.014829438 0.045361664 -0.10783423
000010 ab 9a 03 3e 88 56 53 bc 83 7a 41 3c fa 5b 88 bd
       0.1285197 -0.012899049 0.011808994 -0.06658168
000020 4e 06 2b bd 96 cd 5a 3c fb d6 bf bc 3b 15 87 3d
       -0.04175406 0.01335468 -0.02341794 0.06595846
000030 b5 09 fb bc 57 1f d0 3d ed d7 05 bc 3d cf 61 bc
       -0.030644277 0.101622276 -0.0081691565 -0.01378232
000040 b9 9e b3 bd 7d f5 96 bc 66 c0 e1 bd cc 23 b5 bd
       -0.08770508 -0.018427605 -0.11023025 -0.08844718
000050 0a 09 9b bd f8 55 f5 3d b5 99 0f be f9 05 9c bd
       -0.075700834 0.11979288 -0.14023478 -0.07618327
000060 1c 85 3c 3d ee 19 6a bd da 82 04 3e ed b6 33 bd
       0.04602538 -0.057153635 0.12940541 -0.043875623
000070 38 04 77 3e ac 2a 5e bd e8 51 b5 bc f5 c9 cd bd
       0.24122703 -0.054239914 -0.022133783 -0.10048286
000080 a6 a9 d3 bd 2b 7b 2e 3e 1d 54 2e 3e 9d b8 5b 3e
       -0.10335092 0.17039172 0.17024274 0.21457143
000090 9c 27 39 bd 19 95 7f ba 31 8f 40 3e dd b0 94 bd
       -0.04520379 -0.00097496953 0.18804623 -0.072602965
0000a0 fd c2 e2 3d 15 b6 58 be 2f 35 53 3c d1 c6 4a bc
       0.11072347 -0.21163209 0.012891098 -0.012376503
0000b0 98 06 64 3d 73 a9 a7 3d d4 6c b1 bd 7b 35 b4 bd
       0.05567035 0.08186617 -0.086633354 -0.08799263
0000c0 cf 83 a7 bd 29 2e 1e be a8 84 1c be 73 31 76 3d
       -0.08179437 -0.15447296 -0.1528498 0.060105752
0000d0 96 a6 f0 bd 45 e9 17 bd 3e 21 2a bd 96 01 51 3e
       -0.11750524 -0.037087698 -0.04153561 0.20410761
0000e0 57 6a 81 bd 67 5e e3 bd 90 da e1 bc 87 40 3b 3d
       -0.06319111 -0.1110199 -0.027570039 0.045715835
0000f0 d7 b5 01 be 43 69 4e be 6e 53 b9 bd 28 b8 ab bc
       -0.12667023 -0.20157342 -0.09049116 -0.020961836

critic.4.weight f4 [1, 64]
000000 77 71 68 bd f6 02 9d bd 75 41 5a bd 5b 49 8d bc
       -0.056748834 -0.076665804 -0.05328508 -0.017246893
000010 47 af 01 3f 59 65 3a bd 1d f9 0c 40 a7 0d d8 3f
       0.50658077 -0.04550681 2.2027047 1.6879166
000020 f6 5c a3 3d 7b 7d 44 bd aa 5a 8c bd 54 a4 50 40
       0.07976715 -0.04797123 -0.0685323 3.2600298
000030 e1 27 06 bf 38 43 ac 3f ef 22 9e bd 8b 2c 35 3f
       -0.524046 1.3458014 -0.07721507 0.7077109
000040 f4 77 a7 bf 75 2c c1 ba ce 8a 88 bd 4e 36 6b 40
       -1.3083482 -0.0014737981 -0.066671 3.6751895
000050 64 a4 72 bc 4d cc cf 3f 06 8e 8f bd ef 08 38 bd
       -0.014809702 1.6234223 -0.07009511 -0.044930395
000060 fe 8e 48 40 63 63 78 3f e7 b4 5f 40 a4 6c 3b 40
       3.1337276 0.9702665 3.4954164 2.928506
000070 6a a4 3f bf 33 4e 38 40 2b cb d7 bd d1 46 d0 bc
       -0.7486025 2.879773 -0.10536798 -0.025424393
000080 30 ce 68 c0 e1 d4 d0 bf da 45 4d c0 f0 5a 1e bf
       -3.6375847 -1.6314965 -3.2073884 -0.6185751
000090 d4 18 9f bd 9b 80 8d 40 0e ab 33 bf a7 29 45 bd
       -0.077684075 4.421949 -0.70182884 -0.048135426
0000a0 ae 24 1d 40 5c f7 40 c0 92 33 b8 bd e8 7c 76 bd
       2.4553638 -3.0150976 -0.08994211 -0.060177714
0000b0 2b 9d a2 3f de 1a 2c 40 13 19 95 3d c7 e9 79 bc
       1.2704214 2.6891398 0.07280173 -0.015253491
0000c0 cb a0 f9 3f 8a 46 e0 bd af 03 1c 40 5f 94 f6 3f
       1.9502195 -0.10950954 2.4377248 1.9264029
0000d0 b7 de 86 3c 10 da 56 3f de 02 65 40 d4 ef 32 bf
       0.01646362 0.83926487 3.5783 -0.698972
0000e0 69 4f 75 3f 14 2e 69 bc f2 52 9b 3f 0c fe 81 3f
       0.95824295 -0.014232177 1.2134688 1.0155654
0000f0 76 2f 01 bb 7e 6e 35 c0 40 64 42 bd d5 7c 67 40
       -0.0019712127 -2.834869 -0.047458887 3.6169941
