preTrained/MountainCarContinuous-v0/3level/HAC_MountainCarContinuous-v0_solved_level_2_actor.pth (torch_old, 19516 bytes, 6 tensors)

actor.0.weight f4 [64, 4]
00000000: 1326 a33f 99e0 a940 97a3 b8be 5f85 4abe
00000010: d05b 013f 67ef 69bf 329a 73bf c498 c73f
00000020: 6064 0d3d fadf c63e cec3 a23e 84fc e9be
00000030: 5a6e 7b3f c05d af3e 35bb 2a3e f85b b3be
00000040: 9eed 913e ca8b fb3e d1d7 75bf bc07 6bc0
00000050: 6ef6 223f 7959 3e3f f996 85bf ebb8 4dbf
00000060: d944 9d3e dee0 57be ae3f 6dbd 602d d93d
00000070: e14e 1dbe 9007 5ebe e70e 1fbe 4b31 8f3e
00000080: 0cd5 7b3e a41b 1440 e5cb 63bf c0f1 57bf
00000090: c77d 583f 01ce c5bf fc98 013f f01a f5be
000000a0: 2575 a13e 5197 b93f b8de 013f 7de1 fb3e
000000b0: 76c5 873e 22ef 9440 fd37 523e 2bfc cf3d
000000c0: eb70 013f b841 5840 0926 993e bbb4 163e
000000d0: afcb f13e a2e6 753f 44c9 433f 3f51 963e
000000e0: e6df 173e 599d 8740 cba5 c8be c71e 9abf
000000f0: 8cd4 433e 2011 edbc 6817 debd b031 5e3d
00000100: 2d21 36bf 74eb aebf 2bb4 ad3e 93bb b0bd
00000110: 42f3 953e 9815 96be fe08 df3e 5083 9cbd
00000120: 3761 c53e fa66 fabf 0815 24bf 3c94 b03f
00000130: e5b0 8dbe 5a2c 34c0 b73b c7bd f1b8 89be
00000140: ffe8 893e f260 1f3f b893 6e3e 8dda 19bf
00000150: 004d b83d 242c dbbe 94dd 773e 18ca 76be
00000160: 6390 433f 9ebc 0440 c533 4b3e ed6c 9dbf
00000170: cf6d a63e bec5 de40 2b87 d4be b3a1 6dbf
00000180: c832 dd3d 8002 e3bc 40d3 723e 0a7d a7be
00000190: 7096 d13e 4588 fc3f 4650 aa3e d4e2 11be
000001a0: 9659 823e ed82 a53d a783 11bf 845e b8bf
000001b0: b01b c0bd c8c0 e53e 7cc0 943e e48b ff3e
000001c0: 0d63 06be 3549 94bf b0d9 1c3e ee53 26bf
000001d0: e72b 3fbe 878b 9140 26c8 13bf b51b 92bf
000001e0: 4d1b 1b3f 5b35 9ebe f1bb 49be 5bad ae3e
000001f0: 80e3 45bc b0fc 83bd 9630 9cbe 1238 d43e
00000200: fc4b 7b3f 6941 d73f 9bc1 27be 304b 0dbf
00000210: 7d37 cfbe f926 6dc0 1422 73bd 15af 663e
00000220: 461f 5d3e d329 0e40 ad21 653d d660 6f3f
00000230: 406d e03c e8b3 42be e0c1 753e 807d 223c
00000240: 88d1 e0bd 0c8c f1be 8069 b03e d45d f73c
00000250: b662 653d 2347 b53e d9ed 37be 4933 a9bd
00000260: c667 983e 1115 1cc0 e395 84be c435 b73f
00000270: ee77 af3e e0b0 273e 509e eabd ba14 f3be
00000280: 9dd3 b1be ee14 4240 9df9 21bf 027f a9bf
00000290: d313 863f 4364 e740 51d2 c33d 4dbd c83d
000002a0: 82f4 0a3f dafa 98bf aeb2 323f de06 f03e
000002b0: bbab ce3e 4350 80bf 6d44 14bf 0895 1b40
000002c0: 85dc 5f3e 675c 663f fd3a 0d3f 3851 f13d
000002d0: 14d6 da3e 90f9 b8bf 9633 0c3f 92c0 d13d
000002e0: b6ab 7c3d c826 61bf cec1 02bf 8a1b da3e
000002f0: d79c abbe 0764 9c3f 75c4 8dbf 734b 96be
00000300: 34a5 57bd 6f9f cfbf 470b 383f 034d e1be
00000310: fa36 b03d eb53 c240 6bf9 92be 1dfe c1bf
00000320: dce0 ae3e fa09 f33f bb06 ed3c 85bf ca3c
00000330: c234 a9be 9158 633f 19b7 143f 860b bebe
00000340: 5eef e93e 9d30 19c0 1e44 49bf 487d d33f
00000350: 2f00 5abe 9912 623e c58e b3bf 1ac6 fd3d
00000360: 7ced 723e 1329 5d3f dc1f 37bf a990 2b40
00000370: 0ae2 cc3e c023 5040 ad88 06bf 6a6c 5e3f
00000380: 5417 043e 5a90 003f 387c 393f 8133 8a3d
00000390: 7adc 8b3e b48b 0dbe 7887 6dbe 80ac 5cbc
000003a0: 12ca 8cbe 595c 44c0 5d40 22bf 3639 d43e
000003b0: 5c3b 2d3f dce2 0840 44dc dcbe 8b9e 84bf
000003c0: bdee 46be f5dd 0ec0 e011 b93d 98fa 843f
000003d0: 3a02 d93e 3dd4 d2be 5312 6a3e 6013 4abe
000003e0: f35e 5b3f b830 0cc0 0266 523f a061 623e
000003f0: 6a83 303e 4644 76bf 31dd 803f 9f47 cc3e
1.2745994 5.3086667 -0.3606231 -0.1977744 0.5053072 -0.91380924 -0.9515716 1.5593495
0.034519553 0.38842756 0.31790012 -0.45700467 0.9821526 0.34251213 0.16672976 -0.35031104
0.285016 0.49130088 -0.96032435 -3.672347 0.6365727 0.74355274 -1.0436698 -0.8036029
0.3071659 -0.21081874 -0.057922058 0.10604358 -0.15362121 -0.21682572 -0.15533029 0.27967295
0.2459299 2.314187 -0.88982993 -0.84353256 0.8456692 -1.5453492 0.5062406 -0.47872114
0.31534687 1.4499303 0.50730467 0.4919547 0.26517838 4.654191 0.2052917 0.10155519
0.50562924 3.3790112 0.2991183 0.1471738 0.4722571 0.9605504 0.7647898 0.2935886
0.14831504 4.2379575 -0.3918899 -1.2040642 0.19124049 -0.02893883 -0.10844308 0.054246604
-0.7114437 -1.3665605 0.3392652 -0.08629527 0.29287153 -0.2931335 0.43561548 -0.07642233
0.38550732 -1.9562676 -0.6409459 1.3795238 -0.27674022 -2.815207 -0.097281866 -0.26898912
0.26935574 0.622573 0.23298538 -0.6009911 0.089990616 -0.42807114 0.24205619 -0.2410053
0.7639219 2.0740123 0.19843967 -1.2298867 0.32505652 6.9616385 -0.41509375 -0.9282486
0.108007014 -0.027711153 0.23713398 -0.32712585 0.40935087 1.9729086 0.3326437 -0.14246684
0.25458974 0.08081613 -0.5684151 -1.4403844 -0.09380281 0.44873643 0.29053104 0.49911416
-0.13123722 -1.1584841 0.15317416 -0.64971817 -0.18669091 4.548282 -0.5772728 -1.1414706
0.6058853 -0.30900082 -0.197006 0.34116635 -0.012078166 -0.06444681 -0.30505818 0.41449028
0.9816282 1.6816837 -0.16382448 -0.5519285 -0.40472022 -3.7055037 -0.05935867 0.22527726
0.21593961 2.2213027 0.05594032 0.93507135 0.027395844 -0.19013941 0.23999739 0.009917617
-0.10977465 -0.4717716 0.3445549 0.030196108 0.05600234 0.35405836 -0.17961825 -0.08261735
0.29766673 -2.4387858 -0.25895604 1.4313283 0.34271187 0.16376066 -0.11455977 -0.4747675
-0.3473176 3.0325274 -0.63271505 -1.3241885 1.04748 7.230989 0.09561599 0.09801731
0.5427934 -1.1951554 0.69803894 0.4688024 0.40365395 -1.0024494 -0.5791691 2.4309711
0.21861465 0.89984745 0.55168134 0.11783069 0.42741454 -1.445116 0.54766214 0.10241808
0.061687194 -0.879498 -0.5107697 0.42599136 -0.33518097 1.2218026 -1.1075579 -0.29354438
-0.052647784 -1.622053 0.7189221 -0.44004068 0.08604236 6.072744 -0.28705916 -1.5155674
0.3415593 1.898742 0.028933873 0.024749527 -0.33048064 0.88807017 0.58091885 -0.37118167
0.45690435 -2.3935921 -0.78619564 1.6522608 -0.21289133 0.22077407 -1.4027945 0.123913005
0.23723406 0.863908 -0.7153299 2.6807044 0.40016204 3.252182 -0.525523 0.86884177
0.12899524 0.50220263 0.7245517 0.06748105 0.27316648 -0.13822824 -0.23196208 -0.013468862
-0.27497917 -3.0681365 -0.6337946 0.41449898 0.676687 2.1388464 -0.431368 -1.0360883
-0.19427009 -2.2322972 0.090366125 1.0388975 0.4238451 -0.4117755 0.22858553 -0.19733953
0.85691756 -2.1904736 0.821869 0.22107553 0.1723763 -0.96197927 1.0067502 0.39898393

actor.0.bias f4 [64]
00000000: 404b 0fbe f7ee d13e 80c0 acbe 831d fc3e
00000010: 6de4 b7be 6bc2 ac3d d6d6 83be c788 cfbe
00000020: 8247 2fbe 8571 bd3e 0817 a63e 7777 41be
00000030: a782 023f bd59 15bd 5685 363e e4cb 7bbe
00000040: 0b9e 8fbe 521a f2be 4e33 9f3d eeba e5be
00000050: cb0e 8c3e a822 17be f7aa 8c3e 5a56 033e
00000060: a404 c5be 9f40 883e 296c 49bc 2e69 e0be
00000070: e35f 5b3e dd65 143e 7d98 dc3e baa8 edbe
00000080: c3a3 febd c704 08be 13a6 823e d0e4 75be
00000090: e99d dd3d 7f1d a7be 760d 783d 1e98 b9be
000000a0: 28c6 0e3e e886 a6be b406 fa3c 6807 38bd
000000b0: 7a5f ab3c deed 583d 80b1 c1be 98a5 5dbe
000000c0: d873 e6bd 5991 8c3d f654 ce3e d518 013e
000000d0: 17a9 ba3d 458d f0be a83f 663e deb2 483d
000000e0: 81a9 ba3e a87d febe 6599 03bd af4a c13e
000000f0: 1aad 62bd 63dd aabe 5185 4d3e 19dd bcbd
-0.1399355 0.41002628 -0.33740616 0.49241266 -0.35916463 0.0843552 -0.25749844 -0.4053404
-0.17117122 0.3700067 0.32439446 -0.18893228 0.5098061 -0.036462534 0.17824301 -0.24589497
-0.28050265 -0.47285706 0.077734575 -0.4486918 0.27355036 -0.14759314 0.27474186 0.1282591
-0.38480103 0.26611802 -0.012293854 -0.43830246 0.21423297 0.14491983 0.4308509 -0.4641779
-0.12433579 -0.13283072 0.2551733 -0.24013066 0.108211346 -0.3263969 0.060559712 -0.3624887
0.13942778 -0.325248 0.030520774 -0.04492894 0.02091955 0.052961223 -0.37830734 -0.216452
-0.11252564 0.0686366 0.40299195 0.12607129 0.091142826 -0.4698278 0.2248522 0.048998706
0.36457446 -0.49705243 -0.03212871 0.37752292 -0.055340864 -0.3337203 0.20070387 -0.092218585

actor.2.weight f4 [64, 64]
00000000: 2d62 6f3c b4ee 98bc aec3 e73d 6583 363d
00000010: 0bdf 7c3f 2a00 423d d85b eebd b287 8a3d
00000020: 3fd5 ab3e 2c26 173e 6a41 0f3d 2467 a43e
00000030: 0f70 acbc 932f 363c e7e8 563d d46d dbbd
00000040: ef4a a43e a04d 37bd 49ef 9fbe 1d9d 333f
00000050: 4930 b23d 44c8 ebbd 3438 59be dfc0 8a3e
00000060: fcd4 8bbd 2253 93bd cc5a 72bf 8c75 abbd
00000070: 088c 3b3e 657a bd3d 2b87 a23d 00fc baba
00000080: 850b 4abd 4c7a 983e 11be b9bd 806c 1cbc
00000090: 7788 e93d 14e7 343d e08d 4cbe ccba 1bbd
000000a0: 1f4a abbd e9bb fd3d 2375 09bd 794f 66bf
000000b0: db4b 573d ff43 c23d b7fb a1bd dee2 14bf
000000c0: 9051 b2be 2a9c 013c b5e3 bebd 0f7f 143e
000000d0: 399e 56be 7075 333f d50e 963e fb21 72bf
000000e0: 61ae 193e de3f c23d 2b15 a7be 6abc d9bd
000000f0: 309c c13d 681e 8f3d fa00 87bd 6b31 513f
00000100: 5890 713d eaeb 033f a0c0 3fbd 6a5b e93e
00000110: 9641 133f e7d8 1c3f b067 b13d 42d4 2c3d
00000120: 75c4 f7be 7684 893e 8ae2 8e3d e46f 193f
00000130: 5adf 413e 5611 97be 15c7 113e a8e7 f73c
00000140: e1e6 5ebf aa8e cf3d d0e2 0440 3075 98bf
00000150: 985a f83d 50dd 4e3d 07de 67be 786d 1f3e
00000160: 6035 87bd 46f8 d73d fb08 833f f0be cc3c
00000170: b199 b23d 9ad1 383e 3a9e 7a3d d00a 72bc
00000180: 74d3 95bf 1895 01c0 3f61 a13e fc38 ee3d
00000190: d59c 5abf 627d c7bb de29 25bb 4815 2c3d
000001a0: daaf 9d3e dfb4 a83e be46 e5bd 962f 353f
000001b0: c6ee 54bf 1551 b0bf 0b19 dd3f 26d3 49bf
000001c0: 4ac8 1cbf 7d45 903e cdba e83e d1db 8bbf
000001d0: 16d9 ef3f 70be f7bf 152c 5c3e bb2b e6be
000001e0: 2c12 5b3e 6070 0f3c 17a7 3b3f 620c 063f
000001f0: 3838 643f a008 b6bd a20b 20bf 94ec 8cbe
00000200: df76 873e 736f 92be 0067 f93a 81b4 2e3e
00000210: db67 2dbf 340f b8bf e47a 85bd b6b7 09bd
00000220: d124 9fbf b658 5abe fa10 483c 5730 4f3c
00000230: 97e6 a53e 8eda fd3e ca4e 55be 2224 debd
00000240: 0f9d 25be 60d9 503d a511 983e 1015 e3bf
00000250: 9ef7 34be a031 823d 78b5 ce3e b203 4abe
00000260: b69f e6bd fd38 0f3f 661d 5a3f 0008 fc3d
00000270: 2d0c 29be 666c 0abf 2bdd 423d f210 d7bd
00000280: 2f77 b5be d8f4 663f 047f e83e 7c64 f03d
00000290: 1c6d 3abe ff9b 0c3d 78bb 3d3f ba16 8e3d
000002a0: 981f 18bf 9e50 c03e 986e ddbe 19fd e73f
000002b0: 4a17 0a3f c090 6fbe 29b9 133d 9061 89bf
000002c0: deb6 633e 69df ffbe 6e5e 073e b260 e2bd
000002d0: 4282 ae3f 0f5b d4bf 1605 b9be c2e4 09bf
000002e0: 7bdd eabd d417 043d 3feb 7abc 0237 863e
000002f0: b343 43bf af13 8dbc 2f96 4fbd 5d2c 1fbf
00000300: e522 6c3d 6809 443d f402 c3bd 427b 363d
00000310: bb5e a6bc 2189 81bd 7c59 713d d8c3 2bbd
00000320: 98d7 bdbd def7 9c3d 906c 41bc 2081 bcbc
00000330: ec33 03bd 842e 68bd c4ff 653d 5c2c 10bd
00000340: 9aaf ebbd 20f9 833c d0d5 f9bc 0aa4 d5bd
00000350: 4089 50bc 9063 c03c c610 8fbd 539f 14bc
00000360: 5465 c83d 337b c9bd 28d9 78bd e077 6f3c
00000370: 08a7 f3bd 0e7a 96bd 60a8 a5bb 8054 d23d
00000380: faae 1b3d c009 efbc 722f b6bd 7eb8 8f3d
00000390: 80d9 7bbd ce28 ebbd f699 abbd 50f0 1e3c
000003a0: f8a8 1f3d d805 b03c 6812 83bc 4c6b 2dbd
000003b0: eac7 ddbd 51d3 a6bc 7a2a 1a3d fae7 9fbd
000003c0: 14a2 46bd 10c0 fdbd 5866 d0bc 60c6 40bc
000003d0: 8c53 f2bd b2c2 eebc e209 5d3d fa0d 21bc
000003e0: 908c 173c e096 533c 00f4 87bc 5bb2 023d
000003f0: f338 db3c 1c73 c8bd 425a 85bd a073 9cbc
0.014610809 -0.01866851 0.1131662 0.0445589 0.98777837 0.047363438 -0.116386116 0.06764163
0.3356113 0.14760655 0.034974493 0.3210994 -0.021049527 0.011119741 0.052468207 -0.107143074
0.3208842 -0.044751763 -0.31237248 0.7016161 0.08700616 -0.11512807 -0.21212846 0.27100274
-0.06827733 -0.07193591 -0.94669795 -0.0837203 0.18315136 0.092518605 0.079359375 -0.0014265776
-0.049327392 0.29780805 -0.090694554 -0.009547353 0.11402982 0.044165686 -0.19975996 -0.03801994
-0.08363747 0.12389357 -0.033558976 -0.89965016 0.052562576 0.094856255 -0.07909339 -0.5815867
-0.34827852 0.007910768 -0.093207754 0.14501594 -0.20958795 0.7010107 0.2930819 -0.945831
0.15007927 0.09484838 -0.32633337 -0.1063164 0.094536185 0.069882214 -0.06591983 0.8171603
0.058975548 0.5153185 -0.04681456 0.45577556 0.5752195 0.61268467 0.08662355 0.042194612
-0.48392072 0.26858872 0.06976803 0.59936357 0.18932858 -0.29505414 0.142361 0.03026183
-0.87071043 0.10134633 2.0763435 -1.1910763 0.121266544 0.05050403 -0.2264329 0.15569103
-0.06601977 0.10545401 1.0237116 0.02499339 0.087207206 0.18048707 0.061186053 -0.014773086
-1.1705155 -2.024725 0.31519505 0.11631963 -0.85395557 -0.006087945 -0.0025201957 0.042012483
0.30798227 0.32950494 -0.111951336 0.70775735 -0.8317684 -1.3774744 1.7273268 -0.7883781
-0.61243117 0.28178015 0.45455018 -1.0926458 1.8738124 -1.9354992 0.21501191 -0.4495524
0.21393651 0.00875482 0.73301834 0.52362645 0.89148283 -0.08888364 -0.6251775 -0.27524245
0.2645788 -0.28600654 0.0019027889 0.17061044 -0.67736596 -1.437964 -0.0651758 -0.033622466
-1.243311 -0.21322903 0.012211079 0.012645802 0.3240249 0.49580806 -0.20830837 -0.108467355
-0.16173194 0.050988555 0.29700962 -1.7740803 -0.17672583 0.063571215 0.40372825 -0.19727972
-0.11260931 0.5594633 0.8520111 0.123062134 -0.16508551 -0.5407165 0.047574203 -0.10501279
-0.35442492 0.9021735 0.45409405 0.11737916 -0.18205684 0.034328457 0.7411418 0.069379285
-0.5942321 0.37561506 -0.4324844 1.8124114 0.53941786 -0.23395061 0.036065254 -1.0732899
0.22237727 -0.49975136 0.13219616 -0.110535994 1.3633502 -1.6590289 -0.36136693 -0.5386468
-0.11468025 0.032249287 -0.015314876 0.26213843 -0.76275176 -0.0172213 -0.050680336 -0.6217707
0.057650466 0.047860533 -0.09522048 0.04455114 -0.020308843 -0.063249834 0.05892323 -0.041934818
-0.09269637 0.076644644 -0.0118056685 -0.02301079 -0.03203194 -0.056684986 0.05615212 -0.035198554
-0.11508103 0.016110003 -0.030497462 -0.104316786 -0.012728035 0.023484975 -0.06985621 -0.009071189
0.09784952 -0.098379515 -0.06075397 0.014615983 -0.11897093 -0.07347499 -0.0050554723 0.10270023
0.038008668 -0.029179454 -0.08895768 0.07017611 -0.06148672 -0.11482392 -0.08378975 0.00970085
0.0389795 0.021487162 -0.015999988 -0.042338654 -0.10829146 -0.020364435 0.037638165 -0.07807918
-0.048494413 -0.12390149 -0.025439426 -0.011766046 -0.118323416 -0.029145572 0.053964503 -0.009829992
0.009249821 0.012914389 -0.01659584 0.031908374 0.026760554 -0.0978758 -0.06511356 -0.019098103

actor.2.bias f4 [64]
00000000: e338 62bd f15e 1b3e 2b92 40bd afc3 0bbe
00000010: 0924 0a3d 3702 19be 3e88 95be 23a8 35bd
00000020: cf65 3abd 5644 c3be a203 823d 45cf 3f3a
00000030: 137e 6abd ed49 14be 54cb 8fbb 35c4 dbbd
00000040: fa4b 0fbe bd08 1cbb 89fe c1bd 61c9 aebd
00000050: 16fe 25bd 273a 8bbd d3fb 84bd d6e3 dcbc
00000060: 1c78 febd 6226 0c3d f113 8fbd dbff 2cbe
00000070: 3e10 12be 50b2 d83d 8e74 0fbe 9e55 25be
00000080: feb6 98be cd7c ca3d a009 d0bd 27f3 1dbe
00000090: cbc3 923e 1651 d4bc e2de ccbd 4cab 57be
000000a0: 9cb4 abbc d084 043d 2d62 cc3c dd9a 9ebe
000000b0: 0a67 0ebe b696 32be 8c91 e6bd 79c4 edbe
000000c0: 8d54 1bbd 8e56 90bd bdc2 a7bc 1b44 00bd
000000d0: c89c 43be 5f0b 26be c59b 27be dad1 243d
000000e0: cbe8 56be f6b7 7dbe 60d3 b83c 637a b6bd
000000f0: e055 a0bd e6e8 95be 66a2 8dbb 9be3 47bd
-0.055230033 0.15172936 -0.047014397 -0.13648866 0.033725772 -0.14942251 -0.29205507 -0.0443498
-0.04550725 -0.38138074 0.06348349 0.00073169573 -0.05724914 -0.14481325 -0.0043882523 -0.10730783
-0.13993827 -0.002380892 -0.09472377 -0.08534504 -0.04052552 -0.06798201 -0.06493344 -0.02696411
-0.12425253 0.034216292 -0.069862254 -0.16894476 -0.14264008 0.105808854 -0.14009306 -0.16145942
-0.29827112 0.09887085 -0.10158086 -0.15424787 0.28665003 -0.025917571 -0.10003449 -0.21061438
-0.020960145 0.032353222 0.024949158 -0.30977526 -0.13906494 -0.17440304 -0.112582296 -0.4643896
-0.03792243 -0.07047759 -0.0204786 -0.03131495 -0.19102776 -0.16215275 -0.16368015 0.040239193
-0.20987241 -0.24777207 0.022561729 -0.08910062 -0.07828879 -0.2927925 -0.004322338 -0.048801046

actor.4.weight f4 [2, 64]
00000000: ce5f 353e b060 91bd eb72 26bf 1990 4d3d
00000010: 17f9 fcbc 2f56 21bd 8002 9c3c 7d0d 63bc
00000020: 0627 27be 1ea4 a83e 5a9d bdbd ccc2 38bf
00000030: 029c 183e d878 c33b e003 b93c 71b3 723d
00000040: 00af 783e 079e 5c3e cb96 243c 082c 193d
00000050: ebac 2fbc ea78 3bbf 2e5a aa3d 7898 90bc
00000060: 44bc 963d 05f5 51bd 7970 ad3e 62fc 22bf
00000070: e474 03bf fc67 dd3c bbca b63c 4e35 d139
00000080: c680 f8bf a4d7 fdbe 5a23 043d 423e b5bd
00000090: 8dbb 983e 8546 52bb c241 863d 6546 9bbe
000000a0: 675d 71bd a04d 5e3f d194 163f c7ef b33e
000000b0: daa6 84bd 014b e1bd 001a a0b9 b1b5 b2bf
000000c0: edd9 013d 7811 4dbd 73c9 41be 65fe 603e
000000d0: de65 3cbe d206 b3bd 4ae2 1e3f 66e9 98bc
000000e0: 6fe5 093e dd1e 1a3e 86f0 863f e8b6 933d
000000f0: 42a0 883e 2d13 cfbe 62c4 f83c de2a 993e
00000100: 9a42 c63f 4a60 22c0 0ed1 6dbf c0db ddbd
00000110: 1edf 9abd 4753 1abe 25ad 4a40 1060 3140
00000120: 6c23 febd 630e 2f3f 2299 2e3f 04be 29bf
00000130: dd6c 963e 6d8a 54bd f95a 35bc f42b 883d
00000140: 0084 64bd 4e7e 873f 7075 653c bae3 273e
00000150: fbb7 9cbd 292e fcbe 6957 11bc 9418 d2bd
00000160: 08f3 f1bd 72fb 9fbc f734 0dbf cb77 57bf
00000170: daec 64be 843f fbbe 3303 ab3c 16db b2bd
00000180: 47f2 8b3d 8584 69bd c22f 8d3b 574a bd3e
00000190: 742b 113d 4964 abbd b196 f33d a00d 9a3f
000001a0: 4e83 6bbd f252 d93e ffdd 023f 79c0 31be
000001b0: a4b6 9ebd 9385 b03d e0fc 0d3d 27aa 3cc0
000001c0: f934 82bd 255c 5ebd 6889 103f ac91 b8be
000001d0: aa4a d03e 81ea 763d 40a1 013f d2c7 0b3c
000001e0: ac71 c63d 120d 05bf 32f8 38bd d191 bcbd
000001f0: 9d6c ec3d 74de 86be e367 3840 b2dd 3b3e
0.17712328 -0.0709852 -0.650191 0.05018625 -0.030880494 -0.03938883 0.01904416 -0.013858196
-0.1632348 0.3293771 -0.09258528 -0.72172236 0.14903262 0.0059653334 0.022584856 0.05925316
0.24285507 0.21544658 0.0100457175 0.037395507 -0.010722379 -0.73231375 0.08317982 -0.017650828
0.073601276 -0.05125906 0.33874872 -0.63666356 -0.51350236 0.027027123 0.022313466 0.00039903302
-1.9414299 -0.49578583 0.032260276 -0.08849765 0.2983059 -0.003208549 0.06555511 -0.30327144
-0.058926966 0.86837196 0.58820826 0.35143873 -0.06477137 -0.11000634 -0.0003053695 -1.3961698
0.03170197 -0.050065488 -0.18924503 0.21972044 -0.18398234 -0.08741535 0.6206404 -0.01866598
0.13466428 0.15050836 1.0542152 0.07212621 0.26684767 -0.40444317 0.03036708 0.29915518
1.5489075 -2.537127 -0.9289712 -0.108329296 -0.075620875 -0.1507083 3.166818 2.7714882
-0.124091 0.6838133 0.6820241 -0.66305566 0.2937993 -0.051889826 -0.011069053 0.066490084
-0.055789948 1.058542 0.01400505 0.16395465 -0.07652279 -0.49253967 -0.008870938 -0.10258594
-0.11813933 -0.019529078 -0.5515894 -0.84167165 -0.22355977 -0.49071896 0.020875549 -0.087331936
0.0683332 -0.057011146 0.0043086717 0.3697078 0.03544183 -0.08368737 0.118939765 1.2035408
-0.05749827 0.42446095 0.5111999 -0.17358579 -0.0774968 0.08619227 0.03466499 -2.9478853
-0.0635776 -0.054287095 0.56459665 -0.3604864 0.40681964 0.060282234 0.5063667 0.008531528
0.0968965 -0.5197307 -0.045158572 -0.092075 0.11544154 -0.26341593 2.8813407 0.18346289

actor.4.bias f4 [2]
00000000: 196d f0ba 0097 09be
-0.001834306 -0.13436508
