preTrained/MountainCarContinuous-v0/3level/HAC_MountainCarContinuous-v0_solved_level_0_actor.pth (torch_old, 19256 bytes, 5 tensors)

actor.0.weight f4 [64, 4]
0	0xbf3a2f18	-0.7272811
1	0x3ffea353	1.9893593
2	0x3ed14bc9	0.40878132
3	0x401d40ed	2.4570878
4	0x3eb52463	0.35379323
5	0x400f83cb	2.242419
6	0x3f260e59	0.6486564
7	0x402f98a3	2.7436912
8	0x3e8e8f2d	0.2784361
9	0x3d1b4b1d	0.03791343
10	0x3f05d028	0.52270746
11	0x40263363	2.5968864
12	0xbeee1e07	-0.46507284
13	0x4012a647	2.2913988
14	0x3f08b0b2	0.53394616
15	0x406ee88f	3.7329443
16	0x3ed1b90e	0.40961498
17	0x3ebdf4a2	0.37100703
18	0xbdfd6f40	-0.12374735
19	0x3efda688	0.49541116
20	0xbdc6de18	-0.0971033
21	0x3f98cf50	1.1938267
22	0x3f3a13e6	0.7268661
23	0x3ff465cd	1.9093567
24	0xbef400d3	-0.4765688
25	0x402f2f8b	2.7372768
26	0xbe1511ea	-0.14557615
27	0x408e9be2	4.4565287
28	0xbdb28039	-0.08715863
29	0xc04023b9	-3.0021803
30	0xbe9725d8	-0.2952106
31	0xc07eeb50	-3.9831123
32	0x3ef64256	0.48097485
33	0xbeef7be0	-0.46774197
34	0x3b9e7d80	0.004836738
35	0x3db8eaf8	0.09029192
36	0x3dfb0d4b	0.12258395
37	0x3fda3dc1	1.7050096
38	0x3f674414	0.90338254
39	0x404aef6b	3.170863
40	0xbdb69a90	-0.08916199
41	0x3dd93990	0.10606682
42	0xbd368ec0	-0.04456973
43	0x3eb5adb8	0.354841
44	0x3e42430d	0.1897089
45	0x3f5161c2	0.8178979
46	0xbe8d0cfd	-0.27548972
47	0x3f658773	0.89659804
48	0x3db0b417	0.086280994
49	0x3eeb5416	0.4596259
50	0xbe4c5d12	-0.19957379
51	0x3fd1bcb2	1.638571
52	0x3e2fadc4	0.1715613
53	0xbeddbd2d	-0.43308392
54	0xbee70931	-0.451242
55	0xbe279eb4	-0.16369134
56	0x3d236970	0.039895475
57	0xbd80f7cb	-0.06297263
58	0x3c22a3e0	0.009926766
59	0xbda6fa29	-0.08153183
60	0x3e919bb4	0.28439105
61	0xbde36242	-0.111027256
62	0x3fb0b2aa	1.3804524
63	0x3fa29925	1.2702986
64	0x3eb639e6	0.35591048
65	0xc002c72f	-2.0434072
66	0xbd951331	-0.07279051
67	0xc065340f	-3.5813024
68	0x3f1fa9e9	0.6236864
69	0xc05d86bb	-3.4613483
70	0xbf1d3f4a	-0.61424696
71	0xc0a879c0	-5.264862
72	0x3f814d5e	1.0101736
73	0x3f63d1f9	0.8899227
74	0x3d96c342	0.07361461
75	0x3db06ae6	0.08614139
76	0x3ea80f3a	0.32824117
77	0xbece786e	-0.40326256
78	0xbe4dbd68	-0.20091784
79	0x3edad1a2	0.42738062
80	0x3d4175d0	0.047231495
81	0x3e951dbc	0.29124248
82	0x3e608f14	0.2192958
83	0x3ee8a90e	0.45441478
84	0x3f0113ae	0.50420654
85	0xc031f867	-2.7807863
86	0xbeeaf3b1	-0.45889047
87	0xc0ac1016	-5.3769636
88	0xbf39b156	-0.7253622
89	0x401f4a7f	2.4889219
90	0x3f0af5a3	0.5428106
91	0x4070a499	3.7600462
92	0xbe2daf0e	-0.1696131
93	0xbff8f887	-1.9450845
94	0xbeb1bab3	-0.34712753
95	0xc0596ce2	-3.3972707
96	0x3f3953a9	0.7239328
97	0xbd88bb1c	-0.06676313
98	0x3f5eff1b	0.8710801
99	0x3f91566a	1.1354496
100	0xbe5981c0	-0.21240902
101	0xbfb8ac7e	-1.442764
102	0xbec72ffc	-0.38903797
103	0xbffda7eb	-1.981687
104	0x3e9a4942	0.30134016
105	0x3ec6e530	0.3884673
106	0xbe505384	-0.20344359
107	0x3e4858f0	0.19565177
108	0x3e54be0f	0.20775627
109	0xc051ed86	-3.2801223
110	0xbee5cf07	-0.44884512
111	0xc09b65b7	-4.8561664
112	0x3f4e03a1	0.8047429
113	0x3fd129ef	1.6340922
114	0x3f93419b	1.1504396
115	0x403665cf	2.849964
116	0xbed29532	-0.41129452
117	0xbedd5936	-0.43232125
118	0x3e645150	0.22296643
119	0xbe2c9e60	-0.1685729
120	0xbeb61d24	-0.35569108
121	0x40301491	2.7512553
122	0x3e93f4a8	0.28897595
123	0x4083df10	4.1209793
124	0x3f218aa0	0.6310215
125	0xbfca070c	-1.57834
126	0x3dc4ed92	0.096156254
127	0xc00d35e2	-2.2064137
128	0xbe89955e	-0.2687177
129	0x40380c81	2.8757632
130	0x3e6bc3cc	0.2302391
131	0x4095c319	4.6800656
132	0xbe408b9c	-0.18803257
133	0xbdab6f69	-0.08370859
134	0xbe36ced3	-0.17852335
135	0x3fc02dcf	1.501398
136	0x3ef2e69c	0.47441566
137	0xbd872e58	-0.06600636
138	0x3e1e8c54	0.15483218
139	0xbcc25cc0	-0.023725867
140	0xbf4b843a	-0.79498637
141	0x3fd69ac8	1.6765985
142	0x3de461b3	0.11151447
143	0x408bfe4a	4.374791
144	0xbc9df441	-0.019281508
145	0x3e0e6d5d	0.13908906
146	0xbccdc834	-0.025119878
147	0xbedbbc65	-0.4291717
148	0x3e8c7ed0	0.274405
149	0x3e3bb964	0.1833244
150	0xbc663580	-0.014050841
151	0xbdcb2960	-0.09920001
152	0xbcfb7b0e	-0.030698325
153	0xbf17bc1a	-0.59271395
154	0xbda8b474	-0.08237544
155	0x3e2678fb	0.16257088
156	0xbe5e6a5d	-0.21720262
157	0xc031bc13	-2.7771041
158	0xbe9133d7	-0.28359863
159	0xc08339ce	-4.100806
160	0xbe27df3c	-0.16393751
161	0x3eda924e	0.42689747
162	0x3eedb6e0	0.46428585
163	0x401f105d	2.4853737
164	0x3d08e002	0.033416755
165	0xbf01d7ab	-0.5071971
166	0x3d933dab	0.071894966
167	0xbee33d6d	-0.44382802
168	0xbe732978	-0.23746288
169	0xbf509d88	-0.81490374
170	0xbc30d5e2	-0.010793181
171	0x3ec74a17	0.38923714
172	0x3ec56eac	0.38560998
173	0xbec72479	-0.38895014
174	0xbe988032	-0.29785305
175	0xbf1a8fa2	-0.60375416
176	0xbec8a5ca	-0.39188987
177	0x3dad2492	0.08454241
178	0x3f1264ba	0.57184947
179	0x400683a7	2.1017854
180	0x3e88c034	0.2670914
181	0xc037d4d4	-2.872365
182	0xbef5fd2c	-0.48044717
183	0xc09e8011	-4.953133
184	0xbf0f8c19	-0.5607315
185	0xbe5a6b33	-0.21329956
186	0x3f30d60c	0.6907661
187	0xbdb972a1	-0.09055067
188	0x3d83b062	0.06430127
189	0x3f846bdf	1.034542
190	0x3edc70db	0.43054852
191	0x402eb37e	2.7297053
192	0xbe9756fa	-0.29558545
193	0xbeeac4cc	-0.4585327
194	0xbe7ce95f	-0.24698399
195	0x3e8d2df8	0.27574134
196	0x3de1c50a	0.1102391
197	0x3e30e1f0	0.17273688
198	0xbeab888f	-0.33502623
199	0xbe6616dc	-0.22469658
200	0xbef9083f	-0.48639104
201	0x403f9d2b	2.9939678
202	0x3e6a1a5f	0.22861622
203	0x40875f9e	4.230422
204	0xbda19838	-0.078903615
205	0x3e8a6b2a	0.27034885
206	0x3d4ef6e0	0.050528407
207	0x3df1ee00	0.11812973
208	0x3d9dd4a8	0.077065766
209	0xc03328d7	-2.7993677
210	0xbece7f32	-0.40331417
211	0xc0847a88	-4.1399574
212	0xbe29cb88	-0.16581547
213	0xbd032319	-0.032015894
214	0xbe616218	-0.22010076
215	0x3f65e227	0.89798206
216	0xbdc3c6b0	-0.09559381
217	0x3e5908b8	0.21194732
218	0xbddc65b0	-0.10761583
219	0xbda21630	-0.07914388
220	0x3f71bec0	0.94431686
221	0x405ad895	3.419469
222	0xbe4e3cdc	-0.20140404
223	0x404aa1e1	3.1661303
224	0x3f169c21	0.58831984
225	0x40217fef	2.5234334
226	0x3ed67f5f	0.4189405
227	0x4047fcf9	3.1248152
228	0x3f6a3660	0.9148922
229	0x3f78bc6b	0.97162503
230	0x3f60ff42	0.8788949
231	0x3fe23394	1.767199
232	0xbef51c5e	-0.47873205
233	0x4031be85	2.7772534
234	0xbd9eec53	-0.07759919
235	0x408ce0b3	4.402429
236	0xbf60d1f3	-0.8782036
237	0x400695bb	2.1028888
238	0x3e141ef8	0.14464939
239	0x406b5791	3.6772196
240	0x3e8f1d6a	0.2795213
241	0xc004b474	-2.073514
242	0xbebf46e7	-0.37358782
243	0xc0878394	-4.234812
244	0x3ed9698e	0.42463344
245	0xbe63fc04	-0.22264105
246	0xbe83c17c	-0.25733554
247	0xbe836a80	-0.2566719
248	0x3dbbbb70	0.0916661
249	0xbef11330	-0.4708495
250	0x3ef526e6	0.4788124
251	0x3cf556e0	0.029948652
252	0xbd87ef07	-0.06637388
253	0x3cf8e794	0.030383863
254	0xbe8a4c73	-0.2701145
255	0x3f498b52	0.7872821

actor.0.bias f4 [64]
0	0xbde98c4b	-0.11403712
1	0xb9623ea9	-0.00021576382
2	0x3e905bb3	0.2819496
3	0x3e1be7d4	0.15225154
4	0xbeca9874	-0.39569438
5	0x3eeb3ac8	0.45943284
6	0xbe204b58	-0.15653741
7	0xbde89720	-0.1135695
8	0xbef2330a	-0.47304565
9	0x3e207733	0.15670471
10	0xbe74f140	-0.23920155
11	0xbe12f7dc	-0.14352363
12	0xbe2986fa	-0.16555396
13	0xbedb8f0c	-0.42882574
14	0xbcbdd281	-0.023171665
15	0x3ec3987c	0.38202274
16	0x3e8ad646	0.27116603
17	0x3e14692f	0.1449325
18	0x3e93bdb3	0.28855667
19	0xbe9c04da	-0.3047245
20	0xbe8877e2	-0.26653963
21	0x3e002120	0.12512636
22	0xba63d82c	-0.0008691575
23	0xbea5e5b3	-0.3240181
24	0x3ec850d1	0.39124158
25	0xbe45f342	-0.19331077
26	0xbe8f712c	-0.2801603
27	0xbd66418d	-0.056214858
28	0x3ee89b40	0.45430946
29	0xbecda4f0	-0.401649
30	0x3a119bf0	0.00055545475
31	0x3ed57861	0.41693404
32	0x3b0cd9f4	0.0021492215
33	0xbee36f37	-0.44420788
34	0xbedd4f9a	-0.43224794
35	0xbe4bb3c5	-0.19892795
36	0xbdabc9de	-0.083881125
37	0xbef16ef4	-0.47154963
38	0xbe2860b0	-0.16443133
39	0xbe13494d	-0.14383431
40	0x3e843cde	0.25827688
41	0xbd8a586b	-0.06755146
42	0xbebf09b2	-0.37312084
43	0xbe5e1ea5	-0.21691377
44	0x3e266302	0.16248706
45	0xbd35be11	-0.044370715
46	0x3be28db2	0.006913864
47	0x3ea2be00	0.31785583
48	0xbf1e5330	-0.61845684
49	0xbeac5cdb	-0.33664593
50	0xbddab5cf	-0.106792085
51	0xbee05612	-0.43815666
52	0xbda5bbfa	-0.08092494
53	0xbeefeb5f	-0.4685926
54	0xbee6e43e	-0.4509601
55	0x3b573c7a	0.0032842443
56	0x3e6121b7	0.21985517
57	0x3ee116f0	0.43962812
58	0xbe3450c9	-0.17608942
59	0xbdab703c	-0.083710164
60	0x3e4e40d9	0.20141925
61	0xbeb4f6f2	-0.35344654
62	0xbedcb872	-0.4310947
63	0xbed8eb83	-0.4236718

actor.2.weight f4 [64, 64]
0	0x3cd8faba	0.026486743
1	0x3d3f5401	0.04671097
2	0xbe06903d	-0.1314096
3	0xbd6a6080	-0.057220936
4	0xbd3ee008	-0.04660037
5	0x3d96957c	0.07352731
6	0x3d8939b5	0.0670046
7	0x3c977cf0	0.018492192
8	0x3ad0dd80	0.0015935153
9	0xbded8107	-0.11596876
10	0xbd93250c	-0.071848005
11	0x3d601e71	0.05471653
12	0x3db433e0	0.08798957
13	0xbcd91cc5	-0.026502976
14	0xbdba72cf	-0.09103929
15	0xbe3eb009	-0.1862184
16	0xbb844a8b	-0.0040372065
17	0x3dc296ed	0.09501443
18	0xbaebcef2	-0.0017990752
19	0x3a7a8800	0.0009557009
20	0xbcdb4af0	-0.026769131
21	0x3da24d48	0.079248965
22	0xbdfd09a2	-0.12355353
23	0xbd9420c1	-0.0723281
24	0xbe28f3af	-0.16499208
25	0xbdaaee9a	-0.08346291
26	0xbd965f94	-0.07342449
27	0xbe0f8dc1	-0.14018919
28	0xbd796331	-0.060885612
29	0xbd9a967c	-0.07548234
30	0xbd939ccb	-0.0720764
31	0x3dd75c76	0.105156824
32	0x3bfe8a8d	0.0077679814
33	0xbdae8705	-0.08521847
34	0x3df83876	0.12120144
35	0xba199459	-0.00058585923
36	0x3dc30cd7	0.095239334
37	0xbdd0897c	-0.10182473
38	0xbda1026e	-0.078617916
39	0xbe140ade	-0.1445727
40	0xbd53c346	-0.0516999
41	0x3d505640	0.050863504
42	0xbd9738ab	-0.073838554
43	0x3da3d54d	0.07999668
44	0xbe31f12d	-0.17377158
45	0xbd453834	-0.048149303
46	0xbdbe01a9	-0.092776604
47	0xbdac42a6	-0.0841115
48	0xbdb94d91	-0.09047998
49	0x3c72316b	0.01478229
50	0xbd62b597	-0.05534896
51	0x3d411a0c	0.04714398
52	0x3d43ad75	0.047772843
53	0xbdf1cea7	-0.11806994
54	0xbd90b7aa	-0.07066281
55	0xbe3135de	-0.17305705
56	0xbe15bcf9	-0.14622869
57	0x3c921dfd	0.017836565
58	0xbcf50763	-0.029910749
59	0xbb84d708	-0.004053954
60	0x3b9ba51c	0.004749907
61	0xbd459b8c	-0.048244044
62	0x3dec60a2	0.11541869
63	0x3dae6d86	0.08516984
64	0x3d9fdc1e	0.07805656
65	0x3db10aae	0.08644615
66	0xbd19956e	-0.037496023
67	0xbda420e6	-0.080140874
68	0xbd8f2e32	-0.06991233
69	0xbd6e1e0b	-0.05813412
70	0xbd200aac	-0.039072677
71	0xbd908f70	-0.070586085
72	0xbc082910	-0.008310571
73	0xbcdbd288	-0.026833788
74	0xbcebb0b8	-0.02877079
75	0xbd84291e	-0.06453155
76	0xbdc5fd00	-0.096673965
77	0xbd5a1208	-0.053239852
78	0xbdd1a8cc	-0.102372736
79	0x3cecc483	0.028902298
80	0x3d702e2e	0.05863779
81	0x3d83810a	0.064210966
82	0x3d2dddaf	0.042447742
83	0x3d2932bc	0.04130815
84	0x39814000	0.0002465248
85	0xbc2f4feb	-0.010700206
86	0x3cebd518	0.028788134
87	0xbc844b66	-0.016149234
88	0xbdc93751	-0.09825004
89	0x3d01c217	0.03167924
90	0x3d94a7a4	0.072585374
91	0xbdfcc000	-0.123413086
92	0xbe01c855	-0.12674077
93	0x3db7a8ea	0.08967765
94	0xbd0e9648	-0.034811288
95	0xbdc3bde4	-0.09557703
96	0xbdfb9f48	-0.1228624
97	0xbd9f20c9	-0.07769925
98	0x3c43be30	0.0119472
99	0xbdd61c04	-0.10454562
100	0x3cf748d8	0.030186102
101	0xbd4c47dc	-0.049873218
102	0xbdb81c4e	-0.08989774
103	0x3d12722d	0.035753418
104	0x3df6bb36	0.120474264
105	0x3d8423a2	0.06452109
106	0xbd2ddd89	-0.0424476
107	0xbd0f3aac	-0.034968063
108	0xbd7c0f06	-0.061537765
109	0xbda07e73	-0.07836618
110	0xbdf9eda8	-0.122035325
111	0x3d8d8dd8	0.0691182
112	0x3dd356c9	0.10319287
113	0xbdbce004	-0.09222415
114	0xbcb2ad58	-0.021811172
115	0x3db83c18	0.08995837
116	0xbc7c9a86	-0.015417701
117	0xbdc773df	-0.097388975
118	0xbdd59990	-0.1042968
119	0x3daa45a6	0.08314066
120	0xbd8bb1bd	-0.0682101
121	0xbd18d38a	-0.037311114
122	0xbda9c368	-0.08289224
123	0x3d0f9aed	0.035059858
124	0x3d10ad19	0.03532133
125	0x3d9c9976	0.07646458
126	0x3cde1690	0.027110368
127	0xbe0e2d2a	-0.13884416
128	0x3f6f49be	0.93471897
129	0xbf54c7f6	-0.83117616
130	0xbe1d883a	-0.15383998
131	0x3e30d568	0.17268908
132	0x3dc3bc3a	0.09557386
133	0x3d909517	0.07059687
134	0x3ecded73	0.40220222
135	0xbeb46913	-0.35236415
136	0xbdabdcda	-0.083917335
137	0xbf66f7e0	-0.9022198
138	0xbd892550	-0.0669657
139	0xbd349649	-0.044088636
140	0xbe336a48	-0.17521012
141	0x3ce27f72	0.027648661
142	0x3d4c93e1	0.049945716
143	0xbf37cb6d	-0.7179478
144	0xbe9f2083	-0.31079492
145	0xbedc67a0	-0.4304781
146	0xbf485a05	-0.7826236
147	0xbda53c88	-0.08068186
148	0x3d7ea74c	0.062171265
149	0xbecd8dc5	-0.40147224
150	0x3f20cb3b	0.62810105
151	0xbe1b955d	-0.15193696
152	0xbf17c564	-0.5928557
153	0xbe4bbec1	-0.19896986
154	0x3adbce00	0.0016769767
155	0xbdae7d21	-0.0851996
156	0xbf205c34	-0.6264069
157	0x3d0d8f08	0.034560233
158	0x3efe5348	0.49672914
159	0xbe97cfc0	-0.29650688
160	0x3f06a534	0.5259583
161	0x3e882497	0.26590416
162	0xbd926bf2	-0.07149495
163	0x3edab91c	0.42719352
164	0xbdb36c27	-0.08760863
165	0x3d870890	0.0659343
166	0x3e30c8a8	0.17264044
167	0xbeb9f785	-0.36321655
168	0x3db6fece	0.08935319
169	0x3d93ff54	0.07226434
170	0x3d256dd6	0.04038795
171	0x3d220c8c	0.039562747
172	0xbcac6055	-0.021042028
173	0xbdf054a6	-0.117348954
174	0xbce5a121	-0.028030934
175	0xbbc4de94	-0.0060079787
176	0x3cafa743	0.021442061
177	0xbd82c5bb	-0.0638537
178	0x3f470e15	0.7775586
179	0xbd36cd38	-0.044629306
180	0xbd7eed43	-0.06223799
181	0xbd29f7a1	-0.041495923
182	0x3df3a588	0.11896807
183	0xbe136331	-0.14393307
184	0xbf4b604c	-0.7944381
185	0xbf809a4d	-1.0047089
186	0x3f0139fc	0.504791
187	0x3e8760fb	0.26441178
188	0xbdb4673e	-0.088087544
189	0xbd52b298	-0.05143985
190	0x3d9b6ce0	0.07589126
191	0xbe921a29	-0.28535584
192	0x3d92f0f7	0.07174867
193	0xbca433e0	-0.020044267
194	0x3baa6c01	0.0052008634
195	0x3d6be285	0.057589073
196	0xbd4ac990	-0.04950863
197	0xbda12a26	-0.07869367
198	0xbe00b1bb	-0.12567799
199	0x3d822067	0.063538365
200	0x3dfd4598	0.123667896
201	0xbdd728f2	-0.105058566
202	0x3b2e5580	0.0026601255
203	0x3d894bc3	0.067039035
204	0xbde8949a	-0.113564685
205	0xbbbe984b	-0.0058164946
206	0x3d480e7a	0.04884193
207	0xbe090ef4	-0.1338461
208	0x3d475553	0.048665356
209	0xbd95ffac	-0.07324156
210	0xbd907031	-0.07052649
211	0xbcd15290	-0.025552064
212	0x3dac9df2	0.08428563
213	0xbc964bbd	-0.018346662
214	0xbdec7d2d	-0.11547313
215	0xbd2d7abb	-0.042353373
216	0xbb97b42b	-0.004629632
217	0x3d858999	0.06520385
218	0xbdf4b310	-0.11948216
219	0x3d91d690	0.07121003
220	0x3d47a646	0.048742555
221	0x3d4dfeac	0.050291702
222	0x3d2b7f26	0.041869305
223	0xbc75b300	-0.01499629
224	0xbe13da51	-0.1443875
225	0xbdc4f26c	-0.09616551
226	0xbd9a0fec	-0.07522568
227	0x3dc581ae	0.09643875
228	0x3d924090	0.071412206
229	0x3c471560	0.012151092
230	0x3d1700a5	0.03686585
231	0x3d52ffcc	0.05151348
232	0x3c76c988	0.015062697
233	0x3db72abc	0.08943698
234	0xbcaee0d5	-0.021347443
235	0x3b6311ae	0.003464799
236	0xbd5c0eb5	-0.053724963
237	0x3d50fbe4	0.05102147
238	0x3d2b7159	0.041856144
239	0x3dbc8357	0.092047386
240	0xbdf045b5	-0.117320456
241	0x3d66c4e3	0.05634011
242	0x3d3b2f62	0.045699485
243	0x3de37d7c	0.111079186
244	0xbdbd6b8a	-0.09249027
245	0x3d4c7c10	0.049923003
246	0x3dd3779c	0.10325548
247	0x3cced85b	0.02524965
248	0xbe2f5931	-0.17123868
249	0x3b5ac46f	0.0033381244
250	0xbdd5c516	-0.10437982
251	0xbdb692ae	-0.08914696
252	0xbd32670b	-0.0435553
253	0xbdea61ac	-0.11444411
254	0xbda49bf8	-0.08037561
255	0xbe0d2f3b	-0.13787548

actor.2.bias f4 [64]
0	0xbce9cbfc	-0.02853965
1	0xbccd9710	-0.025096446
2	0xbcf50ec1	-0.029914262
3	0xbdc525b3	-0.09626331
4	0x3d9d095c	0.07667801
5	0xbe088e02	-0.13335422
6	0xbd10a4ed	-0.035313535
7	0x3db65a7d	0.08903978
8	0xbd9a0848	-0.07521111
9	0xbd07bc44	-0.03313853
10	0xbd3a3381	-0.045459274
11	0x3ef90230	0.4863448
12	0xbcf15309	-0.02945854
13	0xbde8401e	-0.113403544
14	0xbdb55899	-0.08854789
15	0xbe063e93	-0.13109808
16	0x3ee211e0	0.44154263
17	0x3d425637	0.047445502
18	0xbe7cfae6	-0.24705085
19	0xbde96f79	-0.11398215
20	0x3de889d1	0.113544114
21	0x3d920b18	0.07131022
22	0x3caabb78	0.020841345
23	0xbda4d837	-0.08049052
24	0x3d3fb506	0.046803497
25	0xbcc880e1	-0.024475517
26	0xbc06ee9d	-0.008235601
27	0x3e329633	0.17440109
28	0xbc8b2038	-0.016983137
29	0xbdc55060	-0.09634471
30	0x3d004e86	0.031324886
31	0x3e104220	0.14087725
32	0xbdc79884	-0.09745887
33	0x3cc56c66	0.02409954
34	0xbcf59803	-0.029979711
35	0x3eded776	0.4352376
36	0x3e07aa04	0.1324845
37	0xbd1f9dea	-0.038968958
38	0xbc00741e	-0.0078401845
39	0x3d252996	0.040322863
40	0xbd918ed5	-0.07107321
41	0x3d87a333	0.06622925
42	0x3e808e30	0.2510848
43	0x3e9bbe9b	0.30418858
44	0x3e7f819f	0.2495179
45	0x3e07186c	0.1319291
46	0x3d3f7b2a	0.046748318
47	0xbe0917c6	-0.13387975
48	0xbd0c3b89	-0.034236465
49	0xbd395708	-0.045249015
50	0xbdd1cb9a	-0.10243912
51	0x3ce30703	0.027713304
52	0xbda8843c	-0.08228347
53	0xbcca3d58	-0.024687454
54	0x3e80e01e	0.25170988
55	0xbdc775c5	-0.0973926
56	0x3e712a0e	0.23551199
57	0x3ea882f0	0.32912397
58	0xbc20d8ab	-0.009817283
59	0x3e23619f	0.15955208
60	0xbda06390	-0.0783149
61	0x3edd55fc	0.43229663
62	0xbde84fe5	-0.11343364
63	0x3d439413	0.047748636

actor.4.weight f4 [1, 64]
0	0x3cb1fa70	0.021725863
1	0xbd528652	-0.05139763
2	0x3fe120ee	1.7588174
3	0x3cca6462	0.02470607
4	0x3fcfb7a9	1.6227924
5	0xbd3c621e	-0.04599201
6	0x401809f2	2.375607
7	0x3fe69ae0	1.8016014
8	0x3df34728	0.11878806
9	0x3dff610e	0.124696836
10	0x40349a79	2.8219283
11	0xbfaaec11	-1.3353292
12	0xba88dbf8	-0.0010441532
13	0xbda6c542	-0.08143093
14	0xbe195932	-0.14975432
15	0xb95f1e38	-0.00021278195
16	0xbf7f8918	-0.99818563
17	0x3d32e314	0.04367359
18	0x3f03c772	0.51476204
19	0x3d81f843	0.0634618
20	0xbfa79872	-1.3093398
21	0x39386b3c	0.00017587555
22	0xbbba851e	-0.0056921383
23	0x3d8ea5a1	0.06965185
24	0xbc67cc9f	-0.014147907
25	0xbd81ffab	-0.06347593
26	0xbb14709e	-0.0022650133
27	0xbf951435	-1.1646792
28	0x3d4fbc4e	0.05071669
29	0x3af1ffe3	0.0018463101
30	0xbc7487ad	-0.014924926
31	0xbf8f22fc	-1.1182551
32	0x3df3eb52	0.11910118
33	0xbfccc64e	-1.5998018
34	0x3c4ee26f	0.012627228
35	0xbf93b4f3	-1.1539596
36	0xbfd80391	-1.6876088
37	0x3fecd2dd	1.850185
38	0xbda4edb4	-0.08053151
39	0x3fd052bd	1.627525
40	0x40206e71	2.5067408
41	0xbf16acb6	-0.58857286
42	0xbfd42092	-1.657244
43	0xbfbe5d3b	-1.4872202
44	0xbfd05a8d	-1.6277634
45	0xbfc99173	-1.5747513
46	0xbf1a0832	-0.60168755
47	0xbde1f919	-0.1103384
48	0xbd74f077	-0.059799638
49	0xbd024ac0	-0.03180957
50	0x3d17ae04	0.03703119
51	0xbccd46d2	-0.025058184
52	0xbc620e40	-0.013797343
53	0xbceabd58	-0.02865474
54	0xbf91caa0	-1.1389961
55	0x3bf5f0c9	0.0075055105
56	0xbf9825ca	-1.1886532
57	0x3f2a2bda	0.6647316
58	0x401fbfd2	2.4960828
59	0xbfb89089	-1.4419109
60	0xbd93eb25	-0.07222585
61	0x3f40e8e4	0.7535536
62	0xbda99d0b	-0.08281907
63	0xbf0a1f0f	-0.5395364
