preTrained/MountainCarContinuous-h-v1/3level/HAC_MountainCarContinuous-h-v1_solved_level_2_crtic.pth (torch_old, 19781 bytes, 5 tensors)

critic.0.weight f4 [64, 6]
00000000: c6aa 493f 0c32 603e 96ef 8ebe ef48 f8bf
00000010: 8381 043f 8edc 493f 23e4 b9bd 9827 2abf
00000020: 5490 d73e aee5 5e40 e8f0 11be 0210 dabd
00000030: d8af 7a3f 2ff9 2f3d 0768 b9bd af5f 0bbf
00000040: 1f53 acbe 383e 0a3f 22ee 96bb cc89 3d40
00000050: 94a6 633b 5349 2d40 8095 113e e5e7 c03f
00000060: 795d 013f 851a 04c0 c636 c4be 0371 db3e
00000070: 9746 adbe 1a2c dcbf 6f02 3cbe a444 5ec0
00000080: 68f4 f03e e096 e03e 0f51 c3be e343 1940
00000090: 8dc2 723f 5d42 413f 589f 13be b544 c5be
000000a0: f63b 0cbe a9e0 02bf bf4b 663e 67b6 04bf
000000b0: 67c9 4e3e 84f0 583e ba9b e9be dd5e e9be
000000c0: 7f1c a63e d39d 63c0 7715 293f d567 fd3d
000000d0: 7eee 243f a959 893e 6bde 0d3e 6ed0 2140
000000e0: 4adf 03be 59b4 7fc0 7fd3 25be d5d2 4b3f
000000f0: 9706 8dbe b730 2a40 9055 fbba da91 02c0
00000100: d833 df3e 8cb3 da3e acaa 833f e6e1 e53d
00000110: 52d7 273e 1e9d 5bbe 5ea7 33be eefe 20bf
00000120: b0e6 c83d 8200 b73e 0058 31ba 5c78 6d3e
00000130: bcce 88bd c4b5 8a3d cce4 d83e 4657 16bf
00000140: 5af7 30bf 5e6c 14c0 1a61 d7ba 1a2c 2c3f
00000150: 4214 793e 89b2 a6bd 197e f13c 207b 163f
00000160: 19ff 653f 827c a03f 9696 b03d 1b92 313f
00000170: 7ec4 81be 2cc8 ef3e f41b e5bd f9d8 f43f
00000180: 7d76 263f b796 b13f e435 323c 1442 d23f
00000190: 70a1 0ebf 9b51 1c3e 1049 d63e bc5d 3a40
000001a0: 7fad 693e c612 14c0 bbb4 873d 82da 9d3f
000001b0: 6259 cb3d 2a6a b23d 1830 b0be 6fdb 3740
000001c0: b4ea 8b3e a6a9 eabf a08c 2a3d e848 e63d
000001d0: f058 453e a662 903e 00f6 ffbc a1a5 c2be
000001e0: 9fb3 4b3e 257c 653e 0483 78bd 894d 1540
000001f0: 6a65 4f3e 259a dcbe 5eb2 27be 2650 7ac0
00000200: 0ead 41bf bb82 ab3f be3b 42bf 6fc5 29bf
00000210: 88f0 203f f2a3 513e 60bd a5be 6532 a9bf
00000220: 6e62 163f 910b efbe 2d11 943d e9c8 df3f
00000230: 21ac 6abe ab3a 8dc0 eb34 4f3e a4a3 9f3e
00000240: 9f31 6f3d 17ee aebe 7837 06be 49fd 9abe
00000250: e315 473e 2ff6 8cbf f7df c63e 0f49 debf
00000260: 724f 853e 7a3b 463f 131d f1bb ccc1 2040
00000270: cd89 a83d fea0 8b40 aca3 543f 30e1 2bbd
00000280: f254 66bf f913 773e 471d a33d a205 4640
00000290: 3ef0 c53e 6703 17c0 0923 323e e6a3 713f
000002a0: 895d 6c3f 4f0f 3abf 570d 92be 5bbf f53f
000002b0: a54b b6bd 9d5c 253f 3162 363c 91c0 1dbf
000002c0: 9b91 983e fa85 32c0 1885 89be e786 2c40
000002d0: 6414 1dbe e091 bdbf 1f29 3d3f b3c3 333f
000002e0: 44ca 50bf 68c7 043f 539e d5bd 7671 56c0
000002f0: 1771 863e a0bb 2abf 0d8b 763e e589 87be
00000300: 7c3d 813d 7c06 3840 23ae 7bbe 4d68 57c0
00000310: e8f7 893e d6f9 de3f 3b9c 0bbe d03e 1fc0
00000320: 4545 c9bd ad3f 0dc0 5fea 9e3e b293 713e
00000330: c967 06bf 5871 2bc0 ec16 b0bc 054f 97bd
00000340: 0c84 4fbe bc5e a43d fb35 8ebd ddb2 a03c
00000350: 1dd1 00bf f774 1540 7cff 6dbe a154 1bbf
00000360: a065 c1bd e59d 75be a8d3 463e 049d 273e
00000370: c064 56bd 2e5f d0be c1e2 30bc 6bfb 08bf
00000380: c571 3c3f 50ee debf f4e8 44bf 123a ef3e
00000390: ba46 043e 23d4 cbbf 72a9 07bd bebd 0dbe
000003a0: 9b42 593f 8ed4 883f acb6 833c 1a27 0240
000003b0: 2dc3 0d3f 9f8d 42be d213 d9be c6a4 d03d
000003c0: 4832 26be 749d 7cbf ca8e 8a3d 23c1 dc3f
000003d0: 2170 823f fe10 9c3f d4f6 a03d dd25 963e
000003e0: a406 e0bd 14e2 c0be c3db 23be c942 f9bc
000003f0: 9b57 f03d 946a 45be cfcc 23bd 3261 fa3d
0.78776205 0.21894091 -0.27917165 -1.9397258 0.5176012 0.78852165 -0.09076717 -0.66466665
0.421023 3.4827685 -0.14252055 -0.106475845 0.97924566 0.04296225 -0.09053045 -0.54442877
-0.33657166 0.5400119 -0.0046060244 2.9615355 0.003473674 2.7076004 0.14217186 1.5070769
0.5053325 -2.0641186 -0.3832304 0.4285966 -0.33842918 -1.7200959 -0.18360303 -3.4729395
0.47061467 0.43865108 -0.3814778 2.3947685 0.9482811 0.7549189 -0.14416254 -0.38528982
-0.13694748 -0.51124054 0.22489832 -0.51840824 0.20194016 0.211855 -0.45626622 -0.45580187
0.32443616 -3.5565078 0.6604838 0.1237332 0.6442641 0.26826218 0.13854377 2.5283465
-0.12878147 -3.9953825 -0.1619396 0.7961858 -0.2754409 2.6592233 -0.001917528 -2.040152
0.4359424 0.42715108 1.028646 0.11224727 0.16390732 -0.21446654 -0.17544314 -0.6288899
0.09809625 0.35742575 -0.0006765127 0.23190445 -0.066800565 0.0677295 0.42362058 -0.5872692
-0.6912743 -2.3191142 -0.0016432137 0.67254794 0.24324134 -0.08139522 0.029479073 0.58781624
0.89842373 1.2537997 0.08622472 0.69363564 -0.25345224 0.46832407 -0.11186972 1.9128715
0.6502455 1.387412 0.010877106 1.6426415 -0.55715084 0.15265505 0.41852617 2.911971
0.2282009 -2.3136458 0.066262685 1.2332308 0.09929158 0.087116554 -0.34411693 2.8727682
0.27327502 -1.8333023 0.041638017 0.112443745 0.19272208 0.28200263 -0.031245232 -0.3801699
0.19892739 0.22410639 -0.06067182 2.3328574 0.2025353 -0.43086353 -0.16376635 -3.9111419
-0.75654685 1.3399271 -0.7587241 -0.66316885 0.6286702 0.20472696 -0.32371044 -1.3218504
0.5874394 -0.46688512 0.072298385 1.7483188 -0.22917224 -4.4134116 0.2023503 0.31179535
0.05839693 -0.34166023 -0.13107097 -0.30271366 0.19441943 -1.1012629 0.38842747 -1.7366046
0.26037174 0.77434504 -0.0073582022 2.5118284 0.082294084 4.3634024 0.83062243 -0.041962802
-0.89973366 0.24128713 0.079645686 3.0940938 0.38659853 -2.3595827 0.17396177 0.94390714
0.92330223 -0.7267961 -0.28525802 1.9199022 -0.08901147 0.6459444 0.011131809 -0.6162196
0.29798588 -2.7894273 -0.26859355 2.6957338 -0.1533981 -1.4810143 0.7389087 0.7022049
-0.8155863 0.5186677 -0.104305886 -3.350675 0.26258156 -0.66692543 0.24076481 -0.26472393
0.06310555 2.8753958 -0.24578147 -3.365741 0.2694695 1.7419994 -0.13633816 -2.4882088
-0.09827665 -2.2070115 0.31038186 0.23591498 -0.52502114 -2.678793 -0.021495305 -0.07388119
-0.20265216 0.08025882 -0.0694389 0.019616539 -0.5031908 2.335264 -0.23241991 -0.6067601
-0.094432116 -0.23986013 0.19416678 0.1636849 -0.052342176 -0.40697616 -0.01079625 -0.53508633
0.736111 -1.7416477 -0.7691796 0.46723992 0.12917605 -1.5924114 -0.03312058 -0.13841912
0.84867257 1.0689867 0.016078316 2.0336366 0.5537594 -0.18999337 -0.42397934 0.10187678
-0.16230118 -0.98677754 0.06765516 1.7246441 1.0190469 1.2192686 0.07859579 0.29325762
-0.109387666 -0.37672484 -0.16001801 -0.030427353 0.117354594 -0.19278938 -0.039990243 0.1222557

critic.0.bias f4 [64]
00000000: 988e adbd 06ba 75bc 4887 84be 5982 cabd
00000010: ea3b e1be 3b08 33bd 9726 0a3f 03ba 97be
00000020: c263 dfbb ef35 6c3e dcdd 17bc 43cc 313d
00000030: 50ee 17be fdd7 8ebe 610c 57be 7a18 1bbd
00000040: 559b ad3e 568f 8b3e 9409 1b3d 07d0 a7be
00000050: 6ea4 af3b 25bf 50be f34b b43d 9f54 413d
00000060: b6bd d33c d9b6 583e 08d2 733c 72fa 313e
00000070: aec8 1d3e 80b9 9a3c 5826 c0bd 73a9 a2bd
00000080: be59 0abd 9424 00be d42a acbe 3915 19bf
00000090: d17f 2abe bbe2 77ba 806f cdbe a538 563e
000000a0: 3184 01bf bafc debe 766a d5be 1615 cebd
000000b0: ef28 88be 669b 403e 6457 1dbf 9aed d83d
000000c0: aca6 a2be 4814 333d 6e0f 0d3e 0367 a1be
000000d0: 4b12 f63e 82a0 82be 5fe0 89be f2ed c53b
000000e0: 647d 25bd 13c4 45bd 98dc 533d fda2 02be
000000f0: 2a85 b73d 0c57 083e e8e3 0ebd 528c 49be
-0.08474463 -0.014997965 -0.2588446 -0.09888143 -0.43991023 -0.04370902 0.53965133 -0.29634103
-0.006817312 0.23067449 -0.009269204 0.04340769 -0.14837003 -0.2789916 -0.21000816 -0.03786514
0.3390757 0.27257794 0.03785093 -0.327759 0.0053601777 -0.20385416 0.08803549 0.04719984
0.025847297 0.21163501 0.014881618 0.17380694 0.15408584 0.018887281 -0.093823135 -0.07942476
-0.03377699 -0.12513953 -0.33626425 -0.5979801 -0.1665032 -0.0009456088 -0.4012413 0.20920046
-0.50592333 -0.4355219 -0.41682786 -0.100626156 -0.2659373 0.1880928 -0.6146147 0.10592194
-0.31767786 0.043720514 0.13775417 -0.31523904 0.4806083 -0.25513083 -0.26928994 0.006040328
-0.040402785 -0.048282694 0.051724046 -0.12757488 0.08960946 0.13314456 -0.034885317 -0.19682434

critic.2.weight f4 [64, 64]
00000000: aaab c3bd bfaa 323e 4715 55bd 65ea 14be
00000010: 6f30 6f3f 6d88 c33e 144b a13e 4255 e5be
00000020: 6e21 2ebe 3c81 87be 8baf cebd 7def 843e
00000030: 2864 b53c 8515 d13e 9bdb a23e d2ee 973e
00000040: c5e9 903e 1b77 273e fc30 b6bd 5054 1bbd
00000050: 22a4 343f f607 83be 528a fdbe 7646 9bbf
00000060: fe56 713d 4c57 b83d 60dd 983f a08f 45be
00000070: b77a 8a3e c4be 43bf 009a 573f 9be0 e43e
00000080: 1c78 b4bf 9f58 ce3e 0a3f febc 4426 cb3d
00000090: dc77 df3d 1a11 6b3f 4bc4 4b3f 49ba 7b3e
000000a0: 1d26 c13e 5df6 82bc a064 80bc b590 7a3e
000000b0: 9a73 c0bf cada c1bd e001 ccbe 9771 483f
000000c0: 4222 d5bc 5211 d0bb f459 5cbe 31d7 9bbf
000000d0: 637d 2abe ba86 19be 67d9 353e 7201 d4bf
000000e0: efbc d13d 82ee 1b3f 2023 e43d ccef 27be
000000f0: 2278 fa3e 22de 35bf ae61 653e b8b7 6f3d
00000100: 4cb0 03bf a3ae 553d f67c 51bd 3ee0 6ebe
00000110: 5c24 35be 9ad7 1a3f 6bd7 12bf 8461 dabd
00000120: 97da 783f 1cc4 3ebf e0ab c6be 3204 35bf
00000130: 400f 493c 9e4a dabe bbfe 523e 6c63 efbd
00000140: 102b 69be 7d98 70be 3555 973f 28d1 93bd
00000150: 7f3a 773e 90fd c1be c6b0 fb3d 18f4 193f
00000160: 188a c9bd 7957 8d3f 89f5 97bf 8daa 43be
00000170: 70f5 24bf f3eb 2e3f b3b0 99bf 2e7c a23e
00000180: 2ba3 3dbf abb8 98be 98d5 3dbf 1aab b9bc
00000190: 944c f7bd 3185 c5bf cf2c f83e 1528 2cbd
000001a0: 775c 3e3e 140d ae3d b4ae 0f3e bce8 97be
000001b0: a138 e8bd 4450 27be 8706 dc3e 811e 4d3f
000001c0: 5587 09bf 7d23 e8be 0ae7 63be e8d5 0640
000001d0: c402 30be eb0f 0ebe dda2 80bf 36b8 3240
000001e0: 0235 89bd 4cec fdbe 0f7c a53e 0389 47bf
000001f0: feea 893e 1fd7 efbe c147 273e 384f ed3c
00000200: 4450 fcbe 076e 95bf 3598 87bd e37c 1bbf
00000210: d803 863c 6977 26bf 7183 a8bf a059 b1bd
00000220: bd6c 1340 14a7 29c0 30d9 a63c 60bd b0bd
00000230: 4206 ec3d cd64 3abf 2254 aa3e 1726 72bd
00000240: 9199 6fbf 8c69 bfbc fd17 83be 78bf 143d
00000250: 031e 72bf 2869 c7be dcaa 16bf 23c5 81bf
00000260: 1957 a73e e14e b93f 83f8 09bf be4e 4fbe
00000270: 0fa2 3fbf f025 ac3e d001 fc3e 5da1 d93e
00000280: 4319 6e3e 6f37 393f 084e acbe 3332 30bf
00000290: 406b a53c 7e1d af3d 1135 f33e 87e0 92bd
000002a0: 3701 1e3f d221 9bbd cabd d8bd 37eb e53b
000002b0: 8f95 573e 6f2c a53e 0c93 c23d a54a 1dbf
000002c0: dc7c c3bf 3803 863e 9905 bdbe e936 4b40
000002d0: 85a1 20be 64b6 5a3c 78fe 2abf b9ed e43f
000002e0: b506 99bd a562 b1be 3a0b 02bf b5b4 b6bc
000002f0: 0c4b ed3e 0b48 b53e 3d3a bebf 0888 23bd
00000300: 1aab a2bd 0502 0cbe 9024 06bc 915e c83c
00000310: daf1 cf3d 3836 7a3d 6316 dabd e2b2 c63d
00000320: 71f8 c7bd fb05 883d 4a6d 9dbd 00ed ea3c
00000330: 6848 86bd 9e89 3abd e24f 813d ec86 a53d
00000340: a74c 15be 8098 8abc 2049 0bbe 5008 ebbd
00000350: 7559 c13d 109e 7dbc b9ed 083d e07a 61bc
00000360: 57c0 6fbd 7208 9e3d 00f3 19ba d9c6 2dbc
00000370: 42cf 4b3c c2fa b33d 0040 163a b059 e3bd
00000380: c0f3 693d c97a 633d c332 ebbd 6ac1 3d3d
00000390: 6434 de3d f84c af3d a238 69bd 784e 07be
000003a0: d30b 18be 5853 bb3d a0cd 583c a26d 723d
000003b0: 012c 62bd 7f74 07be a0e7 143c b09e 2c3d
000003c0: e35f 3fbd fc3d 19be f32c f73c b439 e5bd
000003d0: d112 6d3d 3492 07bd 3d1b dcbd ecfa 71bd
000003e0: 6473 d4bd b899 d53c ce6c 9ebd d54e f0bd
000003f0: 3ebc a8bd 441e 86bd 80c4 16bb 5af5 da3d
-0.09554227 0.17447947 -0.052022245 -0.1454254 0.9343328 0.38190022 0.31502593 -0.4479161
-0.1700494 -0.26465786 -0.10092076 0.25963965 0.022142485 0.4083673 0.3180817 0.29674393
0.28303352 0.16354029 -0.08896062 -0.037922204 0.70562947 -0.2559201 -0.49519593 -1.2130878
0.058920853 0.090010256 1.1942558 -0.1929307 0.2704675 -0.7646296 0.8421936 0.4470261
-1.4099154 0.40301988 -0.031035919 0.09919408 0.10911533 0.9182297 0.79596394 0.24582781
0.3772439 -0.015986616 -0.015672982 0.24469264 -1.5035279 -0.09465559 -0.3984518 0.78298324
-0.026017312 -0.006349721 -0.2151869 -1.2175046 -0.16649394 -0.149928 0.17758714 -1.6562941
0.10241114 0.6091081 0.11139512 -0.16400069 0.4891978 -0.7104207 0.22400543 0.058524817
-0.5144088 0.0521685 -0.051144563 -0.23327729 -0.17689651 0.6048523 -0.5735995 -0.10663131
0.9720854 -0.7451799 -0.38803005 -0.70709527 0.012271702 -0.42635053 0.20604984 -0.11688885
-0.22770333 -0.2349567 1.1822878 -0.07217628 0.24143408 -0.37888765 0.12289576 0.6013808
-0.098407924 1.104232 -1.1871806 -0.19108029 -0.6443701 0.6832878 -1.2007049 0.31735367
-0.740771 -0.2982839 -0.74154043 -0.022664595 -0.12075153 -1.5431272 0.48471686 -0.042030413
0.1858996 0.08498588 0.14031488 -0.2966975 -0.11338926 -0.16339213 0.4297373 0.8012467
-0.53722125 -0.45339575 -0.22256103 2.1068058 -0.17188555 -0.1387326 -1.0049702 2.7924933
-0.066995636 -0.49594343 0.32321212 -0.7794344 0.26937097 -0.46843812 0.16335966 0.028968439
-0.49279988 -1.1674203 -0.06620828 -0.60737437 0.016359255 -0.65025955 -1.3165113 -0.08659673
2.3035119 -2.6508226 0.020367235 -0.086298704 0.11524631 -0.7281006 0.33267313 -0.059118357
-0.935937 -0.023365758 -0.2560424 0.03631541 -0.94577044 -0.38947415 -0.5885446 -1.0138286
0.32683638 1.4477197 -0.53894824 -0.20244882 -0.74856657 0.33622694 0.49220133 0.42505923
0.23251824 0.7235021 -0.33653283 -0.688266 0.020192742 0.08550547 0.47501424 -0.071717314
0.61720604 -0.0757481 -0.105830744 0.007016565 0.21053146 0.32260463 0.09500703 -0.61442024
-1.5272479 0.2617433 -0.36918333 3.1752264 -0.15686615 0.013349149 -0.6679454 1.7885047
-0.074719824 -0.34645572 -0.5079838 -0.022302965 0.4634632 0.35406527 -1.4861523 -0.03992465
-0.07942791 -0.13672645 -0.008187428 0.024459155 0.101535514 0.061086863 -0.10648801 0.09702088
-0.09764183 0.06641766 -0.07686861 0.028677464 -0.06556779 -0.0455414 0.063140646 0.08082375
-0.14580022 -0.01691842 -0.13602114 -0.11476195 0.09440891 -0.01547958 0.033429835 -0.013762206
-0.05853304 0.077164546 -0.00058726966 -0.010606491 0.012439551 0.08788063 0.00057315826 -0.11101091
0.057117224 0.05553702 -0.114842914 0.046327032 0.108498365 0.085596025 -0.056938775 -0.13213527
-0.1484826 0.09146756 0.013232619 0.059186585 -0.055217747 -0.13228033 0.009088427 0.042143524
-0.046722304 -0.14965051 0.0301728 -0.111926466 0.057879273 -0.033098415 -0.10747383 -0.05907719
-0.103735715 0.026074275 -0.077355966 -0.11733786 -0.08239029 -0.065487415 -0.0023005307 0.10691328

critic.2.bias f4 [64]
00000000: 74d2 c03d 9b72 e83d e335 4ebe 4f75 09be
00000010: 0af4 ea3c b874 4a3e 7155 9a3e 7c38 0abe
00000020: e25a 4c3d af39 f2bd 831e 463d eda5 3c3e
00000030: 6eaf 63bd 641a 3d3e 431e 2a3e dfac a83d
00000040: e137 383e ab88 adbd 6545 593c 257d 713d
00000050: d19a 2c3d d169 583e 6685 af3c 9ef3 59be
00000060: dc30 1b3c ca9e 7a3d e903 1a3e 5f0c 3cbd
00000070: 5511 22be c67e 683e b78e 373d 5ed1 dc3d
00000080: 4644 0dbe 32f9 82bd d522 0fbd e7f5 b7bd
00000090: b2d3 693b 1f08 6f3e 7c0d 89bd 6817 4f3d
000000a0: 87f0 533d e9d9 99be af45 1abe dada c13d
000000b0: 7571 cbbc e052 023e d121 513c 22e8 273e
000000c0: 19ab 533d e2b1 543d 92c7 0b3e be29 143c
000000d0: 6959 7abc 9fa3 c4ba 6f7e 74be f35b db3d
000000e0: 20af e9bd 5bde 86bd 1768 99bd c90d 0d3e
000000f0: 1474 ffbd f0f6 8abd 88d1 0a3e 18e1 493d
0.09415141 0.11349984 -0.20137744 -0.13423656 0.02868082 0.19771087 0.30143312 -0.1349811
0.04989136 -0.118274085 0.048368942 0.1842267 -0.055587225 0.18467098 0.16613106 0.082360975
0.17990066 -0.08473333 0.013261174 0.058957238 0.042139832 0.21134116 0.021425914 -0.21284339
0.009472098 0.06118659 0.15040554 -0.045910235 -0.15826924 0.2270461 0.044813838 0.10782121
-0.13795575 -0.063951865 -0.034945328 -0.08982449 0.0035679159 0.23342942 -0.06692025 0.05055943
0.051743057 -0.30049065 -0.15065645 0.09465571 -0.024834374 0.12726927 0.01276441 0.16397145
0.051676843 0.051927455 0.13650349 0.009043155 -0.015280106 -0.0015002376 -0.23876356 0.10710897
-0.114103556 -0.0658538 -0.07490557 0.1377479 -0.12473312 -0.06785381 0.13556492 0.04928693

critic.4.weight f4 [1, 64]
00000000: 6f13 20bf 8d40 3d40 45aa 5d40 a615 e8bb
00000010: 87bf f43f 86a6 97be d7e2 d1bf e3fa 8c3d
00000020: 944b 1740 7fb6 3dbc 6ce7 ba3f 4a9b 5fbf
00000030: 33ac 713b 70ad 2e3f 708d 06bf e489 6e40
00000040: 97aa 773f 2d26 823e 7bec e0bd c69e ef3e
00000050: de18 83bc b74c 04be 3e41 d2be e85d c5bc
00000060: 22f5 bd3f 0d80 403e f0bc c440 8efb 9f3f
00000070: e6a8 55bc 1ef0 19bf c7d4 91bf 2fb1 de3f
00000080: 56ef 803f 5803 b0bf a4af 6cbd 57ba 4240
00000090: efd0 f03e 8a50 1e40 6401 a13c d1dc 1840
000000a0: fad5 6fbd 8431 acbf b6fc ebbd a4d1 7a3f
000000b0: 9b19 1abd 2b37 c640 c397 4f40 09dd a540
000000c0: 51b2 4240 1c0d 0240 4874 8b40 f65f 9d3e
000000d0: 2bb4 04ba e15f 4340 ddd3 2640 7835 a2be
000000e0: 831a 58bd 2003 e13c 2947 80bd 1043 36bf
000000f0: 7a12 203f 62d7 13be 85ee 3a3f a77a 50bf
-0.62529653 2.9570649 3.4635174 -0.007082659 1.912095 -0.29619235 -1.6397351 0.0688379
2.363988 -0.011579155 1.4601874 -0.8734633 0.003687632 0.68233395 -0.52559566 3.7271662
0.96744674 0.2541975 -0.10982605 0.46800822 -0.016003069 -0.1291989 -0.410654 -0.02409263
1.4840434 0.18798847 6.1480637 1.2498643 -0.013040757 -0.60132015 -1.139306 1.7397822
1.007304 -1.375102 -0.05778469 3.0426233 0.47034404 2.4736657 0.019653983 2.3884776
-0.058553673 -1.3452611 -0.1152281 0.97976136 -0.037622076 6.1942344 3.2436378 5.183232
3.0421336 2.0320501 4.3579445 0.30737275 -0.00050622475 3.052727 2.606681 -0.31681418
-0.05275966 0.02746731 -0.06263573 -0.7119608 0.62528193 -0.14437631 0.730202 -0.8143715
