preTrained/MountainCarContinuous-h-v1/3level/HAC_MountainCarContinuous-h-v1_solved_level_1_crtic.pth (torch_old, 19781 bytes, 5 tensors)

critic.0.weight f4 [64, 6]
00000000: d268 db3e 0671 68be 9e13 9a3c 5769 54bf
00000010: 3749 e3be 6705 1a3f 3620 f73d baa4 01bf
00000020: 9b4a c0bb 5830 953f 037b cb3c 32c6 5240
00000030: 5a41 743f c23d d13e b812 043f 785a 173d
00000040: db3c 403f 6280 b03c a5ee cabe 3a35 9f3f
00000050: 79d1 02bf aeb0 7b3f 95c0 723f 3e39 aa3e
00000060: 8642 b2bd d3ff eebf 8638 1abe d17e 03c0
00000070: 3a19 523e fd87 31c0 3a0a 50be 21aa 59be
00000080: 28e9 083e 9f35 15c0 7bde 5f3a 81c5 0240
00000090: 06d7 a93e 9920 3b3f 2e3a 953e 1ca4 733e
000000a0: ed8e 45be d915 27bf 9145 e03e 773f 0a3e
000000b0: 6591 823e 34f5 503f 66c9 2ebf f84c 8d3f
000000c0: 7e88 183d c464 a83f 8aec 943e 5f7c 433f
000000d0: ca68 9b3d 4655 04bf 2d2d 8c3e 4dbc 59bf
000000e0: deb1 14bf 2b44 cdbf 1fc0 2a3f 80a6 e1be
000000f0: 35ae 933d 582e b13d 853c aa3e 5094 a63d
00000100: 99c8 d2be f69d 753f 398c 693e ce3f febf
00000110: 4027 6a3e 5c87 44be 03b8 e2bd 8e99 e33f
00000120: 5366 a4be 1472 a6bf ab8a fb3e 87ff ae3e
00000130: 2332 ac3e 8bbb 12bf fcb7 ec3e 812c 2240
00000140: 7138 13bf 95f8 3c3f c57a 43be d2bc b5bf
00000150: 52bb 353e ed64 953f 392a 533d dc2b 8dbe
00000160: 4ee8 9bbe 2a84 813f 74c0 133e 506b 133e
00000170: 109c 493e 1887 463d 609c 81bd 50c5 d33c
00000180: f208 3abe cfa9 cf3f 5219 cd3d 089e b8bf
00000190: 50d8 003e 7e18 d0bf 6bb0 46be a7ef bd3d
000001a0: e4b5 223f 7409 9f3e d7d2 0a3e 2ad8 6abe
000001b0: a497 49be dc86 9abf d7ae e8be b1d2 47be
000001c0: d413 9abd 9f26 7e3f 7f91 5a3c 9153 813d
000001d0: e05f 223f ad22 8ebf 4073 26bf 2fb5 8c3f
000001e0: 80d9 46bc efc4 cbbe f20a b93e 88af c43d
000001f0: f00d a43c 2da6 79be d23b 913e 8914 a9bf
00000200: 8fd5 5dbe c154 8fbf 798e 00bf d5ed 883f
00000210: d324 15bf 69b4 bfbf be71 053f 9978 053a
00000220: cc5e 153d 5273 9f3f e6fa c2bc 5f49 70bf
00000230: ae0b 29bf c975 103e 0da8 323f 910c 113f
00000240: 70ef 0bbf e465 8f3f 0a55 233f 751f bebf
00000250: 131e a53d 2c89 c2be c0d0 653d 22aa 9c3e
00000260: 5253 b23e 527b 523f f561 c9be decc e13f
00000270: 4a8e 56bc 38a9 96be d0fb 2e3e 4a33 e1bf
00000280: ab12 a83e c676 a13f fbbf 4dbe 2f18 913e
00000290: 1afe 943e 69ab 25c0 f5ea cbbd f572 ed3f
000002a0: 178f ee3e fa64 ce3f fdc2 13bf 9ad0 a9be
000002b0: 381e b93d 7d72 d1bf 45b7 963e cf40 053f
000002c0: f4cb c43e ef95 9d3f 4481 23bf d8c8 a13f
000002d0: 3877 4dbe 2537 f13f b121 2a3e db95 4abf
000002e0: 6509 433e d823 9ebf 6bdc bebe 049e 983d
000002f0: 775d 403e 7a44 89bf f66f cfbe eac4 1ebf
00000300: e326 0b3e 1af6 d7bf ca52 b2be 6dae cfbe
00000310: fdc3 d53e 9188 bfbf 98a6 463e f185 d7bf
00000320: a73f 03bf ad70 fd3a e923 f63e 04f6 48bf
00000330: e376 583e 260c b5bf 7516 b83e a77c 2cbf
00000340: 4225 09bf ba80 d9bf d245 2a3e 54b2 f93e
00000350: c1c6 b6bd 622c 9dbe deda f63e ffa1 c53f
00000360: 917e 233e 197d 7dbe f37d bcbe 1fca 1e40
00000370: b5d0 ae3e b990 56c0 cc19 e23c a2bd c73e
00000380: 22cf 233f c68e 73be 88ae 2cbf 9d59 313a
00000390: e606 14bf fd7b 4ebf 5310 d6be 7050 93bd
000003a0: a1ea 7e3f c6dc f4bf b828 593e e046 d33c
000003b0: 4a5d 75be 7495 603e 80f2 243c cabc 03be
000003c0: f29c 24bf bbfb 713e 9a4a 253e f2a9 e8bd
000003d0: a2f3 823e 3313 a7be c63d 7cbe 5a47 9dbf
000003e0: 2bad f1bd 51db 89be 4235 b0be cdb4 cbbf
000003f0: 384e d6be 38d1 963f 58da a33e 5c61 adbd
0.4285341 -0.22699365 0.018808182 -0.82973236 -0.44391796 0.60164493 0.120666906 -0.5064198
-0.0058682687 1.1655378 0.02483893 3.293347 0.9541222 0.4086743 0.5159106 0.036951512
0.7509286 0.021545593 -0.39635196 1.2438118 -0.5110088 0.98316467 0.94825107 0.33246797
-0.087040946 -1.8671821 -0.15060624 -2.0546153 0.20517436 -2.773925 -0.20316401 -0.21256305
0.13370192 -2.3313978 0.0008539927 2.0433047 0.33171862 0.73096615 0.2914595 0.23793072
-0.19292803 -0.6526771 0.43803075 0.13500772 0.25501552 0.8162415 -0.6827606 1.1039114
0.037239544 1.3155751 0.29086715 0.7636165 0.07588346 -0.51692617 0.27378216 -0.8505295
-0.58083904 -1.6036428 0.66699404 -0.44072342 0.07210962 0.086514175 0.33249298 0.08133757
-0.4116867 0.95944154 0.22807397 -1.9863222 0.22866535 -0.1919226 -0.11070254 1.7781236
-0.32109317 -1.3003564 0.49129233 0.34179327 0.33632 -0.5731742 0.4623412 2.5339663
-0.57508 0.73816806 -0.19089802 -1.4198248 0.17747238 1.1671425 0.05155394 -0.27572525
-0.30450672 1.0118458 0.14428884 0.14396405 0.1968844 0.04846868 -0.06328654 0.025850922
-0.18167475 1.6223696 0.10014595 -1.4423227 0.12582517 -1.6257474 -0.19403236 0.09274226
0.63558793 0.310619 0.13556992 -0.22934023 -0.19686753 -1.2072406 -0.45445892 -0.19513966
-0.07523313 0.9927768 0.013340353 0.06314767 0.63427544 -1.1104332 -0.6501961 1.0992793
-0.012136817 -0.39798686 0.36141163 0.096037924 0.020026177 -0.24379797 0.28365952 -1.3209392
-0.21663497 -1.119774 -0.50217396 1.069758 -0.58259314 -1.4976932 0.5212668 0.0005091518
0.03646736 1.2457068 -0.023801278 -0.93861955 -0.66033447 0.14107431 0.69787675 0.566598
-0.5466223 1.120297 0.63801634 -1.485335 0.08062377 -0.3799528 0.056107283 0.3059855
0.34829193 0.8221942 -0.39332548 1.7640646 -0.013095448 -0.2942598 0.17088246 -1.7593777
0.32826743 1.2614372 -0.20092766 0.28338763 0.29100114 -2.588587 -0.09956924 1.8550707
0.46593544 1.6124566 -0.57719404 -0.33166963 0.09038967 -1.6363064 0.294367 0.52052015
0.38436854 1.2311381 -0.6386912 1.2639418 -0.2006501 1.8844954 0.16614415 -0.7913491
0.19046552 -1.2354689 -0.3727754 0.07452014 0.18785654 -1.0724022 -0.40515107 -0.62019217
0.13589053 -1.6871979 -0.34828788 -0.40562764 0.4175109 -1.4963552 0.19399488 -1.6837751
-0.51269 0.0019335948 0.48074272 -0.7850039 0.21139102 -1.4144332 0.35954633 -0.67377704
-0.53572476 -1.6992409 0.16628197 0.48768866 -0.08924628 -0.30697924 0.48213857 1.5440062
0.1596625 -0.24754752 -0.36814842 2.4810865 0.34143606 -3.3525832 0.027600192 0.39011866
0.63987935 -0.23784932 -0.67453814 0.00067653676 -0.57823026 -0.8065794 -0.4180933 -0.071930766
0.99576765 -1.9129875 0.21206939 0.025790632 -0.23961368 0.21932012 0.010067582 -0.12864986
-0.6430198 0.23631184 0.1614174 -0.113605395 0.25576502 -0.32631835 -0.2463294 -1.22874
-0.11800607 -0.26925138 -0.34415632 -1.5914551 -0.4185655 1.1782598 0.3200252 -0.084658355

critic.0.bias f4 [64]
00000000: 6abf abbe e717 d7bb d5cd 4fbe 844a 97bc
00000010: 1cdb 993c 742a 913d dc34 483e e5a0 1f3c
00000020: e59f c33e ccce 28be 34fa 593c 005f 833e
00000030: 06a5 cd3c 8afa 3abe 526e d2be 43e3 a6be
00000040: c10d af3d 7e69 e5bd 6e54 9fbe fe53 4d3a
00000050: f262 88be 42f5 94be 153a 7abe 50e2 d73b
00000060: e810 543e af00 c8be d8ae 853e 246b 64bb
00000070: 2d8e 913c d390 1b3e 469a 2d3e a10c bdbe
00000080: e834 683c c0a1 403e 765a ac3c 41c2 473e
00000090: c3d4 3e3e 8274 85ba fd0d 1fbb d44f bebe
000000a0: d6d6 04be e0f8 a4be e4e2 df3c 8b01 f2bd
000000b0: a5bd f63b aace dfbb a6e3 bfbe 5545 ecbd
000000c0: b0a0 be3a 81f3 373e f33f 623c 9eaf 103c
000000d0: 3056 0e3e 37d8 e2be 150e 123e 450c 073e
000000e0: 5d3c f63c 1466 b6be 7c57 f93e 263f febd
000000f0: eece 24be 8a23 0c3e 3a50 d7be 02a9 cebd
-0.33544475 -0.0065641287 -0.20293362 -0.018468149 0.018781237 0.070881754 0.19551414 0.00974295
0.38207927 -0.16485137 0.013304282 0.25658417 0.025103103 -0.18259636 -0.41099793 -0.32595262
0.08547545 -0.11201762 -0.31119102 0.0007832645 -0.2663799 -0.29093367 -0.24436219 0.006588258
0.20709574 -0.39063022 0.26109958 -0.00348539 0.01776799 0.15191965 0.16953382 -0.36923698
0.01417277 0.18811703 0.021039229 0.19507696 0.1863585 -0.0010181817 -0.0024269812 -0.3717028
-0.12972578 -0.32221127 0.02732987 -0.118167005 0.0075299316 -0.006830056 -0.3747837 -0.115366615
0.0014543738 0.17963983 0.013809192 0.008830933 0.13900065 -0.44305584 0.14263184 0.13188274
0.03005808 -0.35624754 0.48699558 -0.12414388 -0.16094562 0.13685432 -0.42053396 -0.100908294

critic.2.weight f4 [64, 64]
00000000: 2056 f7bc e1ab 3a3c 701b a23d b67b aa3d
00000010: 83a9 92bc 0cd6 463d e2d5 cb3c 80af beba
00000020: 87c9 9a3b 4d20 3c3d bdb6 e1bd f2e2 653d
00000030: bbb7 a3bd e89b e63c b858 cdbc 7425 07bd
00000040: e775 04be 243e d4bd 55bf 22be 70fd ca3d
00000050: 64d6 de3d 6896 5c3d 4c3f 673d 3fd4 1cbe
00000060: ab1c 143d e03b 6d3c 00cf 1cbe 8850 df3c
00000070: 245e 96bc 7d56 3bbd 5aed af3d 1c1f 8dbd
00000080: ce3c c53c cb5a 9c3d 7803 a0bd daa8 05be
00000090: 7bf3 013d 7077 04bd d027 1ebb 843a 7dbd
000000a0: 5763 f5bc 98d6 83bc 48f5 9f3d 4964 7e3b
000000b0: 33f4 23bd 2032 16be 9632 fcbd 98e5 0abe
000000c0: 80b0 683d 76a2 d5bd c6e6 98bd 2726 69bd
000000d0: 8a03 923d a0ac 843c 3283 a23a 3a53 c3bc
000000e0: 3465 2e3d c00f 253c 162c a93d 5293 43bd
000000f0: 00af d0bb 7ebe 28bd fc63 793d 9cce 803d
00000100: e8d0 44bd fac7 86bd 800a 393b 8656 6cbc
00000110: 2f3b 8ebd d467 fabd 160e 0cbd 68f0 c2bc
00000120: 6c8a c53d e23c e2bd 40c7 fcbd ced9 cebd
00000130: 9c71 efbd 3301 6d3d 20a8 5ebc bc9c e5bd
00000140: e282 b83d 0cbf 8a3d 4589 99bc 8420 9fbd
00000150: a624 c3bd c790 2ebd e0ac cebc 44c7 b13d
00000160: 01b8 9c3a 7234 d8bd 801c 80bc 8e03 f53d
00000170: 1f44 91bd 5a0b b5bd f2bd eabd a0ce 853d
00000180: da44 30bd 1187 00bd e4c4 0dbd 2641 51bd
00000190: b8fb babd 1072 2f3c f102 09bd 002e e339
000001a0: c7e5 fcbd a0aa 11bd 3b57 1ebe 1ec8 86bd
000001b0: 4509 593d a8c2 f1bc e821 233d 65cd 27bc
000001c0: 7488 93bd d01c eebd d119 b3bd 3ece 5a3d
000001d0: 2e4b 7dbd f261 edbd 4ebc a4bd 6018 c83c
000001e0: b404 443d 1b14 a93d 874d b0bc 90e5 a03d
000001f0: 3097 ee3c 337d 3d3d 20f3 7dbd a04d f6bd
00000200: 2548 44bf f57a e1bc 6f3e 35be 011f 05bf
00000210: 3f79 65ba b953 0d3e fb2f 75be 8b0a 873f
00000220: 4bef d6bd 478e f43f 0996 04be 42e8 d8be
00000230: ab62 02bb b70e 1b40 3750 053f 7618 b63d
00000240: fe5c d43e 4892 6d3e d10d 3fbe cbaf b03f
00000250: e284 cfbd c158 d8be a61c 933f 1ebc ab3e
00000260: cce0 bd3d fbee 8b3f be28 9c3e f208 3840
00000270: 1204 d23f 29ca fdbe cf1a 733e 2278 803e
00000280: b624 7d3f 2ab9 5d3e 95b6 f9bf 2d9e 0b3d
00000290: f13a 7c3e 64b6 0b3f 0af8 9e3e 1a37 d3bd
000002a0: e4b3 e73c 5d37 963c fcb8 123e 8684 943c
000002b0: 6b73 9cbd 1898 b03e 101c f43c 8fa5 3abe
000002c0: 8254 123f 5a58 86be 444c 67bd 4f30 3dbe
000002d0: 5663 10bf ad15 c93d ed68 7d3e 8ade 493e
000002e0: 47ca 2c3e f135 2abf 0e77 01bd e91f e5be
000002f0: 1e60 21bc fe02 2b3f 32f2 fd3c 2ca2 d23e
00000300: 3a82 c8bd 063d ae3d c0c0 02be c7a8 633d
00000310: 0a32 c93c c6d6 7cbb 7313 b43d 009b f3bd
00000320: f8ab 983d ea7c 803d cb68 393d b289 c0bd
00000330: 3d2f f2bd c09d 2bbb 7a99 fa3d bc77 61bd
00000340: 0029 b8bd 33f5 853d eb93 b9bc ec86 b23d
00000350: 589d 98bd 8074 473d 0835 8b3c c317 b83d
00000360: d5f6 47bd d2e7 853d bf2d 433d d687 acbd
00000370: df61 85bd 5e82 bfbc 3607 1abd be65 d2bd
00000380: 8710 96bc ed2f 51bd 4b33 623c 9e74 613d
00000390: 2a90 debd 5112 85bd f3d3 02bc 70ad 04bc
000003a0: 6665 cf3d 8cf2 96bd b2cd bd3d fd4a 9d3d
000003b0: 654a 20bc 3fdb 04be 0808 003d b274 87bc
000003c0: 4b54 cbbd 3ce3 0e3d 937b 5dbc 1a09 0abe
000003d0: f188 b4bd fa97 a63d 4bb2 04be 842f 8abd
000003e0: 53d1 9bbc e699 c23d c3d1 843d 0ad7 92bd
000003f0: 801e dd3a ba2a 56bb e8ca c53c 603d 37bc
-0.030192435 0.011393518 0.079153895 0.08324377 -0.017903095 0.048543975 0.02488226 -0.0014548153
0.004723731 0.045929242 -0.11021183 0.056124635 -0.07994028 0.028150514 -0.025066718 -0.032994702
-0.12935601 -0.10363415 -0.158933 0.099116206 0.108807355 0.053854376 0.05645685 -0.1531534
0.036160152 0.014479607 -0.15313339 0.02726008 -0.018355437 -0.04573678 0.08590193 -0.06890699
0.024076845 0.07634505 -0.078131616 -0.13052693 0.03172634 -0.032340467 -0.0024132617 -0.061823383
-0.029954595 -0.016093537 0.078104556 0.0038817099 -0.04002781 -0.14667559 -0.12314336 -0.13564146
0.05680895 -0.104313776 -0.074658915 -0.05692115 0.07129581 0.016195595 0.0012398718 -0.023843396
0.042576984 0.010074556 0.08260362 -0.047747917 -0.006368518 -0.041197293 0.06088637 0.062894076
-0.04805079 -0.06581111 0.0028235018 -0.014424926 -0.06944882 -0.12226835 -0.03419312 -0.023796275
0.096455425 -0.11046769 -0.123426914 -0.10100137 -0.11691591 0.05786247 -0.013589889 -0.11211535
0.09009339 0.067747205 -0.018742213 -0.07769874 -0.095284745 -0.04261854 -0.025228918 0.08680585
0.0011956693 -0.10556878 -0.01563859 0.11963569 -0.07093071 -0.08840056 -0.114620104 0.06533551
-0.043034412 -0.03137881 -0.034611598 -0.05108752 -0.09130043 0.010708347 -0.03345007 0.00043331087
-0.12348514 -0.03556311 -0.15462963 -0.06581138 0.052987356 -0.029511765 0.039827257 -0.010241841
-0.07203761 -0.11626589 -0.087451585 0.053419344 -0.061839275 -0.11590947 -0.08043729 0.024425685
0.047856048 0.08255788 -0.021521343 0.078562856 0.029124826 0.046261977 -0.06199944 -0.120265245
-0.76672584 -0.02752445 -0.17699598 -0.52000433 -0.0008753724 0.13801469 -0.23944084 1.0550092
-0.1049486 1.910592 -0.12947859 -0.423647 -0.0019895236 2.4227731 0.52075523 0.08891384
0.41477197 0.23200333 -0.18657614 1.3803648 -0.10132767 -0.42255214 1.1493118 0.3354196
0.09271392 1.0932306 0.30499834 2.875546 1.6407492 -0.49568298 0.23740695 0.25091654
0.9888414 0.21652666 -1.9508845 0.034086395 0.2463186 0.5457518 0.31048614 -0.10313244
0.02828402 0.018336946 0.14328378 0.018129598 -0.07639202 0.34491038 0.029798537 -0.18227218
0.571602 -0.26239282 -0.056469217 -0.1847546 -0.56401575 0.098185875 0.24747057 0.19713798
0.16874038 -0.6648856 -0.03160768 -0.44750908 -0.009849576 0.6680144 0.030999277 0.41139352
-0.09790464 0.08507733 -0.12768841 0.05558088 0.024559993 -0.0038580163 0.08792772 -0.11894798
0.074546754 0.062738255 0.045265954 -0.09401263 -0.11825416 -0.0026186556 0.122363046 -0.05504583
-0.08992195 0.06540909 -0.02265354 0.087171406 -0.07451886 0.048695087 0.01699306 0.08988907
-0.04881938 0.06538357 0.04765105 -0.08424346 -0.06512808 -0.023377594 -0.037604533 -0.10273312
-0.018318428 -0.051071096 0.0138061745 0.055042855 -0.10867341 -0.06497634 -0.007985103 -0.008097991
0.10126762 -0.07370481 0.09267749 0.076803185 -0.009783362 -0.12974261 0.03125766 -0.016535137
-0.09928187 0.034884676 -0.013518232 -0.13480034 -0.08815182 0.08134456 -0.12958638 -0.06747344
-0.019020712 0.0950201 0.064853214 -0.07169922 0.0016870052 -0.0032679276 0.024144605 -0.0111840665

critic.2.bias f4 [64]
00000000: 7647 cdbd 66f1 f1bc 30ff a7bd bf04 adbd
00000010: a650 dc3c ca43 aabd b2a6 ecbd f2fd 0bbb
00000020: de38 9ebd 77d0 8bbd 726f 8e3d 682a a5be
00000030: 550f 01be 4e7c bfbd a10a e33d 3e7a 423e
00000040: 6956 ce3d 535d a03d 40c1 0d3d ce2d a2bd
00000050: 1d4f 84bc 922d 18bd 04f8 35bd cbf5 2e3d
00000060: 7f42 243d 03b9 4cbd a02e 03bd 038d 953c
00000070: e48b 15bd 1a97 913e e042 4ebd 8cb0 5dbd
00000080: a416 583d 978b 9ebc 00a9 4bbd 21be c0bd
00000090: f4ad 123e 7e83 abbd 9403 a73c 2625 863d
000000a0: 1756 74bd 8227 bbbc 749f 04be 1e69 bcbc
000000b0: d8fb 5b3d e2f3 9f3d 7594 c8bd c160 0bbe
000000c0: b466 c73c a4f8 733d 419f e73d ea4f a1be
000000d0: a64f 053e 8d5a afbd a04c 98be 609a 08be
000000e0: 8506 03bc 36fb 9dbd 678e 573d 3c58 96bd
000000f0: d8c5 9ebd 7d03 863d d244 343d 1228 c3bd
-0.10023396 -0.029534053 -0.0820297 -0.08448171 0.026893925 -0.08313711 -0.11555232 -0.002136108
-0.0772569 -0.06826871 0.0695485 -0.32258916 -0.12603505 -0.09349881 0.11086012 0.18991944
0.10075075 0.078303 0.034608126 -0.07918893 -0.016151005 -0.037152834 -0.04442598 0.042714875
0.040102478 -0.04998113 -0.032026887 0.018255716 -0.036510363 0.28435594 -0.050356746 -0.054123446
0.052755967 -0.019353671 -0.049721718 -0.09411264 0.1432417 -0.083746895 0.020387448 0.06550054
-0.059652414 -0.022845987 -0.12951452 -0.022999343 0.053706974 0.07810189 -0.09793941 -0.13611127
0.024340965 0.059563294 0.11309672 -0.31506282 0.13018665 -0.08562193 -0.2974596 -0.1334014
-0.00799716 -0.0771393 0.05262604 -0.07341048 -0.077525795 0.06543634 0.044010945 -0.09529127

critic.4.weight f4 [1, 64]
00000000: 7119 d3bd 9f0e e33c 949a ae3f 6699 863c
00000010: 1972 ba3f da66 213f c852 95bd 1e8b 5abd
00000020: 93df 1ebd 1338 08bd e6a4 c83f 329d 8a3e
00000030: 8cd7 c0bc 6de7 9dbf 3bab fd3f 10b2 c7c0
00000040: c77b cd3f 3b44 40bd bee9 d6bf 620c e2bd
00000050: d5a0 dfbf 64d0 853f 2408 8e3f 6671 5abc
00000060: bdbc e5be c780 c4bc f9ff 9ebd 355e 6bbd
00000070: 3329 9e40 9881 f2be e423 11bd 8169 b03e
00000080: 1f07 3f3f 2eed 05c0 0169 2740 1f4a 9bbc
00000090: 5c79 bcbe 6d39 82bd 84b5 c8bd 794c 59bf
000000a0: d6c2 9a3f d567 b640 e230 a13f 7e34 35bf
000000b0: 631b 5ebc 85d9 fc3f a8af 9d3f aad3 873b
000000c0: 4b06 1a3f 6761 cb3f 2291 b4be f9c8 d7bf
000000d0: 7acb 403f a830 bd40 8336 a5bf f5f0 8ebf
000000e0: 2899 02bc 0d3c dc3f 8170 06bd a55f 07bc
000000f0: d38c f33a 163c a540 13d1 c3c0 4cf1 16bf
-0.10307587 0.027716933 1.3640924 0.016430568 1.456607 0.63047564 -0.0729118 -0.05335533
-0.038787436 -0.0332566 1.5675323 0.27073056 -0.02354028 -1.233625 1.981788 -6.240486
1.6053399 -0.04694007 -1.6790082 -0.11037518 -1.7470957 1.0454221 1.1096234 -0.0133327
-0.44870558 -0.023987187 -0.07763667 -0.05746289 4.942529 -0.47364497 -0.03543462 0.34455493
0.7462024 -2.0926013 2.615784 -0.018956242 -0.3681134 -0.06358609 -0.09800246 -0.84882313
1.2090709 5.700175 1.2593043 -0.7078322 -0.013556334 1.9753882 1.2319231 0.0041451054
0.6016585 1.58891 -0.35266978 -1.6858207 0.7531048 5.9121895 -1.2907261 -1.1167284
-0.007971086 1.7205826 -0.032822136 -0.0082625495 0.0018581398 5.1635847 -6.1192718 -0.5896194
