preTrained/MountainCarContinuous-h-v1/3level/HAC_MountainCarContinuous-h-v1_solved_level_0_crtic.pth (torch_old, 19525 bytes, 5 tensors)

critic.0.weight f4 [64, 5]
000000 21 cd fa 3e 60 17 db bf a3 5a ca be 67 c6 61 bd
       0.48984626 -1.7116508 -0.39522275 -0.05512085
000010 c3 37 11 bf 24 9f 93 be 1e 68 2f c0 f6 81 97 bd
       -0.5672571 -0.28832352 -2.7407298 -0.07397835
000020 f1 5f 09 3f 73 95 e7 3c 17 db 4d bb 4c 6f 22 40
       0.5366202 0.028269505 -0.0031411105 2.538043
000030 d8 03 95 3b 73 f8 a6 bc 0a b0 15 40 7f c6 b1 3d
       0.0045475774 -0.020382142 2.3388696 0.08680438
000040 c5 84 b8 be fd 22 cc be a2 4b 02 be 20 e3 d1 be
       -0.36038795 -0.39870444 -0.12724164 -0.40993595
000050 de 10 c8 3e 2b 0a 95 bf 41 4b ba be 49 98 17 bc
       0.3907537 -1.1643728 -0.3638554 -0.009252616
000060 cf 97 31 bf d3 b4 67 3d 34 6c 19 40 fe 52 52 bc
       -0.69372267 0.05656893 2.3972292 -0.01283717
000070 7e e8 ec 3d 14 24 83 40 0a c2 a4 be 5b ea 69 c0
       0.11567782 4.098154 -0.3217929 -3.654929
000080 88 56 7e 3c bf d2 a8 3e 43 a9 4e 40 bf ff 52 bc
       0.01552356 0.32973287 3.229081 -0.012878357
000090 be 17 07 3f 14 5b 1b bd e9 6a bd be 10 c4 66 3f
       0.527706 -0.037928656 -0.36995628 0.9014292
0000a0 7e 76 3b 3e e2 b7 35 40 2e a2 b4 bc 80 33 59 bd
       0.1830692 2.8393483 -0.02204999 -0.05302763
0000b0 2d b9 7a c0 9a bf da be 61 6f 23 c0 9d 0c b9 ba
       -3.9175522 -0.42724305 -2.553673 -0.0014118139
0000c0 62 3a e9 3e bd 38 05 3f 10 59 59 bf a8 16 93 bf
       0.45552355 0.520397 -0.84901524 -1.1491289
0000d0 6f b8 da 39 b3 c6 5a 3f 9d 19 9b 3e cd e4 bd be
       0.00041717614 0.8545944 0.3029298 -0.37088624
0000e0 88 10 93 40 85 84 c6 3c 85 69 b0 3c 4b f3 ce 3f
       4.595768 0.024233112 0.02153469 1.6167997
0000f0 2e c9 ef be 37 33 db bf c3 ce ac 3b 47 c2 f9 3e
       -0.46833175 -1.7125005 0.0052736714 0.48781034
000100 cd 7c 04 c0 b2 59 02 3e 66 5e 8f 3e 6f 65 48 be
       -2.0701172 0.12729529 0.28001708 -0.19569944
000110 3c b7 bc be 0e bd c4 3d 9d 73 96 be 13 ae e6 3f
       -0.36858547 0.09606372 -0.2938508 1.8021873
000120 1e 3c 97 3d 80 b1 29 be 70 1a 11 40 16 ec dd be
       0.07384513 -0.16571617 2.2672386 -0.43344182
000130 fd 34 6b c0 bf b8 4f 3b f6 d2 e3 3e cc 18 52 40
       -3.6751091 0.003169581 0.44496888 3.2827635
000140 12 27 ae bc d1 20 ad bf 30 98 d7 3c 00 58 cb 3e
       -0.021258865 -1.352564 0.026317686 0.39715576
000150 2e bc 51 3e 6e 44 86 3e 6b bb 55 40 38 6e 62 3d
       0.20481941 0.26224083 3.339564 0.055280894
000160 b0 56 46 be d4 e6 f6 bf 01 6f 4b 3d 39 20 81 c0
       -0.19369006 -1.9289193 0.04966641 -4.0351834
000170 27 fe 53 bd 9d 65 c5 3e 5a c0 ff 3f 96 3c de 3e
       -0.05175605 0.38554087 1.9980576 0.43405598
000180 d0 35 ad be 3c da de bd d0 c1 49 bd 9f 7f c5 be
       -0.33830118 -0.10881469 -0.0492571 -0.3857393
000190 31 a4 d2 be 83 3e b6 3f 61 4c a2 3b 76 42 d4 3e
       -0.41140893 1.4237827 0.0049529527 0.41456956
0001a0 f2 bd 6e 40 c6 c5 b3 3e 9b 32 8e be 87 87 15 3e
       3.7303433 0.35111827 -0.27772984 0.14602481
0001b0 20 8d 1e bf fc ee 50 be a4 d8 cb 3e a5 f6 8c 3e
       -0.6193409 -0.20403665 0.3981372 0.27531925
0001c0 c1 a7 72 be 87 2d a1 bd c2 59 31 3e b5 28 9e be
       -0.23696806 -0.07870012 0.17319396 -0.30890432
0001d0 82 9b dc bf 8d b0 bc be b1 90 16 3f ec 04 b1 bf
       -1.7234957 -0.36853448 0.5881453 -1.3829627
0001e0 74 cb 32 3f 5d 8c 19 be 0f 92 fc 3d 44 13 6a 3f
       0.69841695 -0.1499495 0.12332546 0.91435647
0001f0 c4 ed 1a 3f a6 cb 80 be ae 56 38 c0 28 e1 00 3c
       0.6051905 -0.2515537 -2.8802905 0.007866181
000200 25 7e 3f bc 24 13 2f 40 7d 09 cb 3e 19 90 3e 40
       -0.01168779 2.7355433 0.39655676 2.977545
000210 d8 3a 51 3e 6c cf d3 be 9d e7 c8 be 30 57 7a 3f
       0.20432603 -0.41369188 -0.39239207 0.9778929
000220 96 2c 80 3f 91 90 49 be d4 ba f3 be a9 38 db bc
       1.0013607 -0.19684054 -0.47603476 -0.026760416
000230 77 c6 89 3e f2 47 a2 c0 7a f8 9b bc 06 d1 a9 bd
       0.2690923 -5.0712824 -0.019039381 -0.08291821
000240 ae 0a 12 bf 9a 87 23 be ee f6 68 bf 9a 01 5b be
       -0.57047546 -0.15969697 -0.91001785 -0.2138733
000250 c9 50 5b 3f d9 75 a4 3f 83 d1 56 bd bf de 0c c0
       0.85670143 1.2848464 -0.0524459 -2.2010953
000260 c5 37 69 bc 74 9d 41 3e db 89 5b bf 28 43 b2 bb
       -0.014234488 0.1890772 -0.85757226 -0.0054401346
000270 6d 3a 73 c0 f5 3c 34 bd 76 47 e3 3d 89 47 63 40
       -3.800441 -0.044003446 0.110976145 3.5512412
000280 4c 9b 43 3f 64 e4 c2 3e 41 8c ae 3a cf 46 43 bf
       0.7640884 0.38064873 0.0013316945 -0.7627992
000290 db 93 c3 3e 39 c4 1c bd d2 57 66 be 52 a4 a7 3e
       0.38198742 -0.03827307 -0.22494438 0.32742554
0002a0 fc 67 e0 bc bc 96 c9 3e e4 20 41 3e 1c 81 c5 be
       -0.027393334 0.39372814 0.18860203 -0.38575065
0002b0 60 a7 94 3d 44 7e 58 3e 00 09 d3 3e 99 38 48 be
       0.07258487 0.21141917 0.41217804 -0.1955284
0002c0 4d a1 d7 3f 65 fa a7 3e 6f 22 2a 3e 2d 62 91 3e
       1.68461 0.32808223 0.16614698 0.28395215
0002d0 3c 29 52 be b1 1d 6f 40 e0 a2 04 bc 83 05 48 be
       -0.20523542 3.7361872 -0.008095473 -0.19533353
0002e0 09 a4 33 c0 6d 7b 49 bd 91 64 07 3f be 41 79 3c
       -2.806887 -0.049189974 0.5288783 0.015213428
0002f0 2e d0 61 3f ff c1 78 3f 5c 0c b8 3e 08 3c 50 3d
       0.8820828 0.97171015 0.3594693 0.0508385
000300 da 69 04 be d0 4c e8 bd d0 a3 87 3d d9 88 45 bd
       -0.12931004 -0.11342776 0.06623042 -0.04822621
000310 53 b5 60 3e 91 1f e6 bc df b5 ad 3d 11 ff b3 bf
       0.2194417 -0.028091224 0.08481955 -1.4062215
000320 92 bf d8 3e ac 1f 2d bf 3c d4 c0 bc 26 07 49 3e
       0.42333657 -0.6762645 -0.023538701 0.19631633
000330 47 e7 0e c0 7c 2b b4 3d 1d d1 24 c0 07 da e0 3b
       -2.232866 0.087973565 -2.5752633 0.0068619284
000340 c7 82 e3 3e 0e 6c 13 40 97 c9 0d 3e 04 be 8f 3f
       0.44435713 2.3034701 0.13846432 1.1229863
000350 91 4d 48 be 1c 9d 30 3f 40 d8 b1 3f 32 e0 56 3e
       -0.19560839 0.6898973 1.3894119 0.20983961
000360 88 7d 9c c0 82 d5 9c bc b1 ca f9 bd e6 bc fb bf
       -4.8903236 -0.019144777 -0.121968634 -1.9667022
000370 79 c4 90 3e 4c 0d 63 3e 52 a7 80 bd 13 72 ca be
       0.28274897 0.22173041 -0.06281914 -0.39540157
000380 d7 27 20 3f cd 8d 82 bd b4 a5 ec bf 51 fe 04 be
       0.6256079 -0.063747026 -1.8488069 -0.12987639
000390 bb b9 e3 3d cc aa 20 40 c6 34 8a bd 96 2d ed 3e
       0.1111941 2.5104246 -0.06748347 0.46323842
0003a0 dc 96 06 3e a1 a3 f3 bd 88 8d 07 be 88 01 1b 3f
       0.13143486 -0.11896444 -0.13237584 0.6054921
0003b0 33 6f c3 3f 07 32 94 3c c2 b3 99 3e 40 40 8b 3f
       1.526831 0.018090261 0.30019957 1.0878983
0003c0 26 56 c0 3c 0a a3 2b 40 27 fd 6a 3d ca 35 83 3d
       0.023478579 2.681826 0.05737033 0.06406744
0003d0 4c 08 4c c0 60 ae 4f 3c b8 ed 48 3d 8c 3d 27 3e
       -3.1880064 0.012675852 0.04905483 0.16332072
0003e0 aa 50 9c 3e d8 61 c3 3e f8 d3 70 3e 65 28 b2 3e
       0.30530292 0.38160586 0.2351836 0.34796444
0003f0 51 9a 1a be 17 e5 20 be f8 df 1e be 9f 96 88 3e
       -0.1509793 -0.15712391 -0.15515125 0.26677415

critic.0.bias f4 [64]
000000 35 06 56 be 85 e5 26 3d 32 5a 8c bc 6c 51 1b bf
       -0.20900805 0.04074623 -0.017132852 -0.60671115
000010 e5 69 de be 32 e3 d2 3d 6a c5 0c 3e 2f 61 dd be
       -0.43440166 0.1029724 0.13747182 -0.43238208
000020 6a a0 5d 3e 49 f8 89 bc aa 93 d3 3a b2 3f 45 be
       0.21643224 -0.016842024 0.001614203 -0.19262579
000030 10 b8 cc bc 74 ca 05 bf 8d f6 72 be d4 6d ed 3c
       -0.024990112 -0.52262044 -0.23726864 0.028983034
000040 b8 41 9f bb d6 bf 0c 3d 34 20 97 3e aa 53 d3 be
       -0.004860129 0.034362637 0.29516757 -0.41274768
000050 5c 0f 6d bc 91 d2 3e be 7d 9e cb be 68 b5 92 be
       -0.014468994 -0.18635012 -0.39769354 -0.28654027
000060 e5 e7 e6 3c 3a 68 23 bd ba 33 8b be 47 da 03 be
       0.028186748 -0.03989432 -0.27187902 -0.12876235
000070 23 8b d5 3d c0 90 03 be bb b3 38 3e 71 a8 11 3e
       0.10426929 -0.12848186 0.18037312 0.14224412
000080 74 01 2e ba 6a 32 e1 be 13 19 a9 be 8a 43 e3 be
       -0.000663779 -0.43983775 -0.33026943 -0.44387466
000090 f1 1c 21 be fe 80 9a be ed 82 a6 be 72 36 f3 bd
       -0.15733697 -0.30176538 -0.32521763 -0.11875619
0000a0 c5 bf 8a 3e e6 d3 89 3e 8a 83 4f 3e a3 af 3b 3d
       0.27099434 0.26919478 0.20265022 0.045821797
0000b0 2c ed ac be 3a 09 82 3b 2d c0 cd be 62 1a 7c 3d
       -0.33774698 0.003968385 -0.4018568 0.061548598
0000c0 4f 91 d3 3d d0 58 c7 be 9c e5 92 be 3e 4d 2d 3d
       0.1033045 -0.38934946 -0.28690803 0.042309992
0000d0 fa c3 f3 be 7d 70 c5 be 1f 5b 31 bc e5 b7 20 3e
       -0.47610456 -0.38562384 -0.010824948 0.1569515
0000e0 2e f0 81 3d b3 d4 4b 3c 41 a0 5c 3e c2 7f 01 3e
       0.06344639 0.012440848 0.21545507 0.12646392
0000f0 2c be 23 be a3 b6 b2 bb 33 84 d3 3d 01 3c e1 be
       -0.15990514 -0.005453901 0.103279494 -0.43991092

critic.2.weight f4 [64, 64]
000000 38 83 4b bd 2e 8e 99 3d 72 36 af 3d c0 49 11 bd
       -0.049685687 0.07497822 0.085553065 -0.035470724
000010 10 be 69 3d 99 fa 07 be 59 5c 10 3d 7a a0 99 3d
       0.057066023 -0.13279189 0.03524432 0.075013116
000020 23 8a 9e 3d 40 78 dc bb 9e 5d d8 bd 7e 15 d2 bd
       0.07741191 -0.006728202 -0.10564731 -0.102580056
000030 78 87 ee bd ac 48 bd 3d 65 19 90 bd 15 eb 14 3d
       -0.11646932 0.09242377 -0.070360936 0.036357004
000040 78 33 49 bd a8 ce 2f 3d e8 9d b7 3b 0c 68 30 bd
       -0.04912135 0.042921692 0.0056035407 -0.043067977
000050 8c f0 db 3d de 08 1e 3c 96 fc a4 bd 50 4a 0e 3c
       0.1073924 0.009645669 -0.080559894 0.00868471
000060 2a 32 a7 bd 7e ca ed bd ac d6 d9 3d 20 55 f2 bd
       -0.08163865 -0.11610888 0.106366485 -0.118326426
000070 35 9c 38 3d d2 e7 b4 3d d5 4f bc 3d d0 25 aa bd
       0.045070846 0.08833279 0.09194914 -0.083079934
000080 3b da 75 3d 12 4f b0 bd 20 d7 17 3c 8f f0 b9 bd
       0.060022574 -0.086088315 0.009267598 -0.09079086
000090 82 eb e6 bd e4 53 3a 3d d4 24 e9 bd 92 a4 0e be
       -0.11275388 0.04549016 -0.113839775 -0.13929966
0000a0 a6 56 d1 bd 71 90 88 bd 77 f9 07 be 60 18 b6 bc
       -0.10221605 -0.06668175 -0.13278757 -0.02222842
0000b0 00 ca 63 3a 06 f9 1e bc 92 2b ed bd c7 3b d4 3d
       0.0008689463 -0.0097029265 -0.11580576 0.10362964
0000c0 a0 9b 02 be 14 4d 70 3d 08 7c d2 3c c9 2f b8 bd
       -0.12754679 0.058667257 0.025693908 -0.08993489
0000d0 48 05 82 bc ed be b8 bd 94 c5 90 bd 33 bd ab 3d
       -0.015871659 -0.09020791 -0.07068935 0.08385696
0000e0 59 02 88 3d 6a 4b d9 3d 04 94 93 3d ec 04 07 bd
       0.06641073 0.10610087 0.07205966 -0.03296368
0000f0 6f 46 f4 bd cb 14 2d bd 70 a5 b7 3c c8 b6 b5 3d
       -0.11927497 -0.042256158 0.022417754 0.088727534
000100 60 9c 44 bc 78 50 53 bd f4 dc b3 3d 92 77 fb 3c
       -0.012000173 -0.051590413 0.08782378 0.030696664
000110 a9 d4 17 bd 58 78 09 be 08 59 e8 bd 95 2f 49 be
       -0.037068043 -0.13424814 -0.11345106 -0.19647057
000120 18 7a dc bd 31 87 fb 3c c0 00 2c 3c f7 af c0 bd
       -0.10765475 0.030704113 0.010498226 -0.09408563
000130 04 e5 4a bd c6 ea 8b bd 30 2e 34 bd 68 47 d4 bd
       -0.049534813 -0.06831889 -0.04398936 -0.10365182
000140 3a 0a c2 3d 55 3c ca bc 83 52 34 3d e2 8f 8a bd
       0.09474607 -0.024686972 0.044024 -0.06765725
000150 64 f4 e8 3d 5d 25 09 3d 6a 3c 93 3d c4 e2 af bd
       0.11374739 0.033482898 0.071892574 -0.08588174
000160 35 1e a7 bd 1a 02 81 bd 06 00 68 bd 60 47 cc bd
       -0.081600584 -0.06299229 -0.056640647 -0.09974551
000170 bb 6a 25 3d 20 1c d7 bc 28 40 42 3d 0b de af 3d
       0.04038499 -0.026258528 0.047424465 0.08587273
000180 31 a6 32 3d 14 44 19 3d 48 22 72 bd 1b 8a 0e be
       0.043615524 0.03741844 -0.059114724 -0.1391987
000190 e7 11 5c 3d e0 bc 35 bd cc ea d7 3d fe 75 1d be
       0.05372801 -0.04436958 0.10542831 -0.15377042
0001a0 bc d8 ab bd 49 14 45 3d f3 62 93 3c 11 11 ab bc
       -0.08390948 0.04811505 0.017991519 -0.020882161
0001b0 bb 31 0f 3d 77 0b 62 3d a0 55 90 3c e2 41 99 bd
       0.034959536 0.055186715 0.017618954 -0.07483269
0001c0 48 e7 23 ba c0 65 7f 3d 2c 37 de bd 8b ff 89 3d
       -0.000625242 0.062352896 -0.10850367 0.06738194
0001d0 94 68 b9 3c 6c dd 98 bc a0 87 7b 3c 7d e9 d4 bd
       0.022632875 -0.01866027 0.01535216 -0.10396097
0001e0 20 12 03 be f4 9c 1a bd a8 6a 4d 3d 98 7f fa bd
       -0.12799883 -0.03774734 0.050150543 -0.12231368
0001f0 c8 92 8d 3d 29 af 61 3d 0b a0 92 bd 78 d8 c4 bc
       0.06912762 0.055098686 -0.07159432 -0.024029002
000200 9e 53 c9 bd 76 14 04 3d 94 04 93 bd 24 c6 30 3b
       -0.09830402 0.032246076 -0.071786076 0.002697357
000210 57 2e 64 bd 36 ca 3c bd c2 ec ac 3c 39 e3 e0 bd
       -0.055708256 -0.04609128 0.021108989 -0.10980839
000220 33 af 66 bd 97 aa 06 be ee 41 90 bd 56 1d 0c be
       -0.056319427 -0.13151012 -0.07043825 -0.13683066
000230 92 25 bb bd 54 eb 80 bd 18 6e f3 bd eb b5 ae bd
       -0.09138025 -0.06294885 -0.11886233 -0.08530792
000240 c6 7d 37 bd 43 2d e3 bd b3 74 5a bd 00 d4 85 3a
       -0.04479768 -0.11092617 -0.05333395 0.0010210276
000250 4f b2 1c bd 3c c5 08 be d4 3f 69 bd 68 31 d0 bc
       -0.038255986 -0.13356489 -0.056945637 -0.025414184
000260 c6 93 aa bd a5 dc 5f bc b5 2f 8f bd 5b 0c 96 be
       -0.08328967 -0.013663446 -0.06991521 -0.293063
000270 4b 81 4b be 16 2b ea 3c 9c 28 fb 3c c1 01 9a 3c
       -0.1987354 0.028584998 0.030659012 0.018799664
000280 9b 2c a3 3d d8 6d b2 bc fe 7e a3 3d b3 c6 91 bd
       0.07967492 -0.021780893 0.07983206 -0.07117977
000290 8e 41 89 3c b0 b0 07 be c0 84 3d 3c f3 81 4b be
       0.016754892 -0.13250995 0.011567295 -0.1987379
0002a0 53 78 63 be be bc 3b be 81 73 77 be 4b 0c e8 bb
       -0.22213869 -0.18333718 -0.24165155 -0.0070815436
0002b0 36 cf 97 bd 2e a1 1f be c4 16 0d 3d da c5 3a be
       -0.07412569 -0.15588829 0.03444554 -0.18239537
0002c0 5b 4c d4 bd a8 d8 d9 bc 80 15 fb ba fd 97 2b be
       -0.10366126 -0.026592568 -0.0019156188 -0.16757198
0002d0 4d ae 44 be 67 49 48 bd d0 a0 48 be e5 23 9b bc
       -0.19207115 -0.048898127 -0.19592595 -0.018938014
0002e0 c9 2b 5c be e7 2b 96 be 20 60 0e be d3 c1 1c be
       -0.21501078 -0.2933037 -0.13903856 -0.15308313
0002f0 d0 6b 54 3d 9e f4 ef bd 4f 3e 19 be ae d4 f8 3d
       0.05186063 -0.11716579 -0.14965175 0.121499404
000300 7d 9a 6e 3d c5 97 8c bd 98 6d 06 bd 3c 02 ed 3d
       0.0582528 -0.06864885 -0.03281936 0.11572692
000310 41 76 12 be c0 7d eb bd 9d 11 91 3d e4 fe e6 bd
       -0.14302923 -0.11498594 0.070834376 -0.11279085
000320 c4 80 05 3d d1 15 5e 3c 19 f1 bd bc 0e 49 32 3d
       0.032593504 0.013555006 -0.023186253 0.0435267
000330 f0 1d 9e 3d 34 8c 4d 3d 3d 6a ff bd 0a 0e 44 3c
       0.07720554 0.050182536 -0.12471435 0.011966238
000340 63 51 84 bd 41 9d ce bd 7d 29 b6 bd f2 c8 8d bd
       -0.06460836 -0.100885876 -0.08894632 -0.06923093
000350 c6 dc 93 3d fe 6d cd 3d 4c 87 75 3d 73 5f 9c 3d
       0.072198436 0.10030745 0.059943482 0.07635393
000360 12 d2 a1 bd 08 28 cf 3d 9a eb b3 bd ed 3a ba 3b
       -0.07901396 0.10115057 -0.08785172 0.005683294
000370 a7 5f 81 bd 4b a6 14 3d b2 97 58 bc 8a 71 6d bd
       -0.06317072 0.0362914 -0.013219761 -0.057969607
000380 08 60 84 3d a0 26 ec 3d d0 7c 1d 3d 52 48 d5 bd
       0.06463629 0.11530805 0.03844911 -0.10414185
000390 65 da b1 bd f8 87 54 3d 60 2d 83 bd 07 2d b4 bd
       -0.086842336 0.051887482 -0.06405139 -0.08797651
0003a0 2b 2a 98 3d 8a 5b 04 3d 06 d9 a2 bd 75 4f 1d bd
       0.07429918 0.03231386 -0.0795155 -0.038405854
0003b0 75 c9 84 3d d4 38 bb 3d ca c6 cc bd e1 3f 0e be
       0.064837374 0.091416985 -0.099988535 -0.13891555
0003c0 cb fc 1d 3d b0 4f e6 bd 80 0c 67 3c 10 ab 0e be
       0.03857116 -0.11245668 0.014102101 -0.13932443
0003d0 4b 94 29 3a e4 b1 64 3d 93 75 d1 3c 0a a3 24 bd
       0.0006468936 0.055833712 0.02556876 -0.04019455
0003e0 c3 7e a1 3d 70 5f e1 bc e0 ac a1 3c 6d fa 0b be
       0.07885506 -0.027511328 0.019735754 -0.13669749
0003f0 24 69 3f bd 50 6e 46 bd 4b ab c6 3d 52 09 a6 bd
       -0.04673113 -0.048445046 0.0970064 -0.081072465

critic.2.bias f4 [64]
000000 64 89 1f bd 2c f7 72 bc 27 cd 39 3d 31 d8 dc bd
       -0.038949385 -0.014829438 0.045361664 -0.10783423
000010 f9 cd 07 3e 88 56 53 bc c7 0e 96 3c 94 4b ac bd
       0.13262166 -0.012899049 0.018317593 -0.08412853
000020 4e 06 2b bd 96 cd 5a 3c fb d6 bf bc 8b b9 82 3d
       -0.04175406 0.01335468 -0.02341794 0.06383046
000030 39 36 0f bd 6c 53 dc 3d ed d7 05 bc cc 68 76 bc
       -0.03496382 0.10758099 -0.0081691565 -0.015039634
000040 88 e1 a5 bd 7d f5 96 bc 66 c0 e1 bd c8 b3 a8 bd
       -0.08099657 -0.018427605 -0.11023025 -0.082374156
000050 0a 09 9b bd d5 6b f3 3d b5 99 0f be f9 05 9c bd
       -0.075700834 0.11885802 -0.14023478 -0.07618327
000060 a7 e2 28 3d f7 f2 66 bd 05 c4 06 3e ca ba 13 bd
       0.041231778 -0.056384053 0.13160713 -0.036066808
000070 45 01 79 3e 66 cd 5d bd e8 51 b5 bc f5 c9 cd bd
       0.2431689 -0.05415096 -0.022133783 -0.10048286
000080 99 fe e1 bd 03 28 35 3e e4 b0 32 3e a9 7d 62 3e
       -0.11034889 0.17691045 0.17450291 0.22118248
000090 9c 27 39 bd 08 b2 03 3c a8 be 47 3e dd b0 94 bd
       -0.04520379 0.008038051 0.19506323 -0.072602965
0000a0 93 c9 e1 3d cc f3 4e be 2f 35 53 3c d1 c6 4a bc
       0.11024775 -0.20210189 0.012891098 -0.012376503
0000b0 63 aa 43 3d 9b cc b2 3d d4 6c b1 bd 7b 35 b4 bd
       0.047769915 0.08730432 -0.086633354 -0.08799263
0000c0 30 f3 a3 bd 29 2e 1e be 8d 2f 22 be c2 86 80 3d
       -0.08005369 -0.15447296 -0.15838452 0.06275703
0000d0 96 a6 f0 bd 24 63 25 bd 92 50 2b bd b6 f6 57 3e
       -0.11750524 -0.04037775 -0.041824885 0.21090207
0000e0 71 99 87 bd 67 5e e3 bd 86 72 0c bd 81 55 36 3d
       -0.066210635 -0.1110199 -0.034288906 0.044515137
0000f0 d7 b5 01 be a4 d9 53 be 6e 53 b9 bd 34 1f ca bc
       -0.12667023 -0.20688492 -0.09049116 -0.024673082

critic.4.weight f4 [1, 64]
000000 77 71 68 bd f6 02 9d bd 75 41 5a bd 5b 49 8d bc
       -0.056748834 -0.076665804 -0.05328508 -0.017246893
000010 f2 16 fa 3e 59 65 3a bd df 4d 0d 40 a7 52 d8 3f
       0.4884563 -0.04550681 2.2078779 1.6900223
000020 f6 5c a3 3d 7b 7d 44 bd aa 5a 8c bd 31 ea 55 40
       0.07976715 -0.04797123 -0.0685323 3.342419
000030 2a 4e 04 bf 5b ff ac 3f ef 22 9e bd 94 b9 30 3f
       -0.5168177 1.3515428 -0.07721507 0.6903317
000040 9b f6 a9 bf 75 2c c1 ba ce 8a 88 bd 6f a5 6a 40
       -1.3278383 -0.0014737981 -0.066671 3.6663473
000050 64 a4 72 bc ff c6 d0 3f 06 8e 8f bd ef 08 38 bd
       -0.014809702 1.6310729 -0.07009511 -0.044930395
000060 62 71 4a 40 88 9c 73 3f a4 b9 63 40 05 3f 3c 40
       3.1631703 0.9516072 3.5582056 2.9413464
000070 88 60 40 bf c2 a8 39 40 2b cb d7 bd d1 46 d0 bc
       -0.75147295 2.9009252 -0.10536798 -0.025424393
000080 cf 9c 6b c0 5e 11 d7 bf 9f 76 50 c0 26 2a 1d bf
       -3.6814458 -1.6802175 -3.25724 -0.6139244
000090 d4 18 9f bd ce 10 8f 40 e6 2b 32 bf a7 29 45 bd
       -0.077684075 4.4708014 -0.69598234 -0.048135426
0000a0 55 31 21 40 99 55 43 c0 92 33 b8 bd e8 7c 76 bd
       2.518636 -3.0520995 -0.08994211 -0.060177714
0000b0 ca 28 a0 3f 03 9f 2d 40 13 19 95 3d c7 e9 79 bc
       1.2512448 2.7128303 0.07280173 -0.015253491
0000c0 a9 4a f6 3f 8a 46 e0 bd 86 8d 1d 40 7d ae f4 3f
       1.9241534 -0.10950954 2.461763 1.911575
0000d0 b7 de 86 3c cd a8 53 3f 52 13 64 40 d8 f9 32 bf
       0.01646362 0.82679445 3.5636792 -0.6991248
0000e0 82 d7 6f 3f 14 2e 69 bc c1 4a 99 3f cd 3d 81 3f
       0.93688214 -0.014232177 1.1975938 1.0096985
0000f0 76 2f 01 bb 37 e0 35 c0 40 64 42 bd a3 a3 68 40
       -0.0019712127 -2.84181 -0.047458887 3.6349876
