preTrained/MountainCarContinuous-h-v1/3level/HAC_MountainCarContinuous-h-v1_level_2_crtic.pth (torch_old, 19781 bytes, 5 tensors)

critic.0.weight f4 [64, 6]
0	0x3f479d4d	0.77974397
1	0x3e63cca1	0.22246028
2	0xbe8d58db	-0.27606854
3	0xbff64b32	-1.9241698
4	0x3f02d884	0.51111627
5	0x3f4bd76f	0.796256
6	0xbdc06fe7	-0.09396344
7	0xbf249fbb	-0.6430623
8	0x3ed9d118	0.42542338
9	0x405de1da	3.46691
10	0xbe111039	-0.14166345
11	0xbdd04b0a	-0.101705626
12	0x3f7a53e8	0.9778428
13	0x3d4051cb	0.046953004
14	0xbdb86324	-0.090032846
15	0xbf0d8400	-0.5527954
16	0xbea87fa8	-0.32909894
17	0x3f0f743e	0.56036747
18	0xbbdcceba	-0.006738511
19	0x403db149	2.9639456
20	0x3c6d9d7e	0.014502881
21	0x402d2c75	2.7058384
22	0x3e0be0db	0.13659994
23	0x3fc00588	1.5001688
24	0x3f028564	0.5098479
25	0xc0040d5b	-2.0633152
26	0xbec20369	-0.37893227
27	0x3edbcb56	0.4292857
28	0xbea5b6d5	-0.32366052
29	0xbfe4cbc5	-1.7874686
30	0xbe3c2d99	-0.18376769
31	0xc05c0636	-3.437879
32	0x3ef8255d	0.48466006
33	0x3ed793be	0.42104906
34	0xbebf292c	-0.373361
35	0x40199cef	2.4002035
36	0x3f7233f2	0.9461051
37	0x3f42e0a0	0.76124
38	0xbe11d198	-0.1424011
39	0xbec73ab3	-0.3891197
40	0xbe14c4ad	-0.14528151
41	0xbf043ca0	-0.51655006
42	0x3e7459fd	0.23862453
43	0xbf020638	-0.5079074
44	0x3e547db2	0.20751074
45	0x3e3240ce	0.17407534
46	0xbee93af2	-0.45552784
47	0xbf049beb	-0.5180041
48	0x3ea70367	0.32619783
49	0xc0631a42	-3.5484776
50	0x3f28e4d8	0.6597419
51	0x3e021253	0.12702303
52	0x3f24b63b	0.6434056
53	0x3e8e2ff8	0.27770972
54	0x3e09f538	0.1347245
55	0x4021c82d	2.5278428
56	0xbdf489ee	-0.119403705
57	0xc07ef99a	-3.9839845
58	0xbe240372	-0.1601694
59	0x3f4c1629	0.79721314
60	0xbe8c39c4	-0.27387822
61	0x4029a597	2.6507318
62	0x3b6c820e	0.003608826
63	0xc0021476	-2.0324988
64	0x3edf69f6	0.4363553
65	0x3ed7be8c	0.42137563
66	0x3f825e42	1.0185015
67	0x3e0031b5	0.12518962
68	0x3e27fa2d	0.16404028
69	0xbe55b52c	-0.20869893
70	0xbe35c081	-0.17749216
71	0xbf1dbaa3	-0.6161291
72	0x3dc8e6b0	0.09809625
73	0x3eb70082	0.35742575
74	0xba315800	-0.0006765127
75	0x3e6d785c	0.23190445
76	0xbd88cebc	-0.066800565
77	0x3d8ab5c4	0.0677295
78	0x3edbad2d	0.4290556
79	0xbf0a3d04	-0.5399935
80	0xbf2fefdc	-0.6872537
81	0xc01730ff	-2.3623655
82	0xbbb55830	-0.0055341944
83	0x3f2cfd55	0.67574054
84	0x3e73e9bd	0.23819633
85	0xbd9fdf77	-0.078062944
86	0x3ccdc437	0.025117977
87	0x3f147a96	0.5799955
88	0x3f66888c	0.90052104
89	0x3fa0ae65	1.2553221
90	0x3da8f4e9	0.08249838
91	0x3f229e71	0.6352301
92	0xbe831a88	-0.2560618
93	0x3eefc9d0	0.46833658
94	0xbde423dc	-0.11139652
95	0x3ff454c4	1.9088368
96	0x3f254753	0.6456196
97	0x3fb2c1b8	1.3965368
98	0x3c8852e5	0.01664109
99	0x3fd0b9a5	1.6306654
100	0xbf0d5e13	-0.5522167
101	0x3e26c235	0.16285022
102	0x3ed4a0b9	0.41528872
103	0x4039cf84	2.9032907
104	0x3e72ab04	0.2369805
105	0xc0137070	-2.3037376
106	0x3d906f24	0.070524484
107	0x3f9c921e	1.2232091
108	0x3dce6e6a	0.100796536
109	0x3dbb41fc	0.09143445
110	0xbeb12fb0	-0.34606695
111	0x40375136	2.8643317
112	0x3e8a4d7b	0.27012238
113	0xbfeba1c8	-1.8408747
114	0x3d2a8ca0	0.041638017
115	0x3de648e8	0.112443745
116	0x3e4558f0	0.19272208
117	0x3e9062a6	0.28200263
118	0xbcfff600	-0.031245232
119	0xbec2a5a1	-0.3801699
120	0x3e496467	0.19667207
121	0x3e6bae4f	0.23015712
122	0xbd7f0a4e	-0.062265687
123	0x40141b32	2.3141599
124	0x3e497910	0.19675088
125	0xbedeb51b	-0.43497548
126	0xbe1e618e	-0.15466902
127	0xc077544b	-3.8645198
128	0xbf3df0b6	-0.7419542
129	0x3fabbe5f	1.3417472
130	0xbf44a764	-0.7681792
131	0xbf2d8c47	-0.6779217
132	0x3f1eefc8	0.6208463
133	0x3e5cc655	0.21560033
134	0xbea25d5b	-0.3171185
135	0xbfab7a28	-1.3396654
136	0x3f176337	0.59135765
137	0xbeed5178	-0.46351218
138	0x3d9d5061	0.07681347
139	0x3fe3017d	1.7734829
140	0xbe5ce9ac	-0.21573514
141	0xc08c6188	-4.3869057
142	0x3e4595e2	0.19295457
143	0x3ea66361	0.32497695
144	0x3d6d5e9b	0.05795155
145	0xbecc3304	-0.39882672
146	0xbe16c250	-0.14722562
147	0xbe9ada25	-0.30244556
148	0x3e3d83d1	0.18507315
149	0xbf8cc3b5	-1.0997225
150	0x3ec6cbb6	0.38827294
151	0xbfde8cfa	-1.7386773
152	0x3e83955f	0.256999
153	0x3f48dfc8	0.78466463
154	0xbbb44bdd	-0.0055022077
155	0x4020d1f6	2.512815
156	0x3da137a0	0.07871938
157	0x408b867d	4.360167
158	0x3f54402f	0.82910436
159	0xbd32cb07	-0.043650653
160	0xbf65cbe1	-0.8976422
161	0x3e6a8cfd	0.22905345
162	0x3d9c3de6	0.07628994
163	0x4045c250	3.089985
164	0x3ec98b01	0.39363864
165	0xc016cbec	-2.3561964
166	0x3e34c29b	0.17652361
167	0x3f6fa60a	0.9361273
168	0x3f6cf7d9	0.92565686
169	0xbf372147	-0.7153515
170	0xbe865122	-0.26233774
171	0x3ff595a6	1.9186294
172	0xbda2516f	-0.079256885
173	0x3f270b31	0.6525145
174	0x3c686bd3	0.014185864
175	0xbf2163f4	-0.6304314
176	0x3e9505d7	0.29106018
177	0xc032d00b	-2.793948
178	0xbe88b23e	-0.26698488
179	0x402bc191	2.6836894
180	0xbe21b20b	-0.15790574
181	0xbfbe395f	-1.4861258
182	0x3f3d37f0	0.7391348
183	0x3f3492eb	0.7053668
184	0xbf4e9980	-0.8070297
185	0x3f025189	0.5090566
186	0xbdcf115a	-0.101107314
187	0xc056238e	-3.34592
188	0x3e830bc8	0.25594926
189	0xbf2ccd20	-0.67500496
190	0x3e778a05	0.24173744
191	0xbe850f13	-0.25988063
192	0x3d73a435	0.059482772
193	0x40382878	2.87747
194	0xbe78129a	-0.24225846
195	0xc0565fd6	-3.3495994
196	0x3e89455c	0.2681073
197	0x3fde75bf	1.7379683
198	0xbe08b3f7	-0.13349901
199	0xc01ff0f6	-2.499082
200	0xbdc87e55	-0.09789721
201	0xc00ca945	-2.1978314
202	0x3e9e77f7	0.309509
203	0x3e79d0f5	0.24396117
204	0xbf05549f	-0.52082247
205	0xc02c7f7c	-2.695281
206	0xbd099bc0	-0.0335958
207	0xbd936742	-0.07197429
208	0xbe4fa4f6	-0.20277771
209	0x3daa8dee	0.08327852
210	0xbda3445b	-0.07972022
211	0x3d4c5415	0.049884874
212	0xbefd86bf	-0.49516866
213	0x401a6e8b	2.412997
214	0xbe680551	-0.22658278
215	0xbefd9b81	-0.49532703
216	0xbdc165a0	-0.094432116
217	0xbe759de5	-0.23986013
218	0x3e46d3a8	0.19416678
219	0x3e279d04	0.1636849
220	0xbd5664c0	-0.052342176
221	0xbed05f2e	-0.40697616
222	0xbc1d6bdc	-0.009608235
223	0xbf077926	-0.5291923
224	0x3f39433b	0.7236821
225	0xbfdfaa7b	-1.7473902
226	0xbf4515bc	-0.7698629
227	0x3edee033	0.43530425
228	0x3df4ae8c	0.11947355
229	0xbfc8b7f0	-1.5681133
230	0xbd082789	-0.03324083
231	0xbe151d17	-0.14561878
232	0x3f59bb33	0.8505127
233	0x3f88a54f	1.0675448
234	0x3c77c292	0.015122073
235	0x4001f79b	2.0307376
236	0x3f0e1797	0.55504745
237	0xbe3951ae	-0.18097565
238	0xbed5908e	-0.4171185
239	0x3dc4942a	0.095985726
240	0xbe2ab7ae	-0.1667163
241	0xbf7a968e	-0.9788598
242	0x3d88ec08	0.066856444
243	0x3fdc6127	1.7217149
244	0x3f826215	1.0186182
245	0x3f9c3b38	1.2205572
246	0x3da0f6d4	0.07859579
247	0x3e9625dd	0.29325762
248	0xbde006a4	-0.109387666
249	0xbec0e214	-0.37672484
250	0xbe23dbc3	-0.16001801
251	0xbcf942c9	-0.030427353
252	0x3df0579b	0.117354594
253	0xbe456a94	-0.19278938
254	0xbd23cccf	-0.039990243
255	0x3dfa6132	0.1222557

critic.0.bias f4 [64]
0	0xbda8fac1	-0.082509525
1	0xbc6c1e26	-0.014411485
2	0xbe7d4914	-0.24734908
3	0xbdd34edb	-0.10317775
4	0xbedd6e5b	-0.43248257
5	0xbd20b09b	-0.039230924
6	0x3f09249d	0.5357149
7	0xbe9740b2	-0.29541546
8	0xbc01ab48	-0.007914372
9	0x3e6e0aaa	0.23246256
10	0xbc31a16c	-0.010841709
11	0x3d2d3864	0.042290106
12	0xbe17ee50	-0.14837003
13	0xbe917b97	-0.28414604
14	0xbe532063	-0.20617823
15	0xbd061ab2	-0.032740302
16	0x3eb1a865	0.34698787
17	0x3e8bde3e	0.27317995
18	0x3d17b19f	0.037034627
19	0xbea7d007	-0.327759
20	0x3ab3cae8	0.0013717087
21	0xbe5e42f7	-0.21705233
22	0x3dc2ff42	0.09521343
23	0x3d385118	0.044999212
24	0x3cbd02b2	0.023072574
25	0x3e588cc7	0.21147452
26	0x3c95143b	0.018198123
27	0x3e30e1b9	0.17273606
28	0x3e2af9a3	0.16696791
29	0x3c89e496	0.016832631
30	0xbdbee346	-0.09320693
31	0xbda11e94	-0.078671604
32	0xbcf4a556	-0.029863995
33	0xbe027ec1	-0.12743665
34	0xbead2784	-0.3381921
35	0xbf18d9e5	-0.5970748
36	0xbe2a7fd1	-0.1665032
37	0xbbf91238	-0.007601049
38	0xbecb8492	-0.3974958
39	0x3e58958f	0.21150802
40	0xbf016a74	-0.5055306
41	0xbedefcba	-0.4355219
42	0xbed56a76	-0.41682786
43	0xbdd0d208	-0.1019631
44	0xbe8a8da7	-0.27061197
45	0x3e4420ac	0.19153088
46	0xbf1e18b4	-0.61756444
47	0x3dd232ce	0.102635965
48	0xbea64893	-0.32477245
49	0x3d367988	0.044549495
50	0x3e0f7171	0.14008118
51	0xbea41393	-0.32046184
52	0x3ef7a0f7	0.48364994
53	0xbe82a082	-0.25513083
54	0xbe8986bb	-0.26860604
55	0x3b50c4cc	0.0031855581
56	0xbd265066	-0.040604018
57	0xbd591fc5	-0.053008813
58	0x3d4cfe90	0.050047457
59	0xbe091490	-0.1338675
60	0x3db7499c	0.08949587
61	0x3e02f629	0.12789215
62	0xbcf6fead	-0.030150736
63	0xbe498c52	-0.19682434

critic.2.weight f4 [64, 64]
0	0xbdbbaf7a	-0.09164329
1	0x3e2e7df6	0.17040238
2	0xbd1c03f4	-0.038089707
3	0xbe20b3fc	-0.15693659
4	0x3f67703a	0.9040562
5	0x3ec8944c	0.39175642
6	0x3e9ff36c	0.31240404
7	0xbeeab32e	-0.45839828
8	0xbe31a978	-0.17349803
9	0xbe8910f4	-0.26770747
10	0xbdde829a	-0.10864754
11	0x3e863a71	0.26216462
12	0x3cb56428	0.022142485
13	0x3ec1b53e	0.3783359
14	0x3e9d573c	0.30730617
15	0x3e906690	0.2820325
16	0x3e94705b	0.2899197
17	0x3e221d18	0.15831411
18	0xbdc57596	-0.09641568
19	0xbd1b5450	-0.037922204
20	0x3f314819	0.6925064
21	0xbe832f03	-0.25621805
22	0xbef96681	-0.48711017
23	0xbf991b4b	-1.1961454
24	0x3d61c941	0.05512357
25	0x3dac4eb7	0.08413451
26	0x3f979866	1.1843383
27	0xbe4939ff	-0.1965103
28	0x3e8d6a95	0.27620378
29	0xbf4095bf	-0.75228494
30	0x3f54f7cf	0.83190626
31	0x3ee45b99	0.44601133
32	0xbfb3590d	-1.4011551
33	0x3ecb48d3	0.39703998
34	0xbd0fa660	-0.035070777
35	0x3da5f937	0.081041746
36	0x3ddf77dc	0.10911533
37	0x3f69b76a	0.9129549
38	0x3f451bef	0.7699575
39	0x3e7ae247	0.2450038
40	0x3eb910a1	0.361455
41	0xbc82f65d	-0.015986616
42	0xbc8064a0	-0.015672982
43	0x3e74107a	0.2383441
44	0xbfbf6b2f	-1.4954585
45	0xbddb7377	-0.107153825
46	0xbecc01e0	-0.3984518
47	0x3f466451	0.7749682
48	0xbd2169e2	-0.03940762
49	0xbc54a386	-0.01297844
50	0xbe5d1bf4	-0.21592695
51	0xbf9c681a	-1.2219269
52	0xbe266225	-0.16248377
53	0xbe1986ba	-0.149928
54	0x3e3065b7	0.17226301
55	0xbfd31d5d	-1.6493336
56	0x3dbfaf87	0.09359651
57	0x3f189f05	0.59617645
58	0x3defd566	0.117106244
59	0xbe27fb97	-0.16404568
60	0x3ef636ec	0.48088777
61	0xbf365971	-0.71230227
62	0x3e60b92f	0.21945642
63	0x3d6fb7b8	0.058524817
64	0xbf0336a0	-0.51255226
65	0x3d6bc579	0.05756137
66	0xbd517cf6	-0.051144563
67	0xbe6475af	-0.22310518
68	0xbe35245c	-0.17689651
69	0x3f1c7919	0.6112228
70	0xbf0fe1f2	-0.5620414
71	0xbdda6184	-0.10663131
72	0x3f79994c	0.9749954
73	0xbf3844eb	-0.7198016
74	0xbec252ec	-0.3795389
75	0xbf343f3e	-0.70409
76	0x3c490f40	0.012271702
77	0xbeda4a9e	-0.42635053
78	0x3e59968d	0.21248837
79	0xbdfda340	-0.12384653
80	0xbe5e1703	-0.21688466
81	0xbe697fe2	-0.2280269
82	0x3f961cf8	1.172759
83	0xbd93d128	-0.07217628
84	0x3e7b85f2	0.24562815
85	0xbec1fd90	-0.37888765
86	0x3df87e9a	0.12133522
87	0x3f225bdc	0.63421416
88	0xbdebd9cb	-0.1151615
89	0x3f8e0299	1.1094543
90	0xbf96c160	-1.1777763
91	0xbe3bf3f3	-0.18354778
92	0xbf2b03bd	-0.6680258
93	0x3f2feab0	0.6871748
94	0xbf99b6d0	-1.2008915
95	0x3ea79e76	0.32738084
96	0xbf33ce00	-0.70236206
97	0xbe9e88c6	-0.30963725
98	0xbf3dd598	-0.74154043
99	0xbcb9ab1a	-0.022664595
100	0xbdf74c94	-0.12075153
101	0xbfc58531	-1.5431272
102	0x3ef6313b	0.48084435
103	0xbd12c343	-0.035830747
104	0x3e47bfae	0.19506714
105	0x3dae0d14	0.08498588
106	0x3e0faeb4	0.14031488
107	0xbe95a665	-0.2922851
108	0xbd951542	-0.07279445
109	0xbe19ff80	-0.15038872
110	0x3edc0687	0.4297373
111	0x3f4be7b2	0.79650414
112	0xbf0954a2	-0.53644764
113	0xbee5a6bd	-0.44853774
114	0xbe5d7c45	-0.21629436
115	0x4006190b	2.0952785
116	0xbe306747	-0.17226897
117	0xbe0e0feb	-0.1387326
118	0xbf808fc6	-1.0043876
119	0x4032cc37	2.7937143
120	0xbd6d1aae	-0.05788677
121	0xbefdec4c	-0.49594343
122	0x3ea8bb8c	0.32955587
123	0xbf478903	-0.7794344
124	0x3e89eafe	0.26937097
125	0xbeeae6a0	-0.45879078
126	0x3e2f1c60	0.17100668
127	0x3ced4f38	0.028968439
128	0xbefc5044	-0.49279988
129	0xbf93b904	-1.1540837
130	0xbd879835	-0.06620828
131	0xbf1aa991	-0.6041499
132	0x3c8603d8	0.016359255
133	0xbf25f623	-0.648287
134	0xbfa80fa3	-1.3129772
135	0xbdb159a0	-0.08659673
136	0x4012fac5	2.2965558
137	0xc0270e2e	-2.6102405
138	0x3cc02800	0.023456573
139	0xbdb0bd60	-0.086298704
140	0x3dec0642	0.11524631
141	0xbf3a64cd	-0.7281006
142	0x3ead38b3	0.3383232
143	0xbd68b588	-0.056813747
144	0xbf757264	-0.9587767
145	0xbcb80ab1	-0.022466036
146	0xbe7fe500	-0.249897
147	0x3d14bf78	0.03631541
148	0xbf7159c2	-0.94277585
149	0xbed70cca	-0.42001945
150	0xbf133a5d	-0.5751093
151	0xbf7d3a8f	-0.9891748
152	0x3ea9c957	0.33161423
153	0x3fb984ed	1.4493691
154	0xbf015a0f	-0.50528044
155	0xbe53538a	-0.20637336
156	0xbf40dc28	-0.7533593
157	0x3eaeb26b	0.34120497
158	0x3efc01d0	0.49220133
159	0x3edddae2	0.43331057
160	0x3e652406	0.22377023
161	0x3f3b8098	0.73243093
162	0xbeaf49a2	-0.34235865
163	0xbf303233	-0.688266
164	0x3ca56b40	0.020192742
165	0x3daf1d7e	0.08550547
166	0x3efca51d	0.4934472
167	0xbd522fab	-0.05131499
168	0x3f1fdb61	0.6244412
169	0xbd9b21d2	-0.0757481
170	0xbdd8bdca	-0.105830744
171	0x3c2a927e	0.010410903
172	0x3e578ea5	0.21050508
173	0x3ea865cf	0.32890174
174	0x3dc2930c	0.09500703
175	0xbf1d1a4f	-0.6136827
176	0xbfc23e40	-1.5175247
177	0x3e883552	0.2660318
178	0xbec0de17	-0.3766944
179	0x404dbdb2	3.214703
180	0xbe23f4be	-0.1601133
181	0x3c5ab664	0.013349149
182	0xbf28fb88	-0.66008806
183	0x3fe4edb9	1.7885047
184	0xbda17d3c	-0.07885215
185	0xbeb162a5	-0.34645572
186	0xbeef7ea5	-0.4677631
187	0xbd7d190d	-0.06179147
188	0x3eed4b0c	0.4634632
189	0x3eb87f9c	0.36034858
190	0xbfb955b5	-1.4479281
191	0xbd238808	-0.03992465
192	0xbda2ab1a	-0.07942791
193	0xbe0c0205	-0.13672645
194	0xbc062490	-0.008187428
195	0x3cc85e91	0.024459155
196	0x3dcff1da	0.101535514
197	0x3d7a3638	0.061086863
198	0xbdda1663	-0.10648801
199	0x3dc6b2e2	0.09702088
200	0xbdc7f871	-0.09764183
201	0x3d8805fb	0.06641766
202	0xbd9d6d4a	-0.07686861
203	0x3ceaed00	0.028677464
204	0xbd864868	-0.06556779
205	0xbd3a899e	-0.0455414
206	0x3d814fe2	0.063140646
207	0x3da586ec	0.08082375
208	0xbe154ca7	-0.14580022
209	0xbc8a9880	-0.01691842
210	0xbe0b4920	-0.13602114
211	0xbdeb0850	-0.11476195
212	0x3dc15975	0.09440891
213	0xbc7d9e10	-0.01547958
214	0x3d08edb9	0.033429835
215	0xbc617ae0	-0.013762206
216	0xbd6fc057	-0.05853304
217	0x3d9e0872	0.077164546
218	0xba19f300	-0.00058726966
219	0xbc2dc6d9	-0.010606491
220	0x3c4bcf42	0.012439551
221	0x3db3fac2	0.08788063
222	0x3a164000	0.00057315826
223	0xbde359b0	-0.11101091
224	0x3d69f3c0	0.057117224
225	0x3d637ac9	0.05553702
226	0xbdeb32c3	-0.114842914
227	0x3d3dc16a	0.046327032
228	0x3dde3464	0.108498365
229	0x3daf4cf8	0.085596025
230	0xbd6938a2	-0.056938775
231	0xbe074e78	-0.13213527
232	0xbe180bd3	-0.1484826
233	0x3dbb5358	0.09146756
234	0x3c58cda0	0.013232619
235	0x3d726da2	0.059186585
236	0xbd622c01	-0.055217747
237	0xbe07747f	-0.13228033
238	0x3c14e7a0	0.009088427
239	0x3d2c9eb0	0.042143524
240	0xbd3f5fe3	-0.046722304
241	0xbe193dfc	-0.14965051
242	0x3cf72cf3	0.0301728
243	0xbde539b4	-0.111926466
244	0x3d6d12d1	0.057879273
245	0xbd079234	-0.033098415
246	0xbddc1b3d	-0.10747383
247	0xbd71faec	-0.05907719
248	0xbdd47364	-0.103735715
249	0x3cd599b8	0.026074275
250	0xbd9e6cce	-0.077355966
251	0xbdf04ed5	-0.11733786
252	0xbda8bc3e	-0.08239029
253	0xbd861e44	-0.065487415
254	0xbb16c480	-0.0023005307
255	0x3ddaf55a	0.10691328

critic.2.bias f4 [64]
0	0x3db70ae5	0.08937625
1	0x3df305b0	0.11866319
2	0xbe49de27	-0.1971365
3	0xbe09754f	-0.13423656
4	0x3d0a62fb	0.0337858
5	0x3e4b94f4	0.1988104
6	0x3e990322	0.29885203
7	0xbe0a387c	-0.1349811
8	0x3d505672	0.05086369
9	0xbdf239af	-0.118274085
10	0x3d2ea8fb	0.04264162
11	0x3e3e27b0	0.18569827
12	0xbd63af6e	-0.055587225
13	0x3e3b3650	0.18282437
14	0x3e26f32c	0.163037
15	0x3db1d1e7	0.08682614
16	0x3e37bf7e	0.17944142
17	0xbdab8f8a	-0.08376987
18	0x3c594565	0.013261174
19	0x3d706bb9	0.058696482
20	0x3d2c9ad1	0.042139832
21	0x3e5b4410	0.21412683
22	0x3cb19ba4	0.02168066
23	0xbe59f39e	-0.21284339
24	0x3c8a251b	0.016863396
25	0x3d8a4f8b	0.06753453
26	0x3e19faf3	0.15037136
27	0xbd3f514e	-0.046708398
28	0xbe221155	-0.15826924
29	0x3e6f441a	0.23365822
30	0x3d490dc5	0.049085397
31	0x3de5f97d	0.11229227
32	0xbe0b20e1	-0.13586761
33	0xbd8f878d	-0.07008276
34	0xbd0f22d5	-0.034945328
35	0xbdacf27b	-0.08444687
36	0x3b5a3d83	0.0033300824
37	0x3e6d65f2	0.2318342
38	0xbd890d7c	-0.06692025
39	0x3d410eb3	0.04713316
40	0x3d53f087	0.051743057
41	0xbe9c42cf	-0.3051972
42	0xbe1a45af	-0.15065645
43	0x3dee2f74	0.11630145
44	0xbccb7175	-0.024834374
45	0x3dffb350	0.12485373
46	0x3ca1bdff	0.019743918
47	0x3e28909e	0.16461417
48	0x3d6e9df1	0.058256093
49	0x3d560782	0.052253254
50	0x3e0d1fa2	0.13781598
51	0x3b93f0ba	0.004514781
52	0xbc7a5969	-0.015280106
53	0x3b80c1a9	0.003929336
54	0xbe7724ba	-0.24135104
55	0x3dd66b4e	0.104696855
56	0xbde9af20	-0.114103556
57	0xbd86de5b	-0.0658538
58	0xbd996817	-0.07490557
59	0x3e08f32c	0.13374013
60	0xbdf8f5da	-0.121562675
61	0xbd8cb9bb	-0.06871363
62	0x3e0bfe50	0.13671231
63	0x3d60b84d	0.054863263

critic.4.weight f4 [1, 64]
0	0xbf1c1b48	-0.6097913
1	0x40393d9b	2.894385
2	0x405d5c5b	3.458762
3	0xbbe815a6	-0.007082659
4	0x3ff1ce46	1.8891075
5	0xbe96d7e8	-0.29461598
6	0xbfd034e7	-1.6266145
7	0x3d8cfae3	0.0688379
8	0x401640ee	2.347713
9	0xbc3db67f	-0.011579155
10	0x3fa540d8	1.2910414
11	0xbf5eca59	-0.8702751
12	0x3b71ac33	0.003687632
13	0x3f2b7571	0.66976076
14	0xbf0687f5	-0.52551204
15	0x406aa11d	3.6660836
16	0x3f749a03	0.95547503
17	0x3e856f9f	0.26061723
18	0xbde0ec7b	-0.10982605
19	0x3ef0c3b0	0.47024298
20	0xbc8318de	-0.016003069
21	0xbdf9468f	-0.12171661
22	0xbed14f49	-0.40880802
23	0xbcc55de8	-0.02409263
24	0x3fbe7dd5	1.4882151
25	0x3e3dde22	0.18541768
26	0x40bf6d60	5.9821014
27	0x3f9b6076	1.2138813
28	0xbc55a8e6	-0.013040757
29	0xbf1a12db	-0.6018502
30	0xbf91515c	-1.1352954
31	0x3fdfa026	1.7470748
32	0x3f830b2c	1.0237784
33	0xbfaad0fc	-1.3345027
34	0xbd6cafa4	-0.05778469
35	0x4042b3a3	3.0422142
36	0x3ef1e97d	0.4724845
37	0x401c3025	2.4404385
38	0x3ca10164	0.019653983
39	0x4014fd37	2.327955
40	0xbd6fd5fa	-0.058553673
41	0xbfac0179	-1.343795
42	0xbdebfcb6	-0.1152281
43	0x3f778b0f	0.9669656
44	0xbd1a199b	-0.037622076
45	0x40bf436b	5.9769797
46	0x404cd69b	3.2005985
47	0x40a3c8ba	5.1182528
48	0x40409562	3.0091176
49	0x3ffa863f	1.9572219
50	0x4087ea3f	4.2473445
51	0x3e93c54c	0.28861463
52	0xba04b42b	-0.00050622475
53	0x40396c9f	2.8972547
54	0x40273d20	2.6131058
55	0xbea2f336	-0.3182618
56	0xbd581a83	-0.05275966
57	0x3ce10320	0.02746731
58	0xbd804729	-0.06263573
59	0xbf369d43	-0.7133371
60	0x3f1ed733	0.6204712
61	0xbe14294d	-0.1446888
62	0x3f39a701	0.7252045
63	0xbf4ac923	-0.7921316
