preTrained/MountainCarContinuous-h-v1/3level/HAC_MountainCarContinuous-h-v1_level_1_crtic.pth (torch_old, 19781 bytes, 5 tensors)

critic.0.weight f4 [64, 6]
000000 bf 7c de 3e cb 07 65 be a8 7b dc 3c da e4 51 bf
       0.4345455 -0.22366254 0.026914433 -0.81989825
000010 0a a3 df be 57 9d 0f 3f 9e 4b f8 3d 49 d5 f1 be
       -0.43679076 0.56099457 0.12123798 -0.47233036
000020 b8 eb 9a bb ac 9f 96 3f 3f a7 d9 3c f7 e2 52 40
       -0.004727807 1.1767478 0.026569007 3.2951028
000030 a1 d5 6f 3f 43 72 c7 3e c3 fe 01 3f a9 46 e3 3c
       0.93685347 0.38954362 0.5077936 0.027743654
000040 4a 9f 3b 3f a8 40 b9 b9 ae b9 cb be 7b 57 9c 3f
       0.7328993 -0.00035334122 -0.397901 1.2214197
000050 71 01 02 bf f1 f2 7c 3f b4 b9 71 3f 78 ca a4 3e
       -0.5078345 0.988082 0.94423985 0.3218572
000060 49 fe a6 bd 5b 68 ec bf 1f 75 15 be af 72 02 c0
       -0.0815397 -1.8469347 -0.1459546 -2.0382497
000070 c9 ab 59 3e b7 1b 2f c0 f0 e3 51 be ac 2c 67 be
       0.21256937 -2.7360666 -0.20497108 -0.22575635
000080 c5 25 07 3e 19 96 14 c0 66 10 8e bb 54 a6 01 40
       0.13198002 -2.3216612 -0.004335451 2.0257769
000090 64 69 9e 3e 99 31 36 3f 37 d1 8c 3e aa 90 70 3e
       0.30939782 0.7116943 0.27503368 0.23492685
0000a0 23 9b 49 be b6 29 2d bf f7 64 dd 3e 85 52 eb 3d
       -0.19688086 -0.6764177 0.43241093 0.11490349
0000b0 b8 68 80 3e 1c 95 52 3f c0 c1 2f bf 8b ef 8c 3f
       0.25079894 0.8225877 -0.68655014 1.1010603
0000c0 46 d8 33 3d 91 a9 a6 3f 88 a9 98 3e e3 2e 42 3f
       0.043907426 1.3020498 0.29816842 0.75852793
0000d0 54 bd aa 3d 56 56 06 bf 1e 9d 86 3e d1 3c 5f bf
       0.08336893 -0.5247549 0.26291746 -0.87202173
0000e0 2c b2 17 bf 14 66 c9 bf 6a ec 29 3f 35 bd e4 be
       -0.59256244 -1.5734277 0.66376364 -0.44675604
0000f0 a1 e6 6f 3d 79 b6 a8 3d 44 a0 a1 3e 5f 46 81 3d
       0.058569554 0.08237929 0.31567585 0.0631225
000100 66 5b db be 65 25 6c 3f 8b c2 63 3e 7d bd fb bf
       -0.4284317 0.9224456 0.22242181 -1.9667202
000110 b4 22 5f 3e bd d1 54 be 82 ca ea bd ec ca e1 3f
       0.21790582 -0.20783134 -0.114644065 1.7640052
000120 41 b9 9b be a6 c9 a2 bf 72 bb fe 3e 01 77 b2 3e
       -0.30414775 -1.2717788 0.49752384 0.34856418
000130 97 42 b0 3e 53 a8 0d bf c6 6c ed 3e 0f 1f 20 40
       0.34425804 -0.5533497 0.4637205 2.5018957
000140 6d 1c 13 bf 42 55 39 3f 80 17 43 be 92 f4 b5 bf
       -0.5746525 0.7239572 -0.19051933 -1.4215262
000150 52 bb 35 3e ed 64 95 3f 39 2a 53 3d dc 2b 8d be
       0.17747238 1.1671425 0.05155394 -0.27572525
000160 4e e8 9b be 2a 84 81 3f 74 c0 13 3e 50 6b 13 3e
       -0.30450672 1.0118458 0.14428884 0.14396405
000170 10 9c 49 3e 18 87 46 3d 60 9c 81 bd 50 c5 d3 3c
       0.1968844 0.04846868 -0.06328654 0.025850922
000180 34 81 46 be b8 07 ca 3f 34 22 c1 3d a0 f8 b2 bf
       -0.19385225 1.5783606 0.09430352 -1.3982124
000190 9c 25 f6 3d 7d 80 ce bf cc 83 3e be 6f 34 dc 3d
       0.12018892 -1.6132962 -0.18604964 0.107521884
0001a0 2f ac 23 3f 38 12 a8 3e d8 6b 13 3e 5e 5c 64 be
       0.63934606 0.328264 0.14396608 -0.2230086
0001b0 c8 99 43 be 1c 39 9b bf 4d 2c e6 be aa ae 4a be
       -0.19101632 -1.2126803 -0.44955674 -0.19793192
0001c0 55 00 9b bd d4 44 7c 3f dd af 46 3c 48 80 70 3d
       -0.07568423 0.98542523 0.01212689 0.05871609
0001d0 e2 00 22 3f 08 90 8c bf 1e 20 26 bf 07 3a 8b 3f
       0.632826 -1.0981455 -0.64892757 1.0877084
0001e0 80 d9 46 bc ef c4 cb be f2 0a b9 3e 88 af c4 3d
       -0.012136817 -0.39798686 0.36141163 0.096037924
0001f0 f0 0d a4 3c 2d a6 79 be d0 b4 8f 3e bc e8 a3 bf
       0.020026177 -0.24379797 0.28067636 -1.28054
000200 bf 01 5f be 33 a1 8d bf 1e 2e 01 bf 49 87 89 3f
       -0.2177801 -1.1064819 -0.50460994 1.0744411
000210 5f 13 15 bf b3 be bf bf 2b 7f 05 3f e8 b1 2c 39
       -0.5823268 -1.4980072 0.5214717 0.00016469473
000220 47 87 14 3d a8 6b 9f 3f cc a8 b5 bc bd 66 72 bf
       0.036261823 1.2454729 -0.022175215 -0.94688016
000230 14 7a 27 bf f4 a1 13 3e 0d 96 32 3f d9 e9 0f 3f
       -0.6542065 0.14417249 0.6976021 0.562162
000240 8b 48 0e bf da 51 8d 3f 5c dd 20 3f 87 b3 bb bf
       -0.5557944 1.1040604 0.6283777 -1.4664162
000250 de 36 9b 3d cd b4 c0 be 99 53 c5 3c da a7 ab 3e
       0.075788245 -0.3763794 0.024087714 0.33526498
000260 e3 a0 9f 3e cf fa 59 3f 22 ff b9 be 4b d4 e4 3f
       0.31177434 0.8514833 -0.36327463 1.7877287
000270 bc 97 33 bc c9 ec 90 be 92 16 37 3e 2c 61 de bf
       -0.010961469 -0.28305653 0.17879704 -1.7373405
000280 5c 6f b0 3e d1 b4 a3 3f 79 18 4c be a6 3e 8d 3e
       0.3445996 1.2789556 -0.1993121 0.2758686
000290 4e fa 96 3e ea 09 24 c0 a8 9c be bd 6f 39 ee 3f
       0.29487842 -2.563105 -0.093072236 1.8611277
0002a0 22 19 ee 3e 4c 7f ca 3f 44 ab 13 bf 34 c3 ac be
       0.4650355 1.5820098 -0.57683206 -0.33742678
0002b0 d5 10 b6 3d 28 25 d2 bf 10 a0 97 3e 7d 9c 09 3f
       0.08889929 -1.6417589 0.29614305 0.5375441
0002c0 75 a2 c5 3e 9b 3e 9e 3f 07 a9 20 bf 80 e2 a0 3f
       0.38600507 1.2362856 -0.62757915 1.2569122
0002d0 bc 97 51 be 0a f1 e9 3f dd 14 29 3e 36 f4 46 bf
       -0.20468038 1.8276684 0.16511865 -0.77716386
0002e0 41 b9 44 3e 4f bd 9e bf 2a f5 bb be 11 2a 64 3d
       0.19211294 -1.2401522 -0.36710483 0.05570418
0002f0 e2 75 41 3e 23 22 8b bf 5c 67 cd be b9 37 23 bf
       0.18892625 -1.0869793 -0.4011792 -0.637569
000300 74 c6 0f 3e fd 92 d8 bf fd d7 b1 be 92 b0 ca be
       0.14040548 -1.6919857 -0.34735098 -0.39587837
000310 54 56 d1 3e 58 56 c0 bf 48 48 49 3e 7e 7a d3 bf
       0.40886176 -1.502635 0.1965648 -1.6521757
000320 34 31 02 bf f5 d3 4f 3c 3c 70 f4 3e a4 3c 43 bf
       -0.5085633 0.012684812 0.47741878 -0.76264405
000330 e6 7f 58 3e b3 6b b4 bf f4 e8 b5 3e 77 de 2e bf
       0.2114254 -1.4095367 0.35529292 -0.68308204
000340 df 53 09 bf 50 69 d6 bf b3 47 1e 3e d2 11 04 3f
       -0.536436 -1.6750889 0.15457039 0.5158969
000350 2d af ba bd db fa 8d be 39 31 fe 3e 52 25 ca 3f
       -0.091154434 -0.2773045 0.4964693 1.5792639
000360 f4 78 27 3e 20 48 75 be ee 09 ba be 6f 8f 1e 40
       0.16354734 -0.23953295 -0.363357 2.4775045
000370 4b 6d af 3e 0d b9 55 c0 58 07 f1 3c a3 17 c3 3e
       0.3426307 -3.3394196 0.029422447 0.3810397
000380 66 e5 22 3f 8b c4 7d be d5 1e 2c bf 74 b8 37 3b
       0.63631284 -0.24782006 -0.67234546 0.0028033527
000390 6b bc 13 bf ef 82 50 bf 33 9a d4 be c0 00 a6 bd
       -0.5770938 -0.8144979 -0.41523895 -0.08105612
0003a0 80 7a 7d 3f 56 15 f6 bf b8 28 59 3e e0 46 d3 3c
       0.99015045 -1.9225261 0.21206939 0.025790632
0003b0 4a 5d 75 be 74 95 60 3e 80 f2 24 3c ca bc 03 be
       -0.23961368 0.21932012 0.010067582 -0.12864986
0003c0 95 32 23 bf 1b 2d 72 3e 46 73 2a 3e ac a6 dd bd
       -0.6374906 0.23650019 0.16645536 -0.10822806
0003d0 c9 ce 89 3e 27 f0 a2 be 52 e4 7d be ec 77 9c bf
       0.26915577 -0.31823847 -0.24794129 -1.2224097
0003e0 9d da f9 bd d6 47 8e be 10 e8 b1 be 4a 4a ca bf
       -0.121999 -0.2778918 -0.34747362 -1.5803921
0003f0 de a2 d7 be 69 15 95 3f 5d e6 a1 3e 77 51 9a bd
       -0.42116445 1.1647159 0.31621066 -0.075350694

critic.0.bias f4 [64]
000000 d1 97 ac be e7 b7 5b bb ba 0e 55 be db aa 92 bc
       -0.33709577 -0.0033526362 -0.20806399 -0.017903736
000010 7a f4 4a 3c 32 61 8f 3d 1f 99 51 3e c0 0a 83 3b
       0.012387389 0.070009604 0.20468567 0.0039990842
000020 1c 14 c2 3e 89 63 26 be a4 8c d6 3c fe da 83 3e
       0.37905967 -0.16248907 0.02619011 0.25753015
000030 ad cb 13 3d 73 8d 3a be 52 6e d2 be 43 e3 a6 be
       0.036082912 -0.18218021 -0.41099793 -0.32595262
000040 06 b9 b8 3d 1d 26 ce bd 7c 39 a3 be 66 18 92 ba
       0.090196654 -0.10065863 -0.31879795 -0.0011146187
000050 f2 62 88 be 86 c0 95 be 38 84 7a be 02 bf 46 3c
       -0.2663799 -0.29248446 -0.244645 0.012130501
000060 a6 b8 5d 3e 4a 51 d7 be 16 7a 81 3e 0f 17 57 bb
       0.21652469 -0.42054206 0.25288457 -0.003282014
000070 96 29 8e 3c c6 12 22 3e da a8 2e 3e 7b af bc be
       0.017353814 0.15827474 0.170566 -0.3685263
000080 14 3d 03 3c df 8c 47 3e f4 ff b3 3c bc 7d 3f 3e
       0.008010168 0.19487332 0.021972634 0.18700308
000090 a7 10 3c 3e 30 63 4f bb 0d 8e 1a bc d4 4f be be
       0.18365727 -0.0031644814 -0.009433282 -0.3717028
0000a0 39 15 f0 bd a0 0d a2 be 1f c0 0d 3d 63 13 06 be
       -0.11722798 -0.3165102 0.03460705 -0.13093333
0000b0 9f 12 ab 3b a5 ea c2 3a a6 e3 bf be 92 7e eb bd
       0.0052207257 0.0014870955 -0.3747837 -0.11498751
0000c0 f6 5e 55 bb 3e 68 44 3e 18 2c 60 3c ef 16 d6 3b
       -0.0032557822 0.1918039 0.013682388 0.0065334956
0000d0 7c 29 09 3e 37 d8 e2 be 9c ac 13 3e 4e ac 08 3e
       0.13394731 -0.44305584 0.14421314 0.13346979
0000e0 25 f5 ef 3c 59 c7 b9 be cd fa f8 3e 4d fe fc bd
       0.029291699 -0.36284903 0.48628846 -0.123531915
0000f0 ee ce 24 be 99 6f 0c 3e 3a 50 d7 be c8 61 c1 bd
       -0.16094562 0.13714446 -0.42053396 -0.094424784

critic.2.weight f4 [64, 64]
000000 20 56 f7 bc e1 ab 3a 3c 70 1b a2 3d b6 7b aa 3d
       -0.030192435 0.011393518 0.079153895 0.08324377
000010 83 a9 92 bc 0c d6 46 3d e2 d5 cb 3c 80 af be ba
       -0.017903095 0.048543975 0.02488226 -0.0014548153
000020 87 c9 9a 3b 4d 20 3c 3d bd b6 e1 bd f2 e2 65 3d
       0.004723731 0.045929242 -0.11021183 0.056124635
000030 bb b7 a3 bd e8 9b e6 3c b8 58 cd bc 74 25 07 bd
       -0.07994028 0.028150514 -0.025066718 -0.032994702
000040 e7 75 04 be 24 3e d4 bd 55 bf 22 be 70 fd ca 3d
       -0.12935601 -0.10363415 -0.158933 0.099116206
000050 64 d6 de 3d 68 96 5c 3d 4c 3f 67 3d 3f d4 1c be
       0.108807355 0.053854376 0.05645685 -0.1531534
000060 ab 1c 14 3d e0 3b 6d 3c 00 cf 1c be 88 50 df 3c
       0.036160152 0.014479607 -0.15313339 0.02726008
000070 24 5e 96 bc 7d 56 3b bd 5a ed af 3d 1c 1f 8d bd
       -0.018355437 -0.04573678 0.08590193 -0.06890699
000080 ce 3c c5 3c cb 5a 9c 3d 78 03 a0 bd da a8 05 be
       0.024076845 0.07634505 -0.078131616 -0.13052693
000090 7b f3 01 3d 70 77 04 bd d0 27 1e bb 84 3a 7d bd
       0.03172634 -0.032340467 -0.0024132617 -0.061823383
0000a0 57 63 f5 bc 98 d6 83 bc 48 f5 9f 3d 49 64 7e 3b
       -0.029954595 -0.016093537 0.078104556 0.0038817099
0000b0 33 f4 23 bd 20 32 16 be 96 32 fc bd 98 e5 0a be
       -0.04002781 -0.14667559 -0.12314336 -0.13564146
0000c0 80 b0 68 3d 76 a2 d5 bd c6 e6 98 bd 27 26 69 bd
       0.05680895 -0.104313776 -0.074658915 -0.05692115
0000d0 8a 03 92 3d a0 ac 84 3c 32 83 a2 3a 3a 53 c3 bc
       0.07129581 0.016195595 0.0012398718 -0.023843396
0000e0 34 65 2e 3d c0 0f 25 3c 16 2c a9 3d 52 93 43 bd
       0.042576984 0.010074556 0.08260362 -0.047747917
0000f0 00 af d0 bb 7e be 28 bd fc 63 79 3d 9c ce 80 3d
       -0.006368518 -0.041197293 0.06088637 0.062894076
000100 e8 d0 44 bd fa c7 86 bd 80 0a 39 3b 86 56 6c bc
       -0.04805079 -0.06581111 0.0028235018 -0.014424926
000110 2f 3b 8e bd d4 67 fa bd 16 0e 0c bd 68 f0 c2 bc
       -0.06944882 -0.12226835 -0.03419312 -0.023796275
000120 6c 8a c5 3d e2 3c e2 bd 40 c7 fc bd ce d9 ce bd
       0.096455425 -0.11046769 -0.123426914 -0.10100137
000130 9c 71 ef bd 33 01 6d 3d 20 a8 5e bc bc 9c e5 bd
       -0.11691591 0.05786247 -0.013589889 -0.11211535
000140 e2 82 b8 3d 0c bf 8a 3d 45 89 99 bc 84 20 9f bd
       0.09009339 0.067747205 -0.018742213 -0.07769874
000150 a6 24 c3 bd c7 90 2e bd e0 ac ce bc 44 c7 b1 3d
       -0.095284745 -0.04261854 -0.025228918 0.08680585
000160 01 b8 9c 3a 72 34 d8 bd 80 1c 80 bc 8e 03 f5 3d
       0.0011956693 -0.10556878 -0.01563859 0.11963569
000170 1f 44 91 bd 5a 0b b5 bd f2 bd ea bd a0 ce 85 3d
       -0.07093071 -0.08840056 -0.114620104 0.06533551
000180 da 44 30 bd 11 87 00 bd e4 c4 0d bd 26 41 51 bd
       -0.043034412 -0.03137881 -0.034611598 -0.05108752
000190 b8 fb ba bd 10 72 2f 3c f1 02 09 bd 00 2e e3 39
       -0.09130043 0.010708347 -0.03345007 0.00043331087
0001a0 c7 e5 fc bd a0 aa 11 bd 3b 57 1e be 1e c8 86 bd
       -0.12348514 -0.03556311 -0.15462963 -0.06581138
0001b0 45 09 59 3d a8 c2 f1 bc e8 21 23 3d 65 cd 27 bc
       0.052987356 -0.029511765 0.039827257 -0.010241841
0001c0 74 88 93 bd d0 1c ee bd d1 19 b3 bd 3e ce 5a 3d
       -0.07203761 -0.11626589 -0.087451585 0.053419344
0001d0 2e 4b 7d bd f2 61 ed bd 4e bc a4 bd 60 18 c8 3c
       -0.061839275 -0.11590947 -0.08043729 0.024425685
0001e0 b4 04 44 3d 1b 14 a9 3d 87 4d b0 bc 90 e5 a0 3d
       0.047856048 0.08255788 -0.021521343 0.078562856
0001f0 30 97 ee 3c 33 7d 3d 3d 20 f3 7d bd a0 4d f6 bd
       0.029124826 0.046261977 -0.06199944 -0.120265245
000200 20 8a 34 bf 6f d2 8e bc 6c aa 33 be 72 9e 04 bf
       -0.7052326 -0.017434327 -0.1754548 -0.5180427
000210 8b fe a3 3b 0f e8 0a 3e 0a 1c 79 be 2e 52 87 3f
       0.005004709 0.13565086 -0.24327102 1.0571954
000220 20 40 e1 bd 8a 2c f7 3f 64 74 02 be a0 fd d3 be
       -0.10998559 1.9310467 -0.12739712 -0.41404438
000230 95 df 05 3c 2b de 1a 40 37 50 05 3f 76 18 b6 3d
       0.008170982 2.41981 0.52075523 0.08891384
000240 14 87 cf 3e db 06 75 3e af 5d 35 be 49 a2 b0 3f
       0.40532744 0.23928396 -0.17711519 1.3799525
000250 e2 84 cf bd 70 96 dd be ae 13 93 3f 32 08 b1 3e
       -0.10132767 -0.43278837 1.1490381 0.34576565
000260 c5 46 b9 3d 8e db 8c 3f de 06 9c 3e 71 26 33 40
       0.09046701 1.1004503 0.3047399 2.7992213
000270 fc 1f d0 3f 4d d4 f7 be ed 86 6c 3e 86 3c 7d 3e
       1.6259761 -0.4840416 0.23098345 0.24730119
000280 b9 cd 7e 3f f2 92 62 3e a1 1b f8 bf d2 2e 1b 3d
       0.9953266 0.22126368 -1.9383432 0.03788645
000290 bc 28 7f 3e bd a0 10 3f 72 96 9f 3e 1a 37 d3 bd
       0.24917883 0.5649527 0.31169468 -0.10313244
0002a0 aa c7 1d 3d 4e b3 0a 3d e6 cf 17 3e 0f 51 d0 3c
       0.038520493 0.033862405 0.148254 0.025429277
0002b0 06 c7 f4 bc c1 84 b4 3e 10 1c f4 3c 54 2a 3e be
       -0.029880058 0.35257533 0.029798537 -0.18570834
0002c0 ad 12 14 3f ad 9a 8a be f3 c7 2b bd 03 ec 39 be
       0.57840997 -0.27071133 -0.041938733 -0.18156438
0002d0 55 2e 0e bf ad 15 c9 3d cf dd 77 3e 40 ea 4e 3e
       -0.5553945 0.098185875 0.24205707 0.20206547
0002e0 c5 05 3c 3e 4d ef 27 bf a3 c3 0e bd 23 95 df be
       0.18361576 -0.6559952 -0.034854542 -0.4366847
0002f0 1e 60 21 bc 8f a8 2c 3f 32 f2 fd 3c 16 c7 d1 3e
       -0.009849576 0.674447 0.030999277 0.40972203
000300 3a 82 c8 bd 06 3d ae 3d c0 c0 02 be c7 a8 63 3d
       -0.09790464 0.08507733 -0.12768841 0.05558088
000310 0a 32 c9 3c c6 d6 7c bb 73 13 b4 3d 00 9b f3 bd
       0.024559993 -0.0038580163 0.08792772 -0.11894798
000320 f8 ab 98 3d ea 7c 80 3d cb 68 39 3d b2 89 c0 bd
       0.074546754 0.062738255 0.045265954 -0.09401263
000330 3d 2f f2 bd c0 9d 2b bb 7a 99 fa 3d bc 77 61 bd
       -0.11825416 -0.0026186556 0.122363046 -0.05504583
000340 00 29 b8 bd 33 f5 85 3d eb 93 b9 bc ec 86 b2 3d
       -0.08992195 0.06540909 -0.02265354 0.087171406
000350 58 9d 98 bd 80 74 47 3d 08 35 8b 3c c3 17 b8 3d
       -0.07451886 0.048695087 0.01699306 0.08988907
000360 d5 f6 47 bd d2 e7 85 3d bf 2d 43 3d d6 87 ac bd
       -0.04881938 0.06538357 0.04765105 -0.08424346
000370 df 61 85 bd 5e 82 bf bc 36 07 1a bd be 65 d2 bd
       -0.06512808 -0.023377594 -0.037604533 -0.10273312
000380 87 10 96 bc ed 2f 51 bd 4b 33 62 3c 9e 74 61 3d
       -0.018318428 -0.051071096 0.0138061745 0.055042855
000390 2a 90 de bd 51 12 85 bd f3 d3 02 bc 70 ad 04 bc
       -0.10867341 -0.06497634 -0.007985103 -0.008097991
0003a0 66 65 cf 3d 8c f2 96 bd b2 cd bd 3d fd 4a 9d 3d
       0.10126762 -0.07370481 0.09267749 0.076803185
0003b0 65 4a 20 bc 3f db 04 be 08 08 00 3d b2 74 87 bc
       -0.009783362 -0.12974261 0.03125766 -0.016535137
0003c0 4b 54 cb bd 3c e3 0e 3d 93 7b 5d bc 1a 09 0a be
       -0.09928187 0.034884676 -0.013518232 -0.13480034
0003d0 f1 88 b4 bd fa 97 a6 3d 4b b2 04 be 84 2f 8a bd
       -0.08815182 0.08134456 -0.12958638 -0.06747344
0003e0 53 d1 9b bc e6 99 c2 3d c3 d1 84 3d 0a d7 92 bd
       -0.019020712 0.0950201 0.064853214 -0.07169922
0003f0 80 1e dd 3a ba 2a 56 bb e8 ca c5 3c 60 3d 37 bc
       0.0016870052 -0.0032679276 0.024144605 -0.0111840665

critic.2.bias f4 [64]
000000 76 47 cd bd 66 f1 f1 bc 50 f3 a9 bd bf 04 ad bd
       -0.10023396 -0.029534053 -0.08298361 -0.08448171
000010 d8 4b c8 3c 56 4a b3 bd b2 a6 ec bd f2 fd 0b bb
       0.024450228 -0.08754413 -0.11555232 -0.002136108
000020 de 38 9e bd 77 d0 8b bd 8f b7 89 3d 68 2a a5 be
       -0.0772569 -0.06826871 0.06724464 -0.32258916
000030 55 0f 01 be df 9a be bd 05 ea d8 3d 59 cb 44 3e
       -0.12603505 -0.09306883 0.10591511 0.19218196
000040 2f 1d bf 3d 53 5d a0 3d c7 79 d0 3c ce 2d a2 bd
       0.09331738 0.078303 0.025448693 -0.07918893
000050 d8 b6 37 bc 0d 9d 18 bd b4 5e 3b bd cb f5 2e 3d
       -0.011213027 -0.03725915 -0.045744613 0.042714875
000060 f1 a3 1c 3d 03 b9 4c bd a0 2e 03 bd 03 8d 95 3c
       0.038242284 -0.04998113 -0.032026887 0.018255716
000070 bd 3a 17 bd 31 ae 90 3e e0 42 4e bd 3c ac 6c bd
       -0.03692125 0.28257897 -0.050356746 -0.057781443
000080 99 ed 81 3d d0 ff c9 ba 8d 69 37 bd 21 be c0 bd
       0.06344146 -0.0015411321 -0.044778395 -0.09411264
000090 e2 d4 10 3e 7e 83 ab bd 94 03 a7 3c cf 72 84 3d
       0.14143708 -0.083746895 0.020387448 0.064672105
0000a0 e8 11 60 bd 04 3e a7 bc 76 33 fd bd 5d b1 c3 bc
       -0.054704577 -0.020415314 -0.12363331 -0.023888284
0000b0 d8 fb 5b 3d 31 2b 90 3d 92 55 d2 bd c1 60 0b be
       0.053706974 0.07039488 -0.102702275 -0.13611127
0000c0 4d 0f 95 3c 85 98 4e 3d 9b 62 e4 3d 9a 34 a7 be
       0.018195773 0.050438423 0.1115162 -0.3265732
0000d0 23 b0 06 3e 8d 55 a6 bd ca a2 9a be 6c 4f 08 be
       0.13153128 -0.08121786 -0.30202323 -0.13311547
0000e0 85 06 03 bc 05 0b 97 bd 67 8e 57 3d 3c 58 96 bd
       -0.00799716 -0.07375149 0.05262604 -0.07341048
0000f0 d8 c5 9e bd a0 e0 7d 3d e0 b6 32 3d ce a6 c1 bd
       -0.077525795 0.061981797 0.043631434 -0.094556436

critic.4.weight f4 [1, 64]
000000 71 19 d3 bd 9f 0e e3 3c 71 13 ab 3f 66 99 86 3c
       -0.10307587 0.027716933 1.3365308 0.016430568
000010 86 4a ba 3f 5d e0 23 3f c8 52 95 bd 1e 8b 5a bd
       1.4553993 0.64014226 -0.0729118 -0.05335533
000020 93 df 1e bd 13 38 08 bd 4b a2 c9 3f 32 9d 8a 3e
       -0.038787436 -0.0332566 1.5752653 0.27073056
000030 8c d7 c0 bc d5 97 9b bf e8 0e fd 3f 14 c8 c5 c0
       -0.02354028 -1.215571 1.9770174 -6.1806736
000040 2a e7 c7 3f 3b 44 40 bd 77 0f d5 bf 62 0c e2 bd
       1.5617421 -0.04694007 -1.6645344 -0.11037518
000050 e7 5e df bf d4 79 84 3f eb be 8e 3f 66 71 5a bc
       -1.7450837 1.0349679 1.1152014 -0.0133327
000060 12 da e6 be c7 80 c4 bc f9 ff 9e bd 35 5e 6b bd
       -0.4508825 -0.023987187 -0.07763667 -0.05746289
000070 7b 25 99 40 83 35 f2 be e4 23 11 bd 9e 5b b6 3e
       4.7858253 -0.4730645 -0.03543462 0.35616773
000080 12 93 41 3f 77 cc 05 c0 0f 50 26 40 1f 4a 9b bc
       0.75615036 -2.0906045 2.5986364 -0.018956242
000090 10 4a bd be 6d 39 82 bd 84 b5 c8 bd 80 6c 57 bf
       -0.36970568 -0.06358609 -0.09800246 -0.8414993
0000a0 66 52 9b 3f 58 35 b3 40 e6 b3 a1 3f 9f 0c 35 bf
       1.2134521 5.6002617 1.2633026 -0.70722383
0000b0 63 1b 5e bc 4d 86 fc 3f d6 d6 98 3f aa d3 87 3b
       -0.013556334 1.9728485 1.1940563 0.0041451054
0000c0 f5 c4 19 3f 9a 84 c9 3f fd 64 b4 be 94 f7 d3 bf
       0.6006616 1.5743592 -0.35233298 -1.655993
0000d0 e4 34 46 3f 8b 41 ba 40 a2 d3 a3 bf 85 82 8e bf
       0.77424455 5.820501 -1.279896 -1.1133581
0000e0 28 99 02 bc a7 28 dd 3f 81 70 06 bd a5 5f 07 bc
       -0.007971086 1.7278031 -0.032822136 -0.0082625495
0000f0 d3 8c f3 3a b2 13 a4 40 78 cc c0 c0 0e 33 18 bf
       0.0018581398 5.127404 -6.0249596 -0.59452903
