preTrained/Pendulum-h-v1/2level/HAC_Pendulum-h-v1_level_0_crtic.pth (torch_old, 20095 bytes, 5 tensors)

critic.0.weight f4 [64, 7]
0	0xbe750f99	-0.23931731
1	0x3ed87784	0.42278683
2	0x3ec5ceda	0.38634378
3	0x3dc222fd	0.0947933
4	0xbe10d640	-0.1414423
5	0xbdf7e175	-0.121035494
6	0xbeec8347	-0.46193907
7	0x3f2eac8a	0.68232024
8	0xbe546209	-0.20740522
9	0xbe1e202d	-0.15441962
10	0xbe81393e	-0.25238985
11	0x3ef254cb	0.47330317
12	0x3e352a0f	0.17691825
13	0x3de19fa0	0.11016774
14	0x3d917f33	0.071043395
15	0xbe99ed9f	-0.30064103
16	0xbe801ec7	-0.2502348
17	0xbe8d9c06	-0.276581
18	0x3e2ea518	0.17055166
19	0x3d6feea9	0.058577213
20	0x3d8f3450	0.069924
21	0xbe97bf43	-0.2963811
22	0x3dc15738	0.09440464
23	0x3dc5f8aa	0.096665695
24	0xbe35a10f	-0.1773722
25	0xbef7f5e7	-0.48429796
26	0xbeab0a8e	-0.3340649
27	0xbeb2831a	-0.34865648
28	0x3ebe885e	0.37213415
29	0x3e6798a0	0.22616816
30	0x3e194ad8	0.14969957
31	0x3e38aaa5	0.18033846
32	0x3e24776f	0.16061185
33	0xbee66c01	-0.45004275
34	0x3d115d9c	0.035489663
35	0x3d97f169	0.07419092
36	0x3d622d6e	0.055219106
37	0x3eaa7336	0.33291024
38	0xbdf67b0a	-0.120351866
39	0xbe0debb3	-0.13859443
40	0xbc458bf2	-0.012057291
41	0xbeb65ad1	-0.35616162
42	0xbe361062	-0.17779687
43	0xbea50e86	-0.32237643
44	0x3e11ebca	0.14250103
45	0x3e8c2614	0.273728
46	0xbdc6e4fc	-0.09711644
47	0xbd8a7aea	-0.06761725
48	0x3e435f8a	0.19079414
49	0x3dd7130b	0.10501679
50	0x3eacab57	0.33724472
51	0x3e270ae6	0.16312751
52	0x3dcae30f	0.09906589
53	0xbec6b3b9	-0.38808993
54	0x3e8326ea	0.25615627
55	0x3eb64967	0.35602877
56	0x3dd9ee95	0.10641209
57	0x3d0ad188	0.03389123
58	0xbda3fd5d	-0.080073096
59	0xbe7bbf39	-0.24584664
60	0xbdc68c1c	-0.096946925
61	0xbe049d79	-0.12950696
62	0xbe597e65	-0.21239622
63	0x3e804692	0.2505384
64	0x3ebce894	0.36896193
65	0xbe519e1a	-0.20470467
66	0xbd3f1377	-0.046649422
67	0x3e8271f9	0.2547758
68	0x3f0435a3	0.51644343
69	0xbd95af5a	-0.07308836
70	0x3d130c85	0.03590061
71	0xbe5c0b90	-0.21488786
72	0x3eb6b1f5	0.35682645
73	0xbe888cfe	-0.26670069
74	0x3de9719c	0.113986224
75	0xbea352f2	-0.3189922
76	0xbebb2d38	-0.36557937
77	0x3ea38f95	0.31945482
78	0xbeb83707	-0.35979483
79	0xbe4c277f	-0.19936942
80	0xbe649f6b	-0.22326438
81	0xbe2b9d82	-0.16759303
82	0xba69a43d	-0.0008912718
83	0x3e6d0dad	0.23149748
84	0xbf01876f	-0.5059728
85	0xbeb9d941	-0.36298564
86	0xbe2e6c50	-0.17033505
87	0x3cde0a7a	0.027104605
88	0xbe8aa174	-0.27076304
89	0x3edce725	0.431451
90	0x3e342c53	0.17595033
91	0x3d2321f6	0.03982731
92	0xbe71107c	-0.23541445
93	0xbd89fa3f	-0.06737184
94	0x3ceb7648	0.028742924
95	0x3dd023a9	0.10163052
96	0xbf0fe945	-0.56215316
97	0xbe10c56a	-0.14137807
98	0x3df8a2a8	0.12140399
99	0xbf1fda6b	-0.62442654
100	0xbe54dbab	-0.20786922
101	0xbdf12859	-0.11775274
102	0x3e234cd1	0.15947272
103	0x3ee6b304	0.45058453
104	0x3e80d3cd	0.2516159
105	0x3e894c8d	0.26816216
106	0x3de9b5f5	0.11411659
107	0x3e2634ec	0.16231126
108	0x3dda8a9e	0.106709704
109	0xbe63ec86	-0.22258195
110	0x3eac3c02	0.33639532
111	0x3e815ae9	0.2526467
112	0xbea38195	-0.319348
113	0x3e040735	0.12893374
114	0xbe30f614	-0.17281371
115	0x3e667ad7	0.22507797
116	0xbeca2a70	-0.39485502
117	0x3ecba2bb	0.3977259
118	0x3e03fda9	0.12889732
119	0x3d102a7f	0.035196777
120	0x3c5f7cc6	0.013640588
121	0x3d153de0	0.03643596
122	0xbe86f01f	-0.26355073
123	0x3ed53fd0	0.41650248
124	0xbe35b80a	-0.17745987
125	0x3e1eaa16	0.1549457
126	0x3d45672b	0.04819409
127	0x3d2107ec	0.039314196
128	0xbe2d11be	-0.169013
129	0xbe15440f	-0.14576744
130	0xbeb48a62	-0.35261828
131	0x3eac6d07	0.3367693
132	0xbae49a73	-0.0017441049
133	0x3dab2800	0.08357239
134	0xbefa16ab	-0.4884542
135	0xbe9c89aa	-0.3057378
136	0x3d34a1dc	0.044099674
137	0x3efd6e3a	0.4949816
138	0x3e1e043c	0.15431303
139	0x3d332113	0.043732714
140	0x3eb3a323	0.350854
141	0x3e1b0c02	0.151413
142	0x3e7a3bf9	0.2443694
143	0xbe03b111	-0.12860514
144	0xbe81a5c6	-0.25321788
145	0xbe9dec02	-0.30844122
146	0x3d0a3df1	0.03375048
147	0x3e7fd3c2	0.24983123
148	0x3e015cd0	0.12633061
149	0x3e6ba5e2	0.23012498
150	0xbb6d230b	-0.0036184217
151	0x3d5bf4bc	0.053700194
152	0x3ecfeb51	0.4060922
153	0x3e99390f	0.29926345
154	0x3eb0f134	0.34559023
155	0x3ef51533	0.47867736
156	0x3e8ff799	0.2811859
157	0xbe7f70d5	-0.24945386
158	0xbd1589dd	-0.03650843
159	0xbcae7722	-0.021297041
160	0xbcfbdf7b	-0.030746212
161	0x3ecc83e6	0.3994438
162	0xbe1262ab	-0.14295451
163	0xbe024d13	-0.12724714
164	0x3e8b4cef	0.27207133
165	0x3e7e95a9	0.24861778
166	0x3eaef0d2	0.34168106
167	0xbe371de4	-0.17882496
168	0x3e9ba0e7	0.30396196
169	0xbe57aba4	-0.2106157
170	0x3d282503	0.041050922
171	0xbe934f94	-0.2877165
172	0x3e951540	0.29117775
173	0x3d825fc0	0.06365919
174	0xbd82575e	-0.0636432
175	0x3e8a01b9	0.2695444
176	0x3e238ab2	0.15970877
177	0xbe01f666	-0.1269165
178	0x3ec6d5c4	0.38834965
179	0x3e5e3c11	0.21702601
180	0xbe559783	-0.20858578
181	0xbdef0683	-0.11671164
182	0x3e283b42	0.16428855
183	0xbe7e40d6	-0.2482942
184	0xbe539454	-0.20662051
185	0x3e8d4e58	0.27598834
186	0xbe2df7eb	-0.16989104
187	0xbe055093	-0.13019018
188	0x3ee52094	0.44751418
189	0x3e8bb50b	0.27286562
190	0x3d3ad4db	0.04561315
191	0xbd823df6	-0.06359474
192	0x3e96892a	0.29401523
193	0xbea66b86	-0.3250391
194	0xbe215f24	-0.1575895
195	0x3d2718ac	0.040795013
196	0xbdf33896	-0.11876027
197	0xbe9fd854	-0.31219733
198	0xbdc0c5c5	-0.094127215
199	0xbe030fa7	-0.1279894
200	0x3e81a5bf	0.25321767
201	0xbe8e2b9f	-0.27767655
202	0xbd443a69	-0.047907267
203	0x3e638453	0.22218446
204	0x3e7aa1b8	0.24475753
205	0xbe8be7e9	-0.2732537
206	0xbe42536e	-0.18977138
207	0xbe60e7a8	-0.2196337
208	0x3eb5fccb	0.35544428
209	0x3e07a35c	0.1324591
210	0x3e8e5755	0.27801004
211	0xbe002d0b	-0.12517183
212	0x3e827cb2	0.2548576
213	0x3d8b518a	0.06802662
214	0x3ecdfa21	0.40229896
215	0xbefedf15	-0.49779573
216	0xbdd199d9	-0.10234422
217	0x3c9a0801	0.018802645
218	0x3eb3eb3d	0.3514041
219	0xbe9a4ba6	-0.3013584
220	0xbe571ab4	-0.2100628
221	0xbdb0396f	-0.086047046
222	0xbea8d871	-0.32977632
223	0xbe93b0fe	-0.28845972
224	0xbe9f2360	-0.31081676
225	0x3e5072a6	0.20356235
226	0x3cb5a207	0.022171987
227	0x3c38065e	0.011231987
228	0xbcefb8f0	-0.02926299
229	0x3e842533	0.2580963
230	0x3e79cb33	0.2439392
231	0x3e747f9a	0.23876801
232	0x3eb7d6d4	0.35906088
233	0xbe36921b	-0.17829172
234	0xbdf8d314	-0.12149635
235	0x3aab5dc8	0.0013074214
236	0x3f1ab406	0.60430944
237	0x3ea13756	0.3148753
238	0xbdbb51cd	-0.09146462
239	0x3de88639	0.11353726
240	0x3e7a85a4	0.24465042
241	0x3e177e85	0.14794357
242	0xbd0701ae	-0.032960586
243	0x3eafe24c	0.34352338
244	0x3eabe26e	0.3357119
245	0xbe1094bf	-0.14119242
246	0xbe970e09	-0.29502895
247	0x3e501af5	0.20322783
248	0xbe724e5a	-0.23662701
249	0x3e2aa7eb	0.16665618
250	0xbdfbf65b	-0.12302848
251	0x3ec6e44b	0.3884605
252	0xbf12fde4	-0.57418656
253	0x3d16f190	0.036851466
254	0xbeadd634	-0.33952487
255	0xbe3945b9	-0.18093003

critic.0.bias f4 [64]
0	0xbe39e0b4	-0.18152124
1	0xbe041abb	-0.12900822
2	0xbe0f056c	-0.13966912
3	0x3e9fddd6	0.31223935
4	0x3e851a01	0.25996402
5	0xbdf92958	-0.12166089
6	0xbe75c992	-0.24002674
7	0x3eaf5994	0.3424803
8	0xbe97ea3f	-0.29670903
9	0x3d8a2527	0.067453675
10	0x3d42cce7	0.04755869
11	0x3d973744	0.07383588
12	0x3c996ec7	0.01872958
13	0x3c9a5182	0.018837694
14	0x3d83e13c	0.064394444
15	0x3dae89b8	0.085223615
16	0x3d37f98b	0.044915717
17	0x3e82838d	0.2549099
18	0x3eae3df3	0.34031639
19	0xbe696998	-0.22794187
20	0xbd61d412	-0.055133887
21	0x3d80d8d6	0.06291358
22	0x3e9ab248	0.30214143
23	0x3ecae674	0.39628947
24	0xb9a83bbe	-0.00032087968
25	0x3d537d00	0.05163288
26	0xbeaf039c	-0.3418244
27	0xbe61f9e3	-0.2206798
28	0xbdd74e72	-0.10513009
29	0xbd851951	-0.06498969
30	0xbea64b1d	-0.32479182
31	0x3e118e81	0.14214517
32	0x3e6ea5fb	0.23305504
33	0x3d3ef4fe	0.04662036
34	0xb8840c9f	-6.296601e-05
35	0x3e829c2a	0.2550977
36	0xbe83209a	-0.2561081
37	0xbe12e752	-0.14346054
38	0xbd25744c	-0.040394112
39	0xbdc5a853	-0.09651246
40	0xbd652c32	-0.05595035
41	0xbe91bc8e	-0.28464168
42	0xbe3f564a	-0.1868526
43	0xbebf9601	-0.3741913
44	0xbe9520c8	-0.29126573
45	0xbe2028ee	-0.15640613
46	0xbeb7cdda	-0.3589924
47	0x3d36d64b	0.04463796
48	0x3e8de47a	0.27713376
49	0x3dd91ab8	0.10600799
50	0xbe0ad087	-0.1355611
51	0x3d8f50c2	0.06997825
52	0xbe917994	-0.2841307
53	0x3e59e452	0.21278504
54	0x3e8377b2	0.25677258
55	0xbdffe5f9	-0.12495036
56	0xbe7ab6bc	-0.2448377
57	0x3e6e1af2	0.23252466
58	0xbc01febb	-0.007934268
59	0x3e6f2c8d	0.23356839
60	0xbdff1d43	-0.12456753
61	0xbe9cc684	-0.30620205
62	0xbdd98ccd	-0.10622559
63	0xbd74c3a3	-0.059756886

critic.2.weight f4 [64, 64]
0	0x3e181685	0.1485234
1	0xbe6f1544	-0.23347956
2	0xbcb6340c	-0.022241615
3	0xbd30f4a9	-0.043202076
4	0x3ea790ab	0.3272756
5	0xbc652f9b	-0.013988401
6	0xbddc188c	-0.107468694
7	0x3c4c11fe	0.012455462
8	0x3d87e852	0.066361085
9	0x3cc80345	0.024415622
10	0xbe04b488	-0.12959492
11	0xbdcedaa1	-0.10100294
12	0xbe700265	-0.23438413
13	0xbd875ef0	-0.06609905
14	0x3dfed095	0.124421276
15	0xbe1e071c	-0.154324
16	0x3d6c76e1	0.05773056
17	0x3c25064a	0.0100723
18	0xbdf957cc	-0.12174949
19	0x3b43d026	0.0029878705
20	0x3e1f930d	0.15583439
21	0xbe06fa11	-0.1318133
22	0x3e2d4dea	0.16924253
23	0xbde1632e	-0.11005245
24	0xbdd8510a	-0.10562332
25	0x3ddc8bd3	0.10768857
26	0xbd6bda19	-0.05758104
27	0x3df99707	0.12187009
28	0x3d3838be	0.04497599
29	0xbdfd25b4	-0.12360707
30	0x3d288e5f	0.0411514
31	0x3db9982c	0.090622276
32	0x3c67d1ee	0.014149172
33	0x3c8b4fbc	0.017005794
34	0xbd7ee374	-0.062228635
35	0x395783b4	0.00020553061
36	0x3e141087	0.1445943
37	0x3e037f71	0.12841584
38	0x3d72bd60	0.059262633
39	0x3d9ae1ad	0.075625755
40	0x3c12ac2f	0.008952185
41	0xbd00f28a	-0.031481303
42	0x3d5afc0a	0.05346302
43	0xbcd776fb	-0.026301851
44	0xbde9a8a5	-0.114091195
45	0x3d907379	0.07053275
46	0xbe4a66aa	-0.19765726
47	0xbdeb82da	-0.11499567
48	0xbe31b1d8	-0.17352998
49	0xbdf81f39	-0.1211533
50	0xbe818f81	-0.25304797
51	0xbdca86f1	-0.09889019
52	0xbde3bff8	-0.111205995
53	0x3e5e0568	0.2168175
54	0xbceac581	-0.02865863
55	0xbe86cf31	-0.2632995
56	0x3e17d430	0.14827037
57	0xbe0ae709	-0.13564695
58	0x3e1f5411	0.15559413
59	0xbdc9dcda	-0.09856577
60	0xbdb20d34	-0.086939245
61	0x3b9c666c	0.004772952
62	0x3db39854	0.08769289
63	0x3d71075f	0.05884492
64	0x3ec8f56f	0.3924975
65	0xbd4a72fb	-0.04942606
66	0xbdd26dfa	-0.102748826
67	0x3e007f2b	0.1254851
68	0x3e826004	0.2546388
69	0x3d24c0a5	0.040222783
70	0x3de6076b	0.112318836
71	0x3e110aa2	0.14164212
72	0x3e19b034	0.15008622
73	0x3d7f1a0f	0.06228071
74	0xbd531443	-0.051532995
75	0x3d4e4a3b	0.05036376
76	0xbe45ea71	-0.19327714
77	0x3d920fea	0.071319416
78	0x3dd78d4e	0.105249986
79	0xbd18c5fc	-0.037298188
80	0xbdf89ce3	-0.12139299
81	0x3dc8264b	0.09772929
82	0xbd2d0153	-0.04223759
83	0x3d8e827f	0.06958484
84	0x3d8c6526	0.0685523
85	0x3df05f1f	0.11736893
86	0x3e123a54	0.14280063
87	0x3c3a01ae	0.0113529395
88	0xbe2a7aae	-0.16648361
89	0x3c17dc75	0.00926887
90	0xbb34bd84	-0.002757878
91	0x3c5e273c	0.013559159
92	0x3d23c6c5	0.039984483
93	0xbe13943b	-0.14412014
94	0x3dd7003d	0.10498092
95	0x3e2e64a9	0.17030586
96	0xbc147bab	-0.009062688
97	0xbd5e88b4	-0.05432959
98	0xbcf83094	-0.030296601
99	0x3be77d9e	0.0070645353
100	0xbc0c0792	-0.008546727
101	0x3dcc5f49	0.09979112
102	0xbd75e996	-0.060037218
103	0xbcf45764	-0.029826827
104	0xbe0b4dbb	-0.1360387
105	0x3ccd4e50	0.025061756
106	0x3e07274e	0.13198587
107	0x3d509ab0	0.05092877
108	0xbe0d636e	-0.1380746
109	0x3df32c97	0.11873739
110	0x3d63b03b	0.05558799
111	0xbdd452ee	-0.1036738
112	0xbde87d24	-0.11351994
113	0xbdd9d6db	-0.106366836
114	0xbc9ea4cf	-0.019365696
115	0x3d849efb	0.064756356
116	0xbd9518d6	-0.07280128
117	0xbc7f73a8	-0.015591539
118	0x3a63f4ce	0.00086958415
119	0xbe4bd383	-0.19904904
120	0x3cce81bd	0.025208348
121	0xbd147bdc	-0.036250934
122	0x3e36e150	0.17859387
123	0xbb661256	-0.0035106144
124	0x3c8cefcc	0.017204188
125	0x3d035fd1	0.0320738
126	0x3d916f92	0.071013585
127	0x3d2d8695	0.042364676
128	0xbdc00192	-0.093752995
129	0x3db1fce2	0.08690812
130	0xbd295b76	-0.04134699
131	0xbe11c8a2	-0.14236692
132	0x3da07f4f	0.07836782
133	0xbda27e84	-0.07934287
134	0x3e13287d	0.14370914
135	0xbdd9fce4	-0.10643938
136	0x3d8841e6	0.06653194
137	0x3d0be5c2	0.03415466
138	0xbd1807d2	-0.037116833
139	0x3e0ffd10	0.1406138
140	0xbdd3621f	-0.103214495
141	0xbe2564e3	-0.16151766
142	0xbac41796	-0.0014960642
143	0xbd580c02	-0.052745827
144	0xbda2d2ad	-0.079503395
145	0x3e0934ca	0.13399044
146	0xbe1a3954	-0.15060931
147	0xbe16588a	-0.14682212
148	0xbc386665	-0.0112548815
149	0xbcfaecd1	-0.030630501
150	0x3d758f62	0.059951194
151	0x3e470a60	0.19437551
152	0x3e3e9b98	0.18614042
153	0xbd055303	-0.03254987
154	0x3e0e9551	0.13924147
155	0x3cfaa4bc	0.03059613
156	0xbdced602	-0.100994125
157	0xbd724c56	-0.05915483
158	0xbca47548	-0.020075455
159	0xbd4272a8	-0.047472626
160	0xbdca6e6d	-0.09884343
161	0x3ca6b73c	0.020351045
162	0x3dd4cd19	0.10390682
163	0x3d2e88bd	0.042610873
164	0xbe0a5757	-0.1350988
165	0x3da9f61a	0.08298893
166	0x3c2981b9	0.01034587
167	0x3d5f3cf1	0.054501478
168	0xbe542414	-0.20716888
169	0xbdf2c8cd	-0.11854706
170	0x3d77e6b8	0.060522765
171	0xbd50ec84	-0.05100681
172	0xbb066642	-0.0020507728
173	0x3d9b4872	0.07582177
174	0x3e377454	0.1791547
175	0xbded35de	-0.1158254
176	0xbd26e081	-0.040741447
177	0xbe3d90d6	-0.18512282
178	0x3e536aaa	0.20646158
179	0x3ba09f37	0.0049017924
180	0xbe7817d5	-0.24227841
181	0x3ca5b5c2	0.02022827
182	0xbd316612	-0.043310232
183	0xbd0de42f	-0.03464144
184	0xbd1e3bea	-0.038631357
185	0x3e363a5a	0.17795697
186	0x3dd403ef	0.10352313
187	0x3d7d04f0	0.061772287
188	0x3e0f704e	0.14007685
189	0x3d8412c7	0.06448894
190	0x3cb55138	0.022133455
191	0xbe1aa093	-0.15100317
192	0x3ce78b05	0.028264532
193	0x3e8a5a7f	0.27022168
194	0x3d4cfb26	0.0500442
195	0xbdadb34c	-0.08481464
196	0x3ccd1115	0.02503256
197	0xbd95ee8b	-0.07320889
198	0x3c02595a	0.007955873
199	0x3da9296a	0.08259852
200	0xbd8934be	-0.06699513
201	0xbdd0114c	-0.10159549
202	0x3cbbcc6e	0.022924628
203	0x3e171d97	0.14757381
204	0x3b99b4d0	0.004690744
205	0x3d2988df	0.041390296
206	0x3e0e3892	0.13888767
207	0x3de4a834	0.11164895
208	0x3c0963aa	0.008385578
209	0x3ddc6a46	0.107624575
210	0xbd082656	-0.033239685
211	0x3df6c52f	0.120493285
212	0x3da674f3	0.08127775
213	0xbd7f783f	-0.062370535
214	0xbdc10ac4	-0.094258815
215	0xbda2b795	-0.07945172
216	0x3cf4b22e	0.029870119
217	0x3cd3ccbf	0.025854466
218	0xbbf9575c	-0.007609291
219	0x3dec2481	0.115304
220	0x3dbac1db	0.09119006
221	0x3d82ee6c	0.063931316
222	0xbdf7f6c8	-0.12107617
223	0x3d151075	0.036392648
224	0x3d69dce9	0.057095442
225	0x3c41e9f7	0.011835567
226	0x3b83c1d9	0.004020911
227	0x3c83a26b	0.016068658
228	0xbe14f319	-0.1454586
229	0x3e3e9413	0.18611173
230	0xbe3a473b	-0.18191235
231	0xbd980850	-0.074234605
232	0xbdb20a2f	-0.086933486
233	0x3ce615de	0.028086599
234	0xbe1d59ae	-0.15366241
235	0x3db419e9	0.087940045
236	0x3dd97d2b	0.10619577
237	0xbd71e54b	-0.05905656
238	0xbcba1af0	-0.022717923
239	0x3d084bd8	0.033275455
240	0x3e3b8ca1	0.18315364
241	0xbe12fc83	-0.14354138
242	0x3e7d4cfd	0.247364
243	0x3e4846cd	0.19558258
244	0xbce9bc66	-0.028532218
245	0x3c3ee37c	0.011650916
246	0x3dc93c4a	0.09825952
247	0xbe70dbfc	-0.23521417
248	0x3a89932c	0.0010496131
249	0x3cc3a4cc	0.023882292
250	0x3d9ef22a	0.07761033
251	0x3dcddc2d	0.10051761
252	0xbd4ce328	-0.05002132
253	0x3d3f8ed2	0.046767063
254	0xbd9a7b66	-0.07543068
255	0xbded54db	-0.115884505

critic.2.bias f4 [64]
0	0xbdbb651a	-0.09150143
1	0xbdaf7e82	-0.08569051
2	0x3d641f9f	0.05569422
3	0xbd1a553a	-0.037678935
4	0x3d915a97	0.07097357
5	0x397a32b5	0.00023860748
6	0xbc8625d1	-0.016375454
7	0x3c6226d9	0.013803207
8	0x3d7ccbf1	0.06171793
9	0xbcd7bb7b	-0.026334515
10	0xbd81a69c	-0.06330606
11	0x3da2063b	0.079113446
12	0xbcfcc9e7	-0.030857993
13	0xbd1b1578	-0.03786227
14	0x3e576696	0.21035227
15	0x3cc3994f	0.023876814
16	0x3d8b9b76	0.06816761
17	0xbc241b7e	-0.01001632
18	0xbdf964c6	-0.12177424
19	0x3dc04b3c	0.0938935
20	0x3d8472ea	0.064672306
21	0x3d20f3c2	0.039294966
22	0x3c8188b7	0.015812261
23	0xbda83c0b	-0.08214577
24	0x3c96a3c4	0.018388636
25	0xbd80eaec	-0.06294808
26	0x3dcc6dce	0.09981881
27	0x3db3c31f	0.08777451
28	0x3e144869	0.14480747
29	0x3e448b91	0.19193865
30	0xbcef6c0f	-0.029226331
31	0xbd23fbf6	-0.04003521
32	0xbd69eb28	-0.057109028
33	0xbc2948f2	-0.010332333
34	0x3db9bd83	0.090693496
35	0x3d5da27c	0.054110035
36	0x3c9c052c	0.019045435
37	0x3c67cb44	0.014147583
38	0x3e0f3cce	0.13988039
39	0x3daebfc0	0.08532667
40	0xbca53773	-0.020168042
41	0x3dbe7fee	0.093017444
42	0x3d19e203	0.037569057
43	0x3dbe7646	0.092999026
44	0x3de2ab48	0.110678256
45	0xbdbb79eb	-0.091541134
46	0xbb8c98f8	-0.0042906962
47	0xbd21b5d9	-0.039480064
48	0x3d44e5f9	0.04807088
49	0x3cdf8b07	0.027287973
50	0x3ce1412d	0.027496899
51	0x3e100f52	0.14068344
52	0x3e04880d	0.12942524
53	0xbdb01bf4	-0.08599082
54	0x3dba95c5	0.091105975
55	0xbbad511a	-0.005289209
56	0x3d9b5227	0.07584029
57	0x3cc604fd	0.0241723
58	0x3e061484	0.13093764
59	0x3d0e81d2	0.034791775
60	0xbccad6fa	-0.024760712
61	0xbc6935b5	-0.014233996
62	0x3cba130a	0.022714157
63	0x3d85d024	0.0653384

critic.4.weight f4 [1, 64]
0	0x3e84220d	0.2580723
1	0x3ded7f76	0.11596577
2	0x3e3c970d	0.18416996
3	0x3da42b3e	0.0801606
4	0xbe1bcf9b	-0.15215914
5	0x3e26ccbe	0.1628904
6	0x3a8e5968	0.0010860385
7	0xbdc4b6de	-0.09605192
8	0x3c25fa7c	0.010130521
9	0x3e8de5bc	0.27714336
10	0xbd13c066	-0.036072157
11	0xbd7981de	-0.060914867
12	0xbe0a92d4	-0.13532573
13	0x3e01a107	0.12659083
14	0xbe88ff6b	-0.26757368
15	0xbe7849b7	-0.2424687
16	0x3dbb6b71	0.09151352
17	0xbc0ce5ab	-0.008599679
18	0x3d6c5c88	0.057705432
19	0x3d889cf7	0.06670564
20	0x3e3031ed	0.17206545
21	0xbdbe4229	-0.09289963
22	0xbd8ab150	-0.06772101
23	0x3db61c41	0.08892108
24	0x3d52f925	0.051507134
25	0x3d07f7c8	0.033195287
26	0xbd58a1d6	-0.052888714
27	0x3bc066a9	0.005871613
28	0xbd767d2d	-0.06017797
29	0xbde72cdc	-0.11287853
30	0xbe553bf8	-0.20823658
31	0x3d9d55c3	0.076823734
32	0x3e2e925d	0.1704802
33	0xbe5ab347	-0.21357451
34	0x3d81b8e1	0.06334091
35	0xbd057be1	-0.032588843
36	0x3e22003e	0.15820405
37	0xbe00f7f4	-0.12594587
38	0x3e1b1ef2	0.15148523
39	0x3eafcad5	0.34334436
40	0x3db0a482	0.086251274
41	0xbdfe53a7	-0.12418299
42	0x3ddef922	0.10887362
43	0x3dee27e6	0.11628704
44	0xbda18967	-0.078875355
45	0x3d92dd0b	0.07171067
46	0xbe1d03d6	-0.15333495
47	0x3d9a56c6	0.07536082
48	0xbd9d1288	-0.0766955
49	0xbd114618	-0.035467237
50	0xbd218c96	-0.039440714
51	0xbe8965a0	-0.26835346
52	0xbdf61a78	-0.12016767
53	0x3e5c8c95	0.21538003
54	0xbe96fc76	-0.29489487
55	0xbd814e96	-0.06313817
56	0xbe253814	-0.16134673
57	0x3e046d62	0.12932351
58	0xbe173b68	-0.14768755
59	0xbd942470	-0.072335124
60	0x3cebf16d	0.028801644
61	0x3da5835d	0.08081696
62	0x3dee45da	0.11634417
63	0x3de6e68b	0.11274441
