preTrained/Pendulum-h-v1/2level/HAC_Pendulum-h-v1_solved_level_1_actor.pth (torch_old, 20346 bytes, 6 tensors)

actor.0.weight f4 [64, 6]
0	0x3e82e40d	0.25564614
1	0xbf407fc4	-0.75194955
2	0xbdb9453d	-0.09046409
3	0xbdadc464	-0.08484724
4	0x3ec5ecbb	0.38657174
5	0x3e90a698	0.282521
6	0xbe8bc6a0	-0.27299976
7	0xbf2715d3	-0.65267676
8	0xbd9c3b7f	-0.076285355
9	0xbe60c85c	-0.21951431
10	0x3e9e1579	0.30875757
11	0x3ed51f6a	0.4162553
12	0xbed61df4	-0.41819727
13	0xbe68189e	-0.2266564
14	0xbd6b86c8	-0.057501584
15	0xbe8a6112	-0.27027184
16	0xbdc05f1d	-0.093931414
17	0xbdd62192	-0.10455622
18	0x3f0e5f5e	0.5561427
19	0x3f55b973	0.834861
20	0xbd0124ba	-0.031529166
21	0x3e6a3e03	0.22875218
22	0x3e9f0b91	0.31063512
23	0x3e0cee41	0.13762762
24	0xbe522563	-0.20522074
25	0xbf18f5b9	-0.59749943
26	0x3d9867e0	0.074416876
27	0xbe4d9f4e	-0.20080301
28	0xbe48ec92	-0.19621494
29	0xbe87dd63	-0.26536092
30	0xbec1ded7	-0.37865326
31	0xbe8ab270	-0.27089262
32	0x3e2b5fa0	0.16735697
33	0xbe3b5e30	-0.18297648
34	0x3e69b993	0.22824697
35	0x3eb1fa33	0.347612
36	0xbd8583de	-0.06519292
37	0x3f016268	0.5054078
38	0x3e7cd2dc	0.24689811
39	0xbe316249	-0.17322649
40	0xbf41f362	-0.75762
41	0x3f0da437	0.55328697
42	0x3f48c6c4	0.7842829
43	0xbec01484	-0.37515652
44	0x3e536539	0.20644082
45	0xbe8eb3d6	-0.2787158
46	0x3d6ce427	0.05783477
47	0xbee5094f	-0.44733664
48	0xbd8e98c2	-0.0696273
49	0xbf1b3e33	-0.60641783
50	0xbdb76b25	-0.08955983
51	0x3e05a95a	0.13052884
52	0xbd934e5d	-0.07192681
53	0xbe5584dc	-0.20851463
54	0xbf297290	-0.66190434
55	0xbf2c4302	-0.67289746
56	0x3d5674e5	0.052357573
57	0x3e6b0d98	0.22954404
58	0x3d78c555	0.060735065
59	0xbf3dc1e7	-0.74123996
60	0xbe795700	-0.24349594
61	0xbec9ce11	-0.3941503
62	0xbdcb06b7	-0.0991339
63	0xbe700324	-0.23438698
64	0xbeef1acc	-0.46700132
65	0x3d861631	0.065472014
66	0xbec2e5a5	-0.3806583
67	0x3f109ad2	0.5648624
68	0x3c47dad3	0.012198168
69	0xbe1e2e78	-0.15447414
70	0xbe53b1e6	-0.20673332
71	0x3ec36b01	0.38167575
72	0x3ece6897	0.4031417
73	0xbe385ea8	-0.18004858
74	0x3e9a7270	0.30165434
75	0xbebfaca4	-0.37436402
76	0xbe0aa5e3	-0.13539843
77	0xbe408b72	-0.18803194
78	0x3ec35cc3	0.3815671
79	0x3e61e1ba	0.22058764
80	0xbd163d7b	-0.036679726
81	0xbf348494	-0.705148
82	0x3d5b8f77	0.053603616
83	0x3d9183c3	0.0710521
84	0x3b0462a4	0.0020200396
85	0xbf4516ec	-0.769881
86	0x3e6978fb	0.22800057
87	0x3f19602d	0.5991238
88	0x3deafa6d	0.11473546
89	0xbe20164c	-0.15633506
90	0xbf3d505b	-0.7395074
91	0x3f2debc2	0.6793786
92	0x3db75863	0.08952405
93	0x3cd56689	0.02604987
94	0x3dea7df9	0.114498086
95	0xbe3d912e	-0.18512413
96	0x3e1721c8	0.1475898
97	0xbf1d3540	-0.6140938
98	0x3e5ab998	0.21359861
99	0x3e3ca9b8	0.18424118
100	0xbd272ced	-0.04081433
101	0xbea2bf4d	-0.31786576
102	0xbe3df4cc	-0.18550414
103	0x3ef45380	0.47719955
104	0x3e48b6c8	0.19600976
105	0x3de4d36e	0.111731395
106	0xbe375f0f	-0.17907356
107	0xbf0d178b	-0.5511405
108	0x3d410502	0.047123916
109	0xbe55db0d	-0.20884342
110	0x3e5ad7a3	0.21371321
111	0xbe49424e	-0.196542
112	0xbed10a5f	-0.40828225
113	0x3e829925	0.25507465
114	0x3ea34419	0.31887892
115	0xbf685cc8	-0.9076657
116	0x3d9fb450	0.07798064
117	0x3dfc14b8	0.12308639
118	0x3eff57f8	0.49871802
119	0x3e0f152f	0.13972925
120	0x3ea387bf	0.31939504
121	0x3db62e13	0.08895507
122	0x3cfa54ef	0.030558078
123	0xbdf6757d	-0.12034128
124	0x3e571526	0.21004161
125	0x3d4deb3b	0.05027316
126	0x3cb3c421	0.021944107
127	0x3e62aa20	0.2213521
128	0xbe406c66	-0.1879135
129	0x3ccffed3	0.025390064
130	0xbe85b1c9	-0.26112202
131	0x3e9f4018	0.31103587
132	0x3e6e6cf0	0.23283744
133	0xbdf9193c	-0.12163016
134	0xbd887705	-0.06663326
135	0xbdebd9ec	-0.11516175
136	0xbf1f92f4	-0.6233361
137	0x3e6992da	0.22809926
138	0x3e9fca4b	0.31209025
139	0xbf4523c8	-0.7700772
140	0x3e0b6886	0.13614091
141	0x3e9e5cc3	0.30930147
142	0x3f06763f	0.5252418
143	0x3e1e84d9	0.15480365
144	0xbec09f0d	-0.37621346
145	0xbf42738f	-0.7595758
146	0xbd8760d8	-0.06610268
147	0xbd8ff72f	-0.070295684
148	0x3dbff1f5	0.093723215
149	0x3e560bb1	0.20902897
150	0x3f067c8f	0.5253381
151	0xbd86d590	-0.065837026
152	0x3d7caf28	0.06169048
153	0xbdf3e747	-0.11909347
154	0xbe5273dd	-0.20552011
155	0x3e1a5b2b	0.1507384
156	0x3e068a7f	0.1313877
157	0xbf84dd36	-1.0380008
158	0xbe66e6a1	-0.22548915
159	0x3d85bff7	0.06530755
160	0x3d080542	0.03320814
161	0x3cf1c2d9	0.029511856
162	0xbe68578a	-0.22689644
163	0x3f63ca63	0.8898069
164	0x3e6afaf2	0.2294729
165	0x3e070879	0.13186826
166	0xbe3e224c	-0.1856777
167	0xbdb3dba3	-0.08782127
168	0x3f24a267	0.64310306
169	0x3f4f3e10	0.80954075
170	0x3e785858	0.2425245
171	0x3e2c05fd	0.1679916
172	0x3f22efbb	0.6364705
173	0x3e49c863	0.19705348
174	0x3e9862e4	0.29762948
175	0xbf28b5f4	-0.6590264
176	0x3e4c0669	0.1992432
177	0xbd7b4262	-0.061342604
178	0x3eb794ca	0.35855705
179	0x3e39ccc6	0.18144521
180	0x3eea192c	0.4572233
181	0x3f35f5d4	0.7107823
182	0xbcbd8eb6	-0.023139339
183	0xbe9f9009	-0.31164578
184	0xbd176349	-0.03695992
185	0x3e9b63cf	0.30349585
186	0x3f0e04f7	0.55476326
187	0xbe532e64	-0.20623165
188	0xbe9c9a00	-0.30586243
189	0xbe2253f0	-0.15852332
190	0xbf2194a7	-0.6311745
191	0x3f17f085	0.5935138
192	0xbe54c776	-0.20779213
193	0xbebaf9a6	-0.36518592
194	0xbe03143c	-0.12800688
195	0xbe3eb7e7	-0.1862484
196	0x3d29694f	0.041360196
197	0xbed7918d	-0.42103234
198	0x3dbf0791	0.09327615
199	0xbe69a33b	-0.22816174
200	0x3e59430b	0.21216981
201	0x3d3190f3	0.043351125
202	0x3eb9ad82	0.36265188
203	0xbf14ae2e	-0.5807828
204	0xbe9a803d	-0.30175963
205	0xbe3994b7	-0.18123136
206	0xbd471390	-0.04860264
207	0xbe1a0305	-0.15040214
208	0x3cc7d140	0.02439177
209	0x3df83001	0.12118531
210	0x3e502063	0.20324855
211	0x3f481a1e	0.7816485
212	0xbe075b31	-0.1321838
213	0x3e9e5452	0.30923706
214	0xbe04315f	-0.12909459
215	0x3f07e0f4	0.53077626
216	0xbe0be05a	-0.13659802
217	0x3cc7cfa1	0.024390997
218	0x3e4c72ad	0.1996562
219	0x3dcc3159	0.0997035
220	0xbf18e57c	-0.59725165
221	0x3eb5f1fc	0.35536182
222	0xbdcd08e3	-0.10011461
223	0xbe7074fe	-0.23482129
224	0x3d7f2916	0.062295042
225	0x3e9d5216	0.3072669
226	0xbe9fadef	-0.31187388
227	0x3d3ccb9e	0.046092622
228	0xbe5057a4	-0.20345932
229	0x3f0165b6	0.50545824
230	0xbd171270	-0.036882818
231	0xbdd7c25f	-0.1053512
232	0xbd426268	-0.04745713
233	0xbf15fa3f	-0.5858497
234	0xbd7017c6	-0.058616422
235	0xbd8a7b3a	-0.06761785
236	0x3e57e59a	0.2108368
237	0x3d335090	0.043778002
238	0x3ecb0b94	0.3965727
239	0xbf32895d	-0.6974085
240	0x3f483853	0.78210944
241	0xbe37f74e	-0.17965433
242	0x3e26a2ba	0.16273013
243	0xbed89313	-0.4229971
244	0xbe924eef	-0.28575847
245	0x3d6d5e3a	0.05795119
246	0xbd6d1000	-0.057876587
247	0x3efe6d3f	0.49692723
248	0x3d4180a3	0.04724182
249	0x3e4fd570	0.20296264
250	0xbee034a1	-0.43790153
251	0x3f4fb621	0.8113728
252	0xbbc922b9	-0.0061381725
253	0xbf101464	-0.56281114
254	0xbe38edb4	-0.18059427
255	0x3f00d4ff	0.50325006

actor.0.bias f4 [64]
0	0xbee90741	-0.45513347
1	0xbedcb721	-0.43108466
2	0x3e46415a	0.19360867
3	0xbef38213	-0.47560176
4	0xbedc3545	-0.4300939
5	0xbccddd56	-0.025129955
6	0x3e83ae54	0.2571894
7	0xbf033399	-0.51250607
8	0xbf041259	-0.51590496
9	0xbefaf305	-0.49013534
10	0xbf578c1f	-0.8419818
11	0x3e00f3dd	0.12593026
12	0xbe548ae2	-0.20756105
13	0xbd96c986	-0.07362656
14	0xbe8a6e99	-0.27037504
15	0xbf05ac4a	-0.5221602
16	0x3d8d9082	0.06912328
17	0x3dedd20d	0.1161233
18	0xbf31d9eb	-0.6947314
19	0x3edaad6f	0.42710444
20	0xbe90f25f	-0.28309914
21	0xbf41295d	-0.7545374
22	0xbd9e218d	-0.07721243
23	0x3e748d2a	0.23881975
24	0x3e576f46	0.21038541
25	0xbf6381c4	-0.8886988
26	0x3da9611d	0.08270476
27	0x3ec938af	0.3930106
28	0xbecbebb0	-0.39828253
29	0xbf35ff3f	-0.710926
30	0xbe129fa5	-0.14318712
31	0xbdf8652a	-0.121286705
32	0xbed3e60a	-0.41386443
33	0xbe96c5f2	-0.29447895
34	0x3e4f6cd7	0.20256363
35	0xbeb6ed92	-0.35728127
36	0x3dc1620b	0.09442528
37	0x3e0a542f	0.13508676
38	0xbe3ac119	-0.18237723
39	0x3eaddf10	0.33959246
40	0xbad7013e	-0.0016403568
41	0xbdaf9619	-0.08573551
42	0xbe8395f7	-0.25700352
43	0xbec81b88	-0.39083505
44	0xbe346b1f	-0.17618988
45	0x3df76fe8	0.12081891
46	0x3dae77bc	0.08518931
47	0x3cb8af68	0.022544578
48	0xbc1da011	-0.009620682
49	0x3d2895b0	0.041158378
50	0xbf0ad155	-0.54225665
51	0x3cb6b369	0.022302346
52	0xbef4d1cb	-0.4781631
53	0x3c1f9a66	0.009741401
54	0x3e420708	0.18947995
55	0xbeb48a5e	-0.35261816
56	0x3d8318e4	0.06401232
57	0xbd0248d5	-0.03180774
58	0xbeb8a279	-0.36061457
59	0xbe600d78	-0.21880138
60	0xbb847458	-0.0040421896
61	0xbe97d77f	-0.29656598
62	0xbdf34742	-0.11878826
63	0xbeb84762	-0.3599196

actor.2.weight f4 [64, 64]
0	0x3ae46d14	0.0017427527
1	0xbd088b47	-0.03333595
2	0xbef57907	-0.479439
3	0x3f44315c	0.76637816
4	0x3db032fc	0.086034745
5	0xbf074c3c	-0.528507
6	0x3e92db8f	0.28683135
7	0xbe11e7c1	-0.14248563
8	0xbe9b879d	-0.30376902
9	0x3e3144a4	0.1731134
10	0xbeed9684	-0.46403897
11	0x3ede5f96	0.434323
12	0xbe915fb4	-0.28393328
13	0x3e1019a0	0.14072275
14	0x3ec52d60	0.3851118
15	0xbe4512e3	-0.19245486
16	0xbddd1bde	-0.10796331
17	0x3ea9a275	0.33131757
18	0x3d9230df	0.07138228
19	0xbe29fbcd	-0.1659996
20	0x3d06c1f6	0.03289982
21	0x3d59ea9c	0.053202257
22	0x3d954302	0.07288171
23	0x3e54dac7	0.20786582
24	0x3e51ec7e	0.20500371
25	0x3f063128	0.52418756
26	0xbe9bbf50	-0.30419397
27	0xbdcd0dba	-0.10012384
28	0x3e895be8	0.2682793
29	0x3cfdd540	0.030985475
30	0xbf7256ef	-0.946639
31	0xbf264a66	-0.64957273
32	0xbf5dc721	-0.8663197
33	0xbe2d05ec	-0.1689679
34	0x3cb50eae	0.022101726
35	0xbf1f8c7f	-0.62323755
36	0x3e8564e0	0.26053524
37	0x3e5972fa	0.21235266
38	0xbdf0dddb	-0.117610656
39	0x3e0ba389	0.13636602
40	0x3e47c534	0.19508821
41	0x3f20faa8	0.6288247
42	0x3edeebff	0.43539426
43	0xbe4efde6	-0.20214042
44	0x3e3aa570	0.18227172
45	0x3e92134d	0.2853035
46	0x3e39e07a	0.18152037
47	0x3e829cb0	0.25510168
48	0xbf0886cd	-0.5333069
49	0x3eb43eee	0.35204262
50	0x3ea76d73	0.3270069
51	0x3ce21bf0	0.027601212
52	0xbfcee2a0	-1.616291
53	0xbe325d38	-0.17418373
54	0x3ea0a54d	0.31376114
55	0xbeeb033b	-0.45900902
56	0xbd627cfd	-0.05529498
57	0xbd9c8290	-0.0764209
58	0xbdba2cfa	-0.0909061
59	0x3ecc147a	0.39859372
60	0xbe34b0da	-0.17645589
61	0xbebc19c0	-0.36738396
62	0xbee413b7	-0.4454629
63	0xbee94cf4	-0.45566523
64	0x3e0cfcd3	0.1376832
65	0x3ee51a51	0.4474664
66	0x3d1babc5	0.03800561
67	0x3d64581f	0.0557481
68	0xbf5444a2	-0.82917225
69	0x3dba2272	0.09088601
70	0xbd072548	-0.03299454
71	0xbe402903	-0.18765645
72	0x3da61592	0.08109583
73	0x3e527b9c	0.20554966
74	0xbe814b3d	-0.25252715
75	0x3e219fb5	0.1578358
76	0x3e3f2035	0.1866463
77	0x3ea92056	0.33032483
78	0xbeeb50cb	-0.45960078
79	0x3cc2f468	0.023798183
80	0x3e1f8dd1	0.15581442
81	0x3e26b4e7	0.16279946
82	0x3de89fd7	0.11358612
83	0xbe3ee239	-0.18640985
84	0x3c4a2310	0.012337461
85	0xbdf926d1	-0.12165607
86	0xbd1f4a4f	-0.038889226
87	0xbc60aa83	-0.013712528
88	0x3eab4794	0.33453047
89	0xbe162d81	-0.14665796
90	0x3d2d6a5a	0.042337753
91	0x3e03be13	0.12865476
92	0x3e99e98a	0.3006099
93	0xbdef091e	-0.11671661
94	0xbddde328	-0.10834342
95	0xbc4085f8	-0.011750691
96	0xbe1b7b8e	-0.15183851
97	0x3e50ee8f	0.20403503
98	0x3d0bde30	0.03414744
99	0x3db50041	0.08837939
100	0x3e61dee1	0.22057678
101	0x3d8104d2	0.062997475
102	0x3d6c4bb6	0.05768939
103	0xbe433ddf	-0.1906657
104	0x3e08f63a	0.13375178
105	0x3e37f6a4	0.1796518
106	0xbebe5c4b	-0.3717979
107	0x3dc285f5	0.094982065
108	0x3e641075	0.22271903
109	0x3e11aaa2	0.14225248
110	0xbe61e774	-0.22060949
111	0x3d5aa4cc	0.05337982
112	0xbcb034ea	-0.021509606
113	0xbf32d05f	-0.698492
114	0x3e1c37f1	0.15255715
115	0xbde4698f	-0.11152946
116	0x3d8f7238	0.070042074
117	0xbddc6974	-0.10762301
118	0xbe8cf912	-0.27533776
119	0x3d96537e	0.073401436
120	0x3e346393	0.1761611
121	0x3d4415bf	0.0478723
122	0xbe20089a	-0.15628281
123	0xbddce76a	-0.10786326
124	0x3c2fc897	0.010728977
125	0xbd4ff627	-0.05077186
126	0x3eb85d39	0.36008623
127	0x3e123542	0.14278129
128	0xbf3ac7b1	-0.72960955
129	0x3e84d808	0.2594607
130	0x3dedcd4f	0.11611425
131	0xbf8c3ef4	-1.0956712
132	0x3df223c2	0.118232265
133	0x3da00314	0.07813087
134	0x3e19be56	0.15014014
135	0x3d79fb59	0.06103072
136	0x3f9ea3be	1.239372
137	0x3e316813	0.17324857
138	0xbc8075a8	-0.015681103
139	0x3d8b67c2	0.068068996
140	0x3df1f947	0.11815124
141	0xbf087c91	-0.53315073
142	0xbf2a8674	-0.6661141
143	0x3e67edac	0.22649258
144	0xbf072509	-0.52790886
145	0xbdf2ff9f	-0.11865162
146	0x3f2a56be	0.6653861
147	0xbfe44f7b	-1.7836756
148	0xbe727f39	-0.23681344
149	0xbf6d0ef2	-0.9260093
150	0x3e074b13	0.13212232
151	0xbdeb5e25	-0.11492566
152	0x3e80430c	0.25051153
153	0xbeb74b07	-0.3579943
154	0xbf71540d	-0.94268876
155	0xbe0ccd6d	-0.13750239
156	0x3d7f5d61	0.062344912
157	0x3ecc4ef1	0.39903978
158	0x3e785a2e	0.24253151
159	0xbf3628ba	-0.71155894
160	0x3f5fa72e	0.8736447
161	0x3f35a710	0.7095804
162	0xbcf3c229	-0.029755669
163	0xbf02968b	-0.5101096
164	0xbded7875	-0.11595241
165	0xbe5f1976	-0.21787056
166	0xbdabeffe	-0.08395384
167	0x3d5e97d9	0.054344032
168	0xbf55f465	-0.8357604
169	0xbd9b6419	-0.075874515
170	0xbe0e8221	-0.13916828
171	0xbdbc6a97	-0.09200018
172	0x3eb392b6	0.3507287
173	0xbde4d8d7	-0.111741714
174	0x3eb8a897	0.36066124
175	0x3cfc3444	0.030786641
176	0xbda5290f	-0.08064472
177	0xbe13ab3c	-0.1442079
178	0x3c047fdf	0.0080871275
179	0xbee741c4	-0.45167363
180	0xbec2af02	-0.38024145
181	0xbeb26e79	-0.3484991
182	0xbd49f146	-0.049302362
183	0xbf4c0c02	-0.7970582
184	0x3d8f928f	0.07010376
185	0xbdf5f027	-0.12008696
186	0xbd2f66ba	-0.042822577
187	0xbead3d81	-0.33835986
188	0x3d88f8a4	0.066880494
189	0xbd040837	-0.032234397
190	0xbec67ae0	-0.3876562
191	0x3ccee9e8	0.02525802
192	0x3e817afb	0.2528914
193	0x3eff520e	0.4986729
194	0x3cb84195	0.02249221
195	0x3f00c2d5	0.5029729
196	0xbf411f5a	-0.75438464
197	0x3e075b0a	0.13218322
198	0xbdd45d95	-0.10369412
199	0x3daf6ae2	0.08565308
200	0xbe23961e	-0.15975234
201	0xbd6c5fcb	-0.057708543
202	0x3c916ef2	0.017753098
203	0x3ca86b66	0.020559024
204	0xbe7afab0	-0.24509692
205	0x3ecce99a	0.40021974
206	0xbe9e92be	-0.3097133
207	0xbe105082	-0.14093211
208	0xbdfc9433	-0.12332954
209	0xbe806212	-0.25074822
210	0xbe5e293d	-0.21695419
211	0x3edf2597	0.43583366
212	0x3dba301b	0.09091207
213	0xbd3299d9	-0.04360375
214	0xbe141f41	-0.14465047
215	0xbe072d87	-0.13200961
216	0x3e3bea4a	0.18351093
217	0x3e92abb7	0.28646633
218	0x3d6c7337	0.057727065
219	0xbdc105f3	-0.09424963
220	0x3d1739d7	0.036920395
221	0xbe2b5050	-0.16729856
222	0xbe14dcc6	-0.14537343
223	0x3e9b649a	0.3035019
224	0xbe2e8cfa	-0.17045966
225	0x3d1ae79a	0.03781853
226	0xbd45375d	-0.0481485
227	0xbe1c2807	-0.15249644
228	0xbda74869	-0.08168108
229	0xbe0237bf	-0.12716578
230	0xbecf9f47	-0.40551206
231	0xbdd4face	-0.103994
232	0x3e9ed971	0.3102527
233	0xbdc12b60	-0.09432101
234	0xbea01f98	-0.31274104
235	0xbe6afedf	-0.22948788
236	0xbd8f88d9	-0.070085235
237	0x3cebb66d	0.02877351
238	0xbe1e1a08	-0.15439618
239	0xbd6fe94e	-0.058572106
240	0xbbdc3228	-0.0067198463
241	0xbe39fdcc	-0.18163222
242	0xbb709422	-0.0036709388
243	0xbdeb1e78	-0.11480421
244	0x3e866164	0.26246178
245	0x3cf9a01c	0.030471854
246	0xbddbfc5d	-0.10741494
247	0x3ed7f423	0.4217845
248	0x3dff4e1f	0.12466072
249	0xbd262bce	-0.04056912
250	0xbd3d381a	-0.04619608
251	0xbe7af6e7	-0.24508248
252	0xbc961e5e	-0.018325027
253	0xbde89c93	-0.11357989
254	0x3e7ec96d	0.24881525
255	0xbb0b962a	-0.0021299222

actor.2.bias f4 [64]
0	0x3d97862a	0.07398637
1	0xbcad9695	-0.021189967
2	0xbd89241a	-0.06696339
3	0x3dc024db	0.093820296
4	0xbb220f3b	-0.0024728316
5	0xbdf5a26d	-0.11993871
6	0x3c176a9b	0.009241725
7	0xbe56c8db	-0.20975058
8	0xbed1aee0	-0.40953732
9	0xbc920ea2	-0.017829243
10	0x3d9724fe	0.073801026
11	0xbe1d6878	-0.15371883
12	0xbd8f4720	-0.06995988
13	0xbe035fc3	-0.12829499
14	0x3adcca55	0.0016844968
15	0xbcc0fd02	-0.023558144
16	0xbdce7b9e	-0.10082172
17	0xbdb0182f	-0.08598363
18	0x3b5ef9a8	0.0034023318
19	0xbe3549c0	-0.17703915
20	0xbe98420a	-0.29737884
21	0xbe676452	-0.22596863
22	0x3d3fea72	0.046854444
23	0xbe08c7d4	-0.13357478
24	0x3c9ed8cd	0.019390488
25	0xbc2658b6	-0.010152986
26	0x3d560dab	0.05225913
27	0xbdf120b4	-0.11773816
28	0x3da954dc	0.08268139
29	0xbda29e3f	-0.07940339
30	0xbdc2d290	-0.09512818
31	0x3d0c0d66	0.034192465
32	0xbd459c08	-0.048244506
33	0xbd99eeb3	-0.075162314
34	0x3e74c762	0.23904184
35	0xbd1f2504	-0.03885366
36	0xbdd2476d	-0.1026753
37	0x3cf92b26	0.030416083
38	0xbe7a543f	-0.244462
39	0x3dacc69f	0.084363215
40	0xbd379b10	-0.044825613
41	0xbd68f672	-0.056875654
42	0xbdc765bf	-0.097362034
43	0xbd9547db	-0.07289096
44	0x3d53826b	0.05163805
45	0xbc8b128b	-0.016976615
46	0xbde00e41	-0.10940219
47	0xbc179291	-0.009251253
48	0xbe1cb89b	-0.15304796
49	0xbd8c631e	-0.068548426
50	0xbdb43233	-0.08798637
51	0xbd9d36f3	-0.07676496
52	0x3d01db0e	0.031703047
53	0xbda0323d	-0.07822082
54	0xbe07eb6f	-0.13273405
55	0xbda20e03	-0.07912829
56	0x3cba221b	0.02272134
57	0xbcab4b0d	-0.02090981
58	0xbddca441	-0.107735164
59	0xbe16e897	-0.14737163
60	0x3d96d08f	0.07363998
61	0xbda9d3e8	-0.08292371
62	0xbe07cb49	-0.13261141
63	0xbdf79c0e	-0.12090312

actor.4.weight f4 [3, 64]
0	0x3eeca138	0.4621675
1	0xbe336a22	-0.17520955
2	0x3e8730ae	0.26404327
3	0x3f587d1a	0.8456589
4	0xbdf852c3	-0.121251605
5	0xbcd9cd14	-0.026587047
6	0x3fc7abef	1.5599345
7	0x3ec1d9af	0.37861392
8	0xbfc69054	-1.5512795
9	0x3d006716	0.03134831
10	0x3f4ef6ca	0.8084532
11	0x3f8527ce	1.0402772
12	0x3fb6fd3b	1.429603
13	0xc0cb9d8e	-6.3629827
14	0x3ed6cc50	0.41952753
15	0xbe7402fd	-0.23829265
16	0x3f23a412	0.63922226
17	0x3c5ce1ab	0.013481538
18	0xbc4f1690	-0.012639657
19	0x3eb567a7	0.35430643
20	0x3eedf507	0.46476004
21	0xbd55befe	-0.052184097
22	0x3faeea78	1.3665304
23	0xbcdbcf45	-0.026832232
24	0xbeb186f2	-0.34673268
25	0x3bfcdd57	0.0077168155
26	0xbef84848	-0.48492646
27	0x3e87ab95	0.26498094
28	0xbf284bf4	-0.65740895
29	0x3fa39a11	1.2781392
30	0xbe794ae7	-0.24344979
31	0x3eb21057	0.3477809
32	0x3f31553d	0.6927069
33	0x3e07a15f	0.13245152
34	0xbe9181f9	-0.28419474
35	0x3f1179c3	0.5682642
36	0xbf083ffa	-0.5322262
37	0x3e9cd9c9	0.30634907
38	0x3e35d8a5	0.17758425
39	0x3f6b769a	0.91977847
40	0x3cf34275	0.029694775
41	0xbed54ba6	-0.41659278
42	0x3e1fb717	0.15597187
43	0x3ea772af	0.32704684
44	0x3f022c0b	0.50848454
45	0x3cc6e1b6	0.02427755
46	0x3daf2e15	0.08553711
47	0x3edf1f50	0.43578577
48	0x3dd24a8a	0.102681234
49	0x3f102295	0.5630277
50	0xbe8050b4	-0.25061572
51	0x3ba899e5	0.005145299
52	0xbf5028d2	-0.81312287
53	0x3d09647c	0.033543095
54	0xbe8870f9	-0.2664869
55	0x3f0dc730	0.5538206
56	0xbf2a9689	-0.6663595
57	0x3f0ee010	0.5581064
58	0x3f15780b	0.58386296
59	0xbd74a81c	-0.059730634
60	0x3ef495a4	0.47770417
61	0x3f2ee99c	0.6832521
62	0xbfb61e65	-1.4228026
63	0xbebea94c	-0.37238538
64	0xbef09972	-0.4699207
65	0xbe892fd6	-0.26794308
66	0x3f8f7f72	1.1210768
67	0x3f07a38d	0.52983934
68	0x3dc0b09e	0.09408687
69	0x3bffe4ee	0.007809273
70	0x3f47e418	0.7808242
71	0x3ef22552	0.47294098
72	0xbe401cdb	-0.18761007
73	0x3da32fd9	0.079681106
74	0x3fd153bf	1.6353682
75	0x3f261161	0.6487027
76	0x3f7e3856	0.9930471
77	0x3da4860c	0.0803338
78	0x3e9adf48	0.30248475
79	0xbcd1b95d	-0.025601083
80	0x3fa879d8	1.3162184
81	0xbd6f4a07	-0.058420207
82	0xbd6a1b92	-0.0571552
83	0xbe986693	-0.29765758
84	0xbd27e0b3	-0.040985774
85	0x3d101d26	0.035184048
86	0x3f7e72e0	0.99394035
87	0xbd75ec10	-0.06003958
88	0xbdcfb1eb	-0.10141357
89	0xbd2fab85	-0.042888183
90	0x3ea2ce1e	0.3179788
91	0xbc64afc0	-0.013957918
92	0xbd4150a0	-0.04719603
93	0x3f29b81b	0.6629655
94	0x3bc633ac	0.0060486402
95	0x3e94bec6	0.290518
96	0x3f0dfa16	0.55459726
97	0x3d8fdddc	0.07024738
98	0xbe83b78f	-0.25725982
99	0x3da28af4	0.079366595
100	0xbe7904c9	-0.24318232
101	0x3f1ca962	0.6119596
102	0xbe3217c3	-0.17391877
103	0x3fbaf10a	1.4604809
104	0xbd920ee9	-0.0713175
105	0xbe34dee6	-0.17663154
106	0x3de6af2f	0.11263882
107	0x3f29cb61	0.66325957
108	0x3ea345fb	0.31889328
109	0x3ccd4271	0.025056096
110	0xbbfdb5e1	-0.007742629
111	0x3ef98b41	0.48739055
112	0x3d505129	0.05085865
113	0xbe925dee	-0.28587288
114	0x3f01009f	0.5039157
115	0xbf454d78	-0.7707133
116	0x3ef70be3	0.48251256
117	0x3e36537e	0.17805287
118	0x3f49e9ad	0.78872186
119	0xbe31a8de	-0.17349574
120	0xbe2f59ad	-0.17124052
121	0x3fa48854	1.2854104
122	0x3e34d8fe	0.17660901
123	0xbbc1481a	-0.0058984878
124	0xbd664812	-0.056221075
125	0x3f0c2bde	0.54754436
126	0x3f02e8e3	0.51136607
127	0xbe3884b9	-0.1801938
128	0xbcc577c1	-0.024104955
129	0x3d1cfe1c	0.038328275
130	0x3d0db47b	0.034595948
131	0xbd4f343c	-0.050586924
132	0xbca4c454	-0.020113148
133	0x3ccfb4d7	0.025354786
134	0x3d3495e3	0.044088256
135	0x3b9f47aa	0.004860838
136	0x3f6c4bb3	0.9230301
137	0xbcaa0bdc	-0.020757608
138	0x39777445	0.0002359907
139	0x3da6e1dd	0.08148549
140	0x3a13ea23	0.0005642494
141	0xbdcfefd1	-0.10153163
142	0xbd3b4820	-0.04572308
143	0xbd09dd5a	-0.033658363
144	0xbd4c78c3	-0.049919855
145	0xbe68acba	-0.2272214
146	0x3d743411	0.059619967
147	0xbc1ea786	-0.009683495
148	0xbe5cfdc2	-0.21581176
149	0xbd132e96	-0.0359331
150	0x3ae88231	0.0017738995
151	0x3d9b48c9	0.07582242
152	0xbbe84af8	-0.007089015
153	0xbb24fc0a	-0.002517464
154	0x3e639486	0.22224626
155	0x3c2172d9	0.009854042
156	0xbe0e589a	-0.13900986
157	0xbc1ecccd	-0.009692383
158	0xbd283408	-0.041065246
159	0x3cc170a7	0.023613287
160	0xbda0baf6	-0.0784816
161	0x3b28ecab	0.002577583
162	0x3da572a2	0.08078505
163	0xbc47d293	-0.012196201
164	0xbdef6679	-0.11689467
165	0x3dd3c454	0.10340181
166	0x3e68bf03	0.22729115
167	0x3e27a62e	0.16371986
168	0xbd045df9	-0.03231618
169	0xbcf78039	-0.030212509
170	0xbe5e7e4f	-0.2172787
171	0xbe0833d0	-0.13301015
172	0xbc8c92f5	-0.017159918
173	0x3c55c46a	0.013047317
174	0x3b25092c	0.0025182469
175	0xbf085007	-0.5324711
176	0xbd309f42	-0.04312063
177	0xbde01fa9	-0.10943539
178	0x3d46d27c	0.048540577
179	0xbe36dead	-0.17858382
180	0xbc498962	-0.012300821
181	0x3ef2285a	0.4729641
182	0xbb99bb3b	-0.004691509
183	0xbc896e56	-0.016776245
184	0xbe554510	-0.20827127
185	0x3e9c473f	0.30523106
186	0xbea44908	-0.32086968
187	0x3c24b46a	0.01005278
188	0xbe024be7	-0.12724267
189	0xbba573b3	-0.005049193
190	0x3f3746fe	0.715927
191	0x3eeb6aaa	0.45979816

actor.4.bias f4 [3]
0	0x3e38f5cc	0.18062514
1	0x3f0fe2e7	0.562056
2	0x3c4aa25f	0.012367814
