preTrained/Pendulum-h-v1/2level/HAC_Pendulum-h-v1_level_1_actor.pth (torch_old, 20346 bytes, 6 tensors)

actor.0.weight f4 [64, 6]
000000 2e 83 91 3e 2c 46 c3 be c0 6f e6 bd e0 23 d1 3d
       0.28420395 -0.38139474 -0.11251783 0.10211921
000010 ab 85 37 3e 17 2c 12 be c8 1d 39 3e 88 3c a7 be
       0.17922084 -0.14274631 0.18077767 -0.3266337
000020 5d 85 f6 3d 09 bb f8 bd 89 19 77 be bd 8e bb be
       0.12037156 -0.12145049 -0.24130835 -0.36632338
000030 20 90 45 3e cd 0e 8c 3e 42 37 ab be ce 53 bc bd
       0.1929326 0.27355042 -0.33440596 -0.09195672
000040 99 db 5f 3e 13 7a ac be 24 5c 92 be 32 dd 64 3d
       0.21861114 -0.33686885 -0.28585923 0.05587501
000050 76 83 b0 3e 77 56 22 3e d0 37 5b 3e 1c 62 98 be
       0.34475297 0.15853296 0.2140801 -0.29762352
000060 e7 23 c3 3e 18 01 ba 3e 09 a2 3a bd 6d 24 47 be
       0.3811333 0.3632896 -0.045564685 -0.19447489
000070 cc 9e b0 be 9e 4d bd be 8b 28 32 be f1 09 85 be
       -0.34496152 -0.3697328 -0.17398278 -0.25984147
000080 b1 04 55 3e 07 b9 a0 bd 8a 4e 8a 3e 17 d0 60 3d
       0.20802571 -0.07847791 0.27013046 0.05488595
000090 a0 d1 ef 3e 5b 5a 3a be cf 72 e5 3d ea c5 68 3e
       0.4683962 -0.1819853 0.112035386 0.22731748
0000a0 fa 73 6b 3e 42 67 5d be d3 c0 0a be 76 19 33 be
       0.2299346 -0.21621421 -0.13550119 -0.17490181
0000b0 03 36 49 3d e8 b1 a5 be 50 b9 69 3e fe 52 5e 3d
       0.049123775 -0.32362294 0.22824597 0.054278366
0000c0 c8 3c 4b be 29 b0 39 3d dd 58 07 be 6d 3a 30 3e
       -0.19847405 0.045334015 -0.13217492 0.17209788
0000d0 64 ec 84 be a6 6c 46 be 45 b8 4c 3e b2 01 c4 bd
       -0.25961602 -0.19377384 0.19992168 -0.09570636
0000e0 3f 52 ef bd 28 34 39 bd d9 ed 65 be ba 50 bb 3e
       -0.11685609 -0.045215756 -0.22454013 0.36585027
0000f0 8f ed 65 be d5 bb d7 3d 5a 9e 9d be 1e 00 0b 3e
       -0.22453903 0.10533873 -0.30784875 0.13574263
000100 7d d1 93 bd 96 72 a2 be c9 05 99 be 93 8b ae 3e
       -0.07217691 -0.31728047 -0.29887226 0.34090862
000110 96 b4 9d be 9f 24 ae bd 6b ef 86 3e 66 a0 7e bd
       -0.3080184 -0.08503079 0.26354536 -0.062164687
000120 7b c4 d2 3e 1d 3a b3 3d 76 e0 c0 3e 5e 4e 47 3e
       0.41165528 0.087513186 0.3767125 0.19463488
000130 fa c5 98 3c 37 9d 9c be 2f a4 1c 3e f9 8b 99 3e
       0.01864909 -0.30588695 0.15297006 0.29989603
000140 bf 09 c5 3d 0b 77 ff 3d 6e 4c 9f 3e f8 ae e2 3c
       0.096209995 0.124738775 0.31113 0.027671322
000150 a2 1c b3 bd 5e 69 e4 3e 5f 8b 80 be d9 b0 f2 3e
       -0.08745696 0.4461164 -0.25106332 0.4740055
000160 d7 8b 88 ba 8d c5 93 be ef 3b bf be 2b 37 8f be
       -0.0010417652 -0.28861657 -0.37350413 -0.27971777
000170 4b 34 38 3e 90 2e 31 be 68 ea a8 be f9 b1 82 3e
       0.17988698 -0.17302918 -0.32991338 0.25526407
000180 83 16 8c be 69 f0 80 3e c5 98 05 be 14 c7 81 3e
       -0.27360925 0.25183418 -0.13046558 0.25347197
000190 fe a4 bb be ae ce 66 3e 57 bf cb bd 31 ba 8f 3d
       -0.36649317 0.2253978 -0.099486046 0.07017935
0001a0 4d 51 ab be 3c 43 f3 bd 8f 52 8f 3e ec a1 f2 be
       -0.33460465 -0.11878058 0.27992675 -0.47389162
0001b0 51 d1 10 3e 0a be b7 3e fe 39 4e 3e 4c e8 e2 3c
       0.14142348 0.35887176 0.2013931 0.027698658
0001c0 58 a1 c8 3e 69 34 c9 3e 57 af 93 3e e2 18 97 3e
       0.39185596 0.39297798 0.2884471 0.29511172
0001d0 83 c8 b0 be 3b 64 61 bd d4 98 b1 3e 96 ba d0 3e
       -0.34527978 -0.055027228 0.3468691 0.40767354
0001e0 d6 0a 05 be ab 7d 31 3e ff 74 53 3e 66 45 84 3e
       -0.12992415 0.17333095 0.20650099 0.25834197
0001f0 a4 77 b9 3e 7d 03 4c be 71 3b 44 be 65 1e 44 3e
       0.3622409 -0.19923206 -0.191633 0.1915222
000200 32 31 c9 3e f6 de 2e bb f2 40 3b bd c4 e0 60 3e
       0.39295346 -0.0026683188 -0.045716234 0.21960741
000210 b8 89 84 be 1f f7 26 be c5 ff 11 be 90 62 78 3e
       -0.2588632 -0.16305207 -0.14257725 0.24256349
000220 d1 ea 94 bb 4b e6 c1 bd ed 20 da 3d dd 83 ad bd
       -0.004544594 -0.09467753 0.10650811 -0.084724165
000230 03 90 09 be 53 ca 8f 3d cd a9 99 3e 4a 23 16 3e
       -0.13433842 0.07021012 0.3001236 0.14661899
000240 49 b7 68 3e 9b 8d a2 3e 50 a2 f9 bd e3 53 0a 3e
       0.22726168 0.3174866 -0.12189162 0.13508563
000250 55 53 51 bd 17 b6 79 be 68 99 9c be dd d0 a3 be
       -0.051104862 -0.24385868 -0.3058579 -0.31995288
000260 dd 63 df 3e e1 23 08 be 49 ad 9f be 02 a0 be be
       0.43630877 -0.13294937 -0.31186894 -0.3723145
000270 57 88 5e 3e 9d a6 55 3e 9e 15 76 bc f6 4c 69 be
       0.21731697 0.20864339 -0.015019802 -0.22783265
000280 a2 d1 8a 3e d5 d8 ef bd f2 1e f3 bd 79 c6 b8 be
       0.27113062 -0.11711279 -0.11871137 -0.36088923
000290 22 19 a4 bd 12 2e 9a be ec 1b 88 be 13 49 b6 3d
       -0.08012606 -0.30113274 -0.26583803 0.089006566
0002a0 3c dd cc 3e a6 8f 72 be 92 1f 77 be 16 af 24 be
       0.40012538 -0.2368761 -0.24133137 -0.16082415
0002b0 2b 53 70 be 2f 3d fe bd 83 a5 53 3e 38 ab 54 be
       -0.23469226 -0.124140136 0.20668606 -0.2076844
0002c0 99 7c 66 bd 68 a5 8e bc 5e 27 86 3e 47 11 b1 3e
       -0.05627117 -0.017412856 0.2620191 0.34583494
0002d0 81 d7 2b bd 3c 9e bf be 42 6e 9b 3e ed 8c a5 be
       -0.041953567 -0.3742541 0.30357558 -0.3233408
0002e0 ad 92 07 bd 4d be 63 be 6a bc 3a 3e 8d dd d2 be
       -0.033098865 -0.22240563 0.18235937 -0.41184655
0002f0 d1 41 0c be 62 30 b5 3e fa 47 7f bd ff 36 46 be
       -0.13696982 0.35388476 -0.0623245 -0.19356917
000300 de 91 c3 3e 2f 95 cb be fc bd 96 be 5b 8f 4d 3e
       0.38197225 -0.39762256 -0.29441822 0.20074217
000310 10 1d 2c be 09 06 e3 be 9b 3a 79 3e a0 d2 ab be
       -0.16807961 -0.44340542 0.24338762 -0.33559132
000320 e5 b3 68 3e 81 8b 67 be 95 3f 9b 3e d3 0a 83 be
       0.22724874 -0.2261181 0.30321947 -0.25594196
000330 29 ad 2a 3e 83 8c a7 be 15 90 9f 3e b8 37 57 3e
       0.16667618 -0.3272439 0.31164613 0.21017349
000340 af e8 aa 3e b1 9e 40 bd 26 b4 fb 3d d9 b8 b5 be
       0.33380648 -0.04702634 0.1229022 -0.3549259
000350 88 df ed bd e1 1b c0 be a5 25 9a 3d 96 67 72 3d
       -0.11614901 -0.3752127 0.075267114 0.05918082
000360 9a ae 8d 3e 15 b0 fc bc df bc 24 be 5e 99 67 bd
       0.27672273 -0.030845681 -0.16087674 -0.056542747
000370 78 84 93 be 19 83 fb bd 69 cb a8 be eb cb c9 bc
       -0.28812003 -0.12280864 -0.3296769 -0.024633368
000380 5f 4f 11 3d 4d 7c 8d be 1c c7 9a be df 51 59 3e
       0.035476085 -0.27633896 -0.30230033 0.21222638
000390 24 8d 82 be 68 60 98 3e 86 cb 27 be 9d 1b 0f 3d
       -0.25498307 0.29761052 -0.16386232 0.034938443
0003a0 89 f6 9d 3d d1 3d 1f 3e 8f 66 b0 be 8c ae 86 bd
       0.077130385 0.15550925 -0.34453246 -0.06576261
0003b0 17 d9 ab be b2 ed 9b be 67 0b 61 3e 87 de d4 bd
       -0.33564064 -0.30454785 0.21977006 -0.10394006
0003c0 ce 8e bb be 41 59 b2 3e 0d ce cb 3e 8e 5b af 3c
       -0.3663239 0.3483372 0.39805642 0.021405961
0003d0 2d 94 5d 3e bc 7c b9 bc c9 3b 9c bc dd 10 b3 be
       0.21638556 -0.022642486 -0.019071477 -0.34973803
0003e0 88 86 ca 3d 5a 74 b0 3d fb d5 77 3c 4e 47 02 3e
       0.09888941 0.08615942 0.0151267005 0.12722513
0003f0 72 b9 5e 3d f9 f5 19 3e 9d f0 ba 3e 27 02 f0 be
       0.054376073 0.15035237 0.36511698 -0.46876642

actor.0.bias f4 [64]
000000 f6 bd 96 3b ec 55 8f be 06 b3 7f be 3b 9a a9 3e
       0.004600282 -0.2799524 -0.24970636 0.3312548
000010 d5 71 98 bd 2f cc a4 3e 2e f1 10 be 93 99 a5 bd
       -0.07443587 0.3218703 -0.14154503 -0.080859326
000020 25 16 b8 3e 34 aa 71 3e 4a bc 13 be be 6f ea be
       0.35954395 0.23600084 -0.14427295 -0.45788378
000030 dc d9 8a 3e 64 f3 79 3d f0 91 27 be 40 68 82 3e
       0.2711934 0.06102313 -0.16364264 0.2547016
000040 5f 85 9e bc e0 49 83 be e4 7a b4 3e fa 8f c2 be
       -0.019350706 -0.256423 0.35250008 -0.3800047
000050 80 e5 5e 3a 65 2b 5f be e8 f9 b9 3e e4 69 d6 3c
       0.0008502826 -0.21793897 0.36323476 0.02617354
000060 8c c2 7c 3e 88 a1 08 be 42 59 bc 3e 1b 0c af bd
       0.24683589 -0.1334287 0.36786848 -0.08547231
000070 7e fa 46 3e 6b f0 07 3e 19 fa 38 3e 2c 29 34 be
       0.19431493 0.13275306 0.18064155 -0.17593831
000080 83 b4 ec bd b2 bb 94 3e f5 f5 28 be 4c ad 37 be
       -0.115578674 0.2904945 -0.16500075 -0.17937201
000090 81 54 c7 3e c4 6c 5f 3e cf e2 68 be a0 79 ae be
       0.3893166 0.21818835 -0.2274277 -0.34077168
0000a0 1c 6f 83 be 52 52 13 3e 16 f5 c3 bd 52 cb 64 be
       -0.25670707 0.14386871 -0.09568231 -0.22343186
0000b0 d3 55 c7 3e 87 03 a1 3e d6 8b 96 bd 80 a9 c2 3e
       0.38932666 0.31448004 -0.0735089 0.38019943
0000c0 6f b3 3e be 1d cc 0f be b0 6c 84 3e 0f 55 a9 3e
       -0.18623136 -0.14042707 0.25864172 0.33072707
0000d0 5c e4 56 be b3 b5 91 be 4e e9 11 3e e0 30 ae be
       -0.2098555 -0.28458938 0.14249155 -0.34021664
0000e0 8d 1e b2 3d e3 6e a3 be 52 17 f0 be 03 0e 43 be
       0.08697233 -0.31920537 -0.46892792 -0.19048314
0000f0 c3 57 15 3e b3 74 73 bd 71 1c b9 bc af bf 7b 3d
       0.1458426 -0.059437465 -0.02259657 0.0614621

actor.2.weight f4 [64, 64]
000000 58 a2 58 3d 30 73 88 bd 16 03 eb bd 0a 3b 9b 3d
       0.052889198 -0.06662595 -0.11475198 0.0757962
000010 54 72 eb bd 53 93 b1 3c 7a f8 f4 3d ef f4 f9 3c
       -0.11496416 0.021676695 0.11961456 0.030512301
000020 f2 44 88 bd f2 1f 9f bd a4 98 51 bd c1 4a 95 3d
       -0.06653775 -0.07769765 -0.05117096 0.07289649
000030 91 ae 1d bd 9f b3 9d bc ae a4 93 bd a6 9b c1 bd
       -0.038496558 -0.01925069 -0.072091445 -0.09453516
000040 1c 3b 1c 3d 87 0b 6a 3d 9c 6c 16 be 84 e0 f5 3c
       0.03814231 0.0571399 -0.14689869 0.030014284
000050 98 bd f9 bd 64 cd 91 3d ad 4e 93 bc 91 bd e1 bd
       -0.12194365 0.07119253 -0.017981851 -0.11022485
000060 e5 e4 00 be e9 a5 4a 3b 4c 7b be 3c 37 5c af 3c
       -0.12587316 0.0030921644 0.023252152 0.021406276
000070 83 0e a6 3d 9e aa e5 3c 0f 6d ea bd 00 62 7e bc
       0.08108237 0.028035458 -0.114465825 -0.015526295
000080 96 90 cb bc 38 da 2a bd 44 9b e5 bd d0 ed dd bd
       -0.024849217 -0.041712016 -0.11211255 -0.10836375
000090 7d ec ce bd 6d 4a c4 bd 73 cb 37 3d d4 19 a6 3d
       -0.101037 -0.09584508 0.04487176 0.08110395
0000a0 2b b3 05 ba e6 6b ec bd 72 c0 db bd bc 7b 8b bd
       -0.00051002455 -0.115440175 -0.107300654 -0.0681071
0000b0 ee 2c 5d 3d 67 76 34 bc e8 89 8d bd 83 e1 c0 bd
       0.053997926 -0.011014557 -0.06911069 -0.09418013
0000c0 04 54 80 bc d0 58 eb 3d d3 b0 98 3c 02 f5 c4 bd
       -0.015665062 0.11491549 0.018639004 -0.09617044
0000d0 76 82 71 bb 86 67 08 3d 7f 13 4b 3d 35 c7 6f 3d
       -0.0036851442 0.033301853 0.04957914 0.058539588
0000e0 ea 72 07 3c b2 fc 97 3d 60 69 a6 bc 4a bb e2 bc
       0.008267144 0.07421245 -0.020313919 -0.027677197
0000f0 bf 43 9c 3d fe 6e cd 3d 43 e8 af bd 6c 4c 3a bd
       0.07630109 0.10030936 -0.08589222 -0.045483038
000100 d2 5a cf bd 86 4b fc 3d 98 6f ff bc 56 96 4b bd
       -0.101247445 0.123190925 -0.031181142 -0.04970392
000110 c0 f7 54 3b 4a 1f d3 bd fe ec c4 bd cc 35 93 bc
       0.0032496303 -0.10308702 -0.09615515 -0.017969988
000120 25 cb 02 3d 08 8e b0 bd 04 c4 15 bd 48 eb ec bc
       0.031932015 -0.0862084 -0.03656389 -0.028920785
000130 79 6d 14 bd 55 05 a2 3d d4 ae 5a bd 42 ba 01 be
       -0.036237214 0.07911173 -0.053389385 -0.12668708
000140 63 4b 4e bd 60 27 c0 bc 7e 4d 9f bd 6c ee 1e 3d
       -0.050364863 -0.023456275 -0.07778452 0.038801596
000150 23 7a 86 3d 74 fa a1 bd a6 5a 99 3d 2c 90 4a bd
       0.065662645 -0.07909098 0.07487993 -0.0494539
000160 5d fd b2 bd 61 6b de 3d bf 54 a9 3d 20 aa 71 3d
       -0.087397315 0.10860325 0.08268117 0.059000134
000170 c8 64 28 3d c6 38 8f 3d dd 74 b1 3d 10 b8 66 bc
       0.041111737 0.069932505 0.08664868 -0.01408197
000180 32 e6 96 3d a5 de 08 be d0 05 34 3d 90 e3 6e 3d
       0.07368125 -0.13366182 0.043950856 0.05832249
000190 dc a4 c3 bd 5c 3d 8b 3d b4 ce a3 bd d0 d3 5e 3c
       -0.09552929 0.06798813 -0.0799841 0.013600305
0001a0 42 8f c8 3d 65 5d e5 bd e0 ee 6e bc 46 7d c1 3d
       0.09792949 -0.11199454 -0.014583319 0.09447722
0001b0 03 d2 a8 bd f7 be a0 3d 7a 35 8a 3d a4 d0 30 3d
       -0.082431816 0.07848924 0.06748481 0.043167725
0001c0 78 1e 9e bd 02 92 87 bd fd 29 97 3d 10 40 e6 3d
       -0.07720655 -0.06619646 0.073810555 0.11242688
0001d0 c8 f1 80 bc 14 6e 47 bd 96 c9 b8 3d f9 8e b9 bd
       -0.01574029 -0.048688963 0.090228245 -0.09060473
0001e0 dc 1b 1d bd 58 d2 ea bc 80 58 50 3b e8 27 ec bd
       -0.038356647 -0.028664753 0.0031791031 -0.11531049
0001f0 5a 4b fb bd 35 01 5c bd d6 76 a0 bd c5 1c aa bc
       -0.122702315 -0.05371209 -0.07835166 -0.020765672
000200 1c 0c e6 bd 28 39 94 3c f6 a0 85 bd 00 c6 1a bc
       -0.112327784 0.01809366 -0.065248415 -0.009446621
000210 0e 5f ce bd b0 8a 9b bd 3a 8c 9f 3d d0 92 02 3c
       -0.10076724 -0.07594812 0.07790418 0.007969573
000220 fc 27 0c 3d 60 88 bb bb f0 4c f4 3d 92 08 9d bd
       0.03421782 -0.0057230443 0.11928737 -0.0766765
000230 c0 88 c2 bd a0 64 09 3c 56 9e ed 3d c2 21 fb bd
       -0.09498739 0.008385807 0.11602466 -0.12262298
000240 56 0a f2 bd 28 10 b7 bd 4a a8 ef 3d fc cd ce bd
       -0.11818378 -0.089386284 0.117020205 -0.10097882
000250 00 e1 ff bb 48 4c 48 3d 60 1b 97 bc f0 8e 42 3d
       -0.0078088045 0.048900872 -0.01844567 0.047499597
000260 80 48 6d 3c 68 0f 02 bd d0 6f 14 3d 40 b3 1e bb
       0.014482617 -0.031752974 0.036239445 -0.0024215728
000270 e8 f1 91 bc 40 78 7a bd 10 d9 b0 3c 50 84 e4 3d
       -0.017815545 -0.061149836 0.021587878 0.11158049
000280 a8 4b 45 3d a8 0e 4b 3d a0 05 4b 3d 06 1d 95 3d
       0.048167855 0.049574524 0.04956591 0.072809264
000290 20 e8 d5 bd ec 6b e1 bd d4 46 a8 3d 30 78 b5 bd
       -0.10444665 -0.110069126 0.082166344 -0.088608146
0002a0 10 2e ea bd b8 0c f4 3d 4e c3 d4 3d 2c cb 31 3d
       -0.11434567 0.119164884 0.10388814 0.04340665
0002b0 a4 ee e2 bd 20 2d 34 bd b8 7a 4d 3d 96 84 b4 bd
       -0.11080673 -0.043988347 0.05016586 -0.08814351
0002c0 20 ae 3b 3d 88 19 0a bd d0 8f 9e bc 12 02 df bd
       0.045820355 -0.033715755 -0.019355685 -0.10889067
0002d0 48 2b d0 bc 84 20 7b bd aa 70 80 bd 54 1c 26 bd
       -0.025411263 -0.061310306 -0.06271489 -0.04055436
0002e0 f4 ce 88 bd 50 05 13 3d 64 6b 1f 3d 90 8d 3b 3c
       -0.06680098 0.03589374 0.038920775 0.011447325
0002f0 c8 91 09 bd 9c 05 e9 bd 9c ea a2 bd 14 01 9c 3d
       -0.033586293 -0.11378023 -0.079549044 0.07617393
000300 da 1c 9d 3d 7e 79 88 bd 22 07 0b bd cf f4 cd 3d
       0.076715186 -0.06663798 -0.03394235 0.10056459
000310 0e 88 e7 bc 43 59 0c 3d 0e 6f 84 3d db 8f 8b bc
       -0.028263118 0.034264814 0.064664945 -0.01703637
000320 97 47 e8 bb 77 4f 82 3d 20 f8 e9 bd c2 d0 26 3b
       -0.0070886123 0.06362813 -0.11424279 0.002545402
000330 44 21 70 3d dc 7e f4 bc 51 82 c6 bd c7 0d d2 bd
       0.058625475 -0.029845648 -0.09692825 -0.10256534
000340 ab ea 2e bd 6f 1b 35 3d c4 70 88 3d c6 ce 34 bd
       -0.042704266 0.044215616 0.06662133 -0.044142507
000350 29 57 97 bb f1 9a eb 3d 61 3d 9b 3d 02 bb 54 3a
       -0.0046185446 0.11504162 0.075800665 0.00081150245
000360 24 50 e4 3d 92 41 c7 3d 70 9e 9c 3d 59 98 e2 bd
       0.11148098 0.097293034 0.07647407 -0.11064214
000370 ba 2e 25 bd 5f e5 a3 3d 8e d4 85 3b b8 da b7 3c
       -0.040327765 0.080027334 0.0040841764 0.02244316
000380 29 ca 7b bd 3d e9 9d bd 27 9c 61 3d f7 a8 eb bd
       -0.06147209 -0.07710502 0.05508056 -0.11506837
000390 ef b8 b6 3d 1d de 9d bc 70 fa 59 3d 2a ec dc bb
       0.08921992 -0.01927095 0.05321735 -0.00674202
0003a0 0d a3 f2 bd a3 61 f4 3d 10 56 5b be 92 b6 bf bd
       -0.11847506 0.11932685 -0.21419549 -0.093609944
0003b0 65 1d 97 3d aa 8d 9f 3d 37 75 82 bd 62 c0 d9 bd
       0.073786534 0.07790692 -0.06370013 -0.10632397
0003c0 32 29 a8 3d b7 80 2c bd a2 03 9d 3c bb 53 29 bd
       0.082109824 -0.04211494 0.019166771 -0.041339617
0003d0 5d 7f c1 3d 77 28 96 3c 95 b8 c0 3d 2a 66 e7 3d
       0.09448121 0.018329842 0.09410206 0.11298783
0003e0 c4 af 2d bd 20 eb e4 bd 22 54 97 3a 07 c8 95 3d
       -0.04240395 -0.11177659 0.0011545459 0.07313543
0003f0 b9 8c d2 3d 3d e8 4e be 94 d1 72 3d 64 6b 1a 3d
       0.10280747 -0.2020578 0.0592819 0.037700072

actor.2.bias f4 [64]
000000 49 60 25 3c 70 39 ff bd 8a 03 a1 bd 9b 21 a7 3b
       0.010093757 -0.12462127 -0.07862003 0.0051004416
000010 bf e3 75 3d a5 d3 a0 3e 82 60 a1 bd 33 d5 c6 bc
       0.06003165 0.31411472 -0.078797355 -0.024271583
000020 98 d6 12 be 08 4d bc 3c e8 71 d2 bd 2b 26 a8 bb
       -0.14339674 0.02298595 -0.10275632 -0.005131503
000030 d4 2a a6 3d e1 f3 80 3e ab 3a 56 bd ab b1 8c 3d
       0.081136376 0.25186065 -0.052302044 0.06869825
000040 de c6 0b be 29 39 02 39 77 57 b2 3d 33 7b ec bc
       -0.1365008 0.0001241906 0.08708089 -0.02886734
000050 ae 49 0f 3d 14 fa b6 3d 69 66 9c 3c 88 7b 58 3d
       0.034982376 0.08934417 0.019091802 0.052852184
000060 4a a0 99 3d a1 39 ef bd 3e 48 c6 bd ac 87 94 3d
       0.07501276 -0.11680914 -0.09681748 0.0725244
000070 61 bf 5a bd a6 fd 09 be 2b be 0c 3e a5 0d aa bd
       -0.05340517 -0.13475665 0.13744418 -0.08303384
000080 0d 6a f6 3c 53 e2 82 3e 81 37 ab 3d 37 a3 fd 38
       0.030079866 0.25563297 0.08360196 0.00012094381
000090 17 88 9f 3d e6 c7 d2 bd e4 95 2f 3d af e7 fe bd
       0.07789629 -0.10292034 0.042867556 -0.12446534
0000a0 31 a3 3f bd 35 04 8d 39 18 d9 40 3d d4 d0 b9 bd
       -0.04678649 0.0002689675 0.047082037 -0.09073034
0000b0 43 28 67 bd 04 09 13 3e 54 81 d2 bd 63 89 80 3d
       -0.05643488 0.14358908 -0.10278574 0.062762044
0000c0 3c 36 c0 3c 4b 33 33 bd 2c ba b3 3d 55 aa 51 3d
       0.023463361 -0.04375009 0.08775744 0.051187832
0000d0 df a9 48 3c 7a 98 b8 bd 9e c7 69 3d 30 3c ae bd
       0.012247532 -0.090134576 0.057075135 -0.085075736
0000e0 64 32 04 be 88 26 9b bb e7 76 ea bb f0 45 3d bd
       -0.12909847 -0.004734818 -0.0071552875 -0.046209276
0000f0 e1 39 c6 3c ac 28 9d 3c 04 21 8e bd 65 e6 b0 bd
       0.02419752 0.019184433 -0.06939891 -0.08637694

actor.4.weight f4 [3, 64]
000000 58 e4 36 3d e9 c0 8b bd 0e 84 9e bd a3 96 2a be
       0.04465136 -0.06823904 -0.07740031 -0.16659026
000010 17 31 83 bd 61 2b e9 be 6d 58 73 bd 03 db 26 bf
       -0.064058475 -0.45540908 -0.0594105 -0.65177935
000020 83 c4 b0 3d 6a d7 aa 3b 57 4e 1d bd 4c 76 f5 bd
       0.08631232 0.0052136676 -0.03840479 -0.11985454
000030 fd 04 df bb 4a c5 d3 be e5 c4 eb bd e9 6b 38 bd
       -0.0068060146 -0.41361457 -0.11512164 -0.045024786
000040 34 f5 08 3d 9e 00 20 be f4 bd a9 be 88 ee f6 bd
       0.03343697 -0.15625235 -0.33152735 -0.12057215
000050 51 b2 fa bd f4 47 31 bd 15 1d 54 be d3 5a 46 3d
       -0.122410424 -0.04328151 -0.20714219 0.04842646
000060 b7 ba 94 bd 8e a5 81 3d 02 65 d7 bd 86 79 2e bf
       -0.072621755 0.06330405 -0.105173126 -0.6815418
000070 15 14 99 3c 13 2f 4c 3c f1 09 c8 be d9 cb c8 3b
       0.018686334 0.012462395 -0.39070085 0.006127816
000080 67 a4 d5 bc d6 b3 88 bd 53 ff a9 bc 93 c4 83 bb
       -0.02607937 -0.06674926 -0.02075163 -0.004021236
000090 09 76 04 be fd 28 21 be a9 4d 33 3b 62 c0 21 be
       -0.12935652 -0.15738292 0.0027359521 -0.15796044
0000a0 08 5e 77 bd 55 6f ae 3d 90 fb 5a 39 1f 28 15 bd
       -0.06039241 0.08517329 0.00020883814 -0.036415216
0000b0 22 04 ab 3d 4b 36 0a be a3 c3 20 be bb f5 c3 bd
       0.08350398 -0.13497274 -0.1569963 -0.09568354
0000c0 b8 f6 08 3d cd 0d 6d bc e7 5a 21 be 77 79 fa bd
       0.033438414 -0.014468622 -0.15757333 -0.12230199
0000d0 86 f7 3a 3d 31 8a 74 3d 94 9d d3 bd 6b 68 26 3c
       0.045646213 0.059702102 -0.1033279 0.010156731
0000e0 1f e0 3b bc 1f d1 03 be 66 3b a5 bd 2e 7a 4b 3d
       -0.011467009 -0.12872742 -0.0806797 0.049677067
0000f0 55 b9 07 be 01 ef a5 3d 6c 68 74 bb 9a 3e 33 be
       -0.13254292 0.08102227 -0.0037293686 -0.1750435
000100 94 79 be ba 68 36 d3 bd c0 03 82 3b 51 11 e6 bb
       -0.0014532083 -0.103131115 0.003967732 -0.0070211072
000110 43 28 5e 3d f2 d7 63 be 2f 21 cb 3c ec 93 57 bb
       0.054237615 -0.22250345 0.024796097 -0.0032894565
000120 15 67 9d 3d 36 a0 bf bd 3f e7 ac bd 0e c5 a8 3d
       0.07685677 -0.0935673 -0.08442544 0.0824071
000130 2a 47 06 3e ea be 4f be 46 09 90 3d 77 bd bd 3d
       0.13113084 -0.20287672 0.07033019 0.09264653
000140 14 d4 d1 3d bf 68 8a 3d 21 db 38 be 31 4e 79 bd
       0.10245529 0.0675826 -0.18052341 -0.060865585
000150 be 63 92 3d 6a f5 b6 bd 7b 70 02 be 78 85 a1 3d
       0.071479306 -0.08933528 -0.1273822 0.07886785
000160 9a 76 0e be fa 95 ce bd b4 77 71 bd 46 f4 8c 3c
       -0.1391243 -0.100871995 -0.05895205 0.017206322
000170 2d 74 8a 3d 27 37 77 3d 26 e2 2e be 18 44 51 3b
       0.0676044 0.06035533 -0.17078456 0.0031931456
000180 9b 41 36 be 05 a1 af bd 22 a4 08 bd 80 9e e3 3d
       -0.17798464 -0.08575634 -0.033359654 0.11114216
000190 f0 09 06 be a7 7f 2e 3d d4 54 38 be 8f f1 90 bd
       -0.13089728 0.042602208 -0.1800111 -0.07077324
0001a0 72 9b 42 bd e6 84 d2 bd 12 df a9 3d d5 03 c3 3d
       -0.047511525 -0.102792546 0.082945004 0.09522215
0001b0 77 3e c4 3c 92 92 1e be c5 2c cc 3c 71 e7 98 3d
       0.023955567 -0.154856 0.024923692 0.07466019
0001c0 28 e1 6d 3d 66 7a b7 3d df f1 af 3d 66 96 bb bd
       0.058076054 0.089588925 0.08591055 -0.091595456
0001d0 60 fd 22 3d f7 7a 03 be d3 9e c7 3d 33 49 c1 bd
       0.03979242 -0.12839876 0.0974709 -0.0943779
0001e0 b8 df aa bc 05 c7 96 3d cd 5a 75 3d eb 36 d0 3d
       -0.02085863 0.07362179 0.059901047 0.10166725
0001f0 f5 a2 bf bc 8a 24 78 bd d1 ea 0b 3d 94 4d 4b 3c
       -0.023393134 -0.06058172 0.034159485 0.012408633
000200 76 95 91 bc c4 87 77 bd d2 7b f7 3d 1f f5 15 bd
       -0.017771464 -0.06043221 0.12084164 -0.03661072
000210 da 2e 6e bd 2c 6f 03 be 5c 47 72 bc e7 fa 4b 3e
       -0.05815015 -0.12835377 -0.014787521 0.1991993
000220 1b 71 ed 3d ed 66 ad 3c bd 29 91 bc 4a a3 7d 3d
       0.11593839 0.021167243 -0.017720098 0.061923303
000230 08 70 bb bd 11 14 82 be 49 80 ae 3d c4 c4 82 3d
       -0.09152228 -0.25405934 0.08520562 0.06385186
000240 95 3d 46 3d 89 d6 d7 3d 73 6f 6c 3d d3 f8 c8 3c
       0.048398573 0.10538966 0.057723474 0.024532711
000250 31 9b c9 3d ba d3 74 bd 89 ca 18 bd 14 88 57 3d
       0.098440535 -0.05977223 -0.037302528 0.05262001
000260 a1 c6 ca ba ca 85 66 bd 20 7c 88 3c 88 40 a9 3d
       -0.0015470573 -0.056279935 0.01666075 0.082642615
000270 7b e5 bc 3d 66 b5 f6 3d 48 c7 5c be 1f 8f c8 3c
       0.092234574 0.12046318 -0.21560395 0.024482308
000280 93 b0 29 be 34 d4 90 bd 3e 79 51 bd d4 9d 98 bd
       -0.16571264 -0.070717245 -0.051141016 -0.07451978
000290 63 e3 8f 3d 9d a6 c4 bc b3 69 81 bd a2 38 10 3d
       0.070257924 -0.024005229 -0.06318989 0.03521026
0002a0 7d fc e1 3c ef 84 a1 bd 0f 23 d4 3d 9c ec 90 bd
       0.027586216 -0.07886683 0.103582494 -0.0707638
0002b0 92 66 a0 bd cf d9 c7 bd b5 8d a2 bc c2 f2 9c 3d
       -0.07832064 -0.097583406 -0.019842962 0.0766349
0002c0 ca 04 e8 bd 26 a1 7b 3d 74 a3 6c bd 08 0f 8e 3d
       -0.113290384 0.06143298 -0.05777307 0.06936461
0002d0 f0 4a c7 bd 2f c5 ec 3c 23 b7 92 bd 07 01 5d 3d
       -0.0973109 0.028902618 -0.07163837 0.053956058
0002e0 78 ae db bd 39 f5 6b 3c c3 63 c5 3d af 87 ec 3b
       -0.10726637 0.014401727 0.09638169 0.007218323
0002f0 5b 41 f7 b9 3c 8d bc bd 4c ad 67 3d 1e 69 9f 3d
       -0.00047160205 -0.09206626 0.056561753 0.077837214

actor.4.bias f4 [3]
000000 0b a2 99 bc 9c 5c 29 be 30 d4 ae 3d
       -0.018754026 -0.16539234 0.08536565
