preTrained/Pendulum-h-v1/2level/HAC_Pendulum-h-v1_solved_level_0_actor.pth (torch_old, 19830 bytes, 5 tensors)

actor.0.weight f4 [64, 6]
000000 a3 7a e5 bb 5f 8a 3f bf 53 75 20 3f 8f 62 87 be
       -0.007003145 -0.7482051 0.6267902 -0.26442382
000010 44 93 87 3f 12 96 87 be f1 0a b1 be f9 d8 af bf
       1.0591817 -0.26481682 -0.3457866 -1.373809
000020 cf bc 79 be 01 82 6d 3e 50 b0 7f 3f 25 a2 65 3e
       -0.24388431 0.23194124 0.99878407 0.22425134
000030 1e 36 80 3e f5 e5 79 3f 9c 24 b4 3c 2a ed 41 be
       0.25041288 0.9761651 0.021990113 -0.18938127
000040 5f a4 d7 3f 7c 61 99 3c 49 4f 2b be f0 d7 c9 be
       1.6847037 0.018723242 -0.16729464 -0.3942256
000050 c7 36 c1 3e 60 57 21 3e ae ab 9d 3f 41 04 2a bf
       0.37737104 0.15755987 1.2318017 -0.6641274
000060 0a ad 1e 3e 1a 78 6c 3e fc 31 3e 3f 96 e6 0e be
       0.15495697 0.2309269 0.7429502 -0.13955149
000070 25 3d b7 3e 05 8e 3d bf 0b 55 82 3e 89 9e c4 3e
       0.35788837 -0.7404483 0.25455508 0.38402203
000080 98 87 8d be 9f 93 df 3d 72 c6 a9 bf e1 e4 7f be
       -0.27642512 0.10916828 -1.3263686 -0.24989654
000090 ae 09 f2 3e 8d 83 50 bf 67 e9 3e bf 5c a4 d5 be
       0.4727301 -0.8145073 -0.74574894 -0.4172696
0000a0 e0 a4 cc bd 22 a3 4f 3f b3 4a 4a 3f 97 38 b9 bf
       -0.09992385 0.81108296 0.7902023 -1.4470395
0000b0 64 a2 8b 3e 29 60 89 be cf d8 a8 bf fd 3f df bd
       0.27272332 -0.26831177 -1.3191165 -0.10900877
0000c0 d7 de 95 be e2 0f fd 3e 59 28 a6 be 21 b0 30 bf
       -0.29271576 0.4942618 -0.32452658 -0.6901875
0000d0 d6 99 ad bf b0 8b 99 be c3 56 d9 bd 63 74 d9 bc
       -1.3562572 -0.29989386 -0.106122516 -0.026544755
0000e0 10 09 70 3f c7 6f d3 be 51 a1 5f 3f 72 d4 5b bf
       0.9376383 -0.41296217 0.87355524 -0.8587104
0000f0 0b 10 37 3e b3 14 86 bf 02 ee 80 be e4 55 5c 3e
       0.17877214 -1.0475067 -0.25181586 0.2151714
000100 72 2b 27 bf df df 4f 3e 3c c5 69 3e 0d f7 bb bf
       -0.6530067 0.20300244 0.22829145 -1.4684769
000110 8b 56 5c be 69 d3 64 3d 75 04 09 be bf fd 9a be
       -0.21517389 0.05586568 -0.13380606 -0.30271718
000120 b6 f5 cd 3d 2f b2 9d 3e 38 16 40 bf e2 72 cc be
       0.10056631 0.30800006 -0.75033903 -0.399314
000130 df dd 38 bf 8b 59 11 3e ab 8f 87 be e5 fa 43 3f
       -0.7221355 0.14194314 -0.26476797 0.7655471
000140 3b 33 ac 3e 9a 44 3a 3e 32 a8 9f bf f3 94 79 be
       0.33632836 0.18190232 -1.2473204 -0.24373226
000150 8f d2 0d 3f b9 c6 9b bf 23 c8 b9 3e a2 45 67 be
       0.5539941 -1.217002 0.36285505 -0.22585157
000160 98 5c 06 3f ef d2 3e be 63 a7 2e 3e 49 f9 8b bf
       0.52485037 -0.18635152 0.1705604 -1.0935451
000170 51 c9 b3 bd 60 d1 e0 3e 03 a5 41 3f 5f 77 e2 bd
       -0.087786324 0.4390974 0.7564241 -0.110579245
000180 7e ec c0 3d 05 1e 72 3f 9e 28 5d be 9c 24 01 3f
       0.09420107 0.94577056 -0.21597525 0.50446486
000190 fd 15 18 bf 3d ab 0d bf 75 74 53 bf f4 da 82 bf
       -0.5940855 -0.55339414 -0.82599574 -1.0223069
0001a0 8c 7b c7 be 16 bf 78 3f 0e f2 2b 3f 87 b5 a2 3e
       -0.38961446 0.97166574 0.6716622 0.3177912
0001b0 4d f1 93 3d de 80 a4 3e ae 97 be 3d d8 90 9f 3e
       0.07223759 0.32129568 0.09306274 0.31165195
0001c0 b2 be 8b 3e 39 ef 46 bf f2 5d c3 3f e2 33 7f 3e
       0.27293926 -0.77708775 1.5263045 0.24922135
0001d0 0e 1d 85 be 6d 12 18 be 0c f3 80 3e eb 95 20 bc
       -0.2599873 -0.14850779 0.2518543 -0.009801368
0001e0 42 1b 5b be d4 d4 26 3f f4 b7 5e 3e c4 1b 6a 3f
       -0.21397117 0.651685 0.2174986 0.91448617
0001f0 d7 f3 4b bf e8 0b d2 be 3b ab 73 3f 00 65 a4 3d
       -0.79668945 -0.4102471 0.9518315 0.08027077
000200 26 32 8a 3e a6 e6 aa 3e 3e 7d d1 3e 46 0a 95 3d
       0.26991385 0.33379096 0.40915865 0.0727735
000210 8f c9 b8 3f b5 1a 19 be 06 8c ea 3e d2 01 b3 3f
       1.4436511 -0.14951594 0.45809954 1.398493
000220 45 60 4a 3e f8 a5 d3 bc 51 81 4f be 44 86 18 3e
       0.19763286 -0.025835976 -0.20264174 0.14894968
000230 3e 36 71 3e 8c 0e a6 3f 72 a2 8f bd 46 b4 91 be
       0.23555848 1.2973189 -0.07013406 -0.2845785
000240 b8 79 87 3f 2f 8b fe 3e 3b 04 08 3f 69 7c 8c be
       1.0584021 0.49715564 0.53131455 -0.27438667
000250 90 e8 59 bf 3b 70 97 3d a9 e5 0a 3f a7 6f 4d 3f
       -0.8512049 0.07394453 0.54256684 0.8024849
000260 7c e8 fc be 2c 7c 2e be e0 ee fc be d0 33 7f 3d
       -0.49396122 -0.17039555 -0.49400997 0.06230527
000270 62 cd 3d 3e 68 e3 60 bd dd ce 28 be 4b c5 b7 3e
       0.18535379 -0.05490437 -0.16485162 0.3589271
000280 3d a7 cd 3f 99 de 1a be 93 11 b4 3e 8e 68 22 3f
       1.6066662 -0.15123977 0.35169658 0.6344079
000290 ff 9b 39 bd 95 6b 6f be 39 8a 95 3f 11 48 27 be
       -0.045314785 -0.23380883 1.1682807 -0.16336085
0002a0 3f 99 b5 be e8 4e 5d 3f 41 2f b9 be 62 83 db bd
       -0.3546848 0.86448526 -0.36168864 -0.10718419
0002b0 52 86 82 bf be c6 1a be 80 05 2a be 43 81 91 bf
       -1.0197241 -0.15114877 -0.1660366 -1.1367573
0002c0 8d 1c 35 be 54 e3 ca 3e 1d 40 55 bf 69 a9 c5 3e
       -0.17686673 0.39626563 -0.83300954 0.38605812
0002d0 c4 2f 35 3f 96 9a 6a 3f 02 1a c7 3e 1c 97 d2 bd
       0.7077601 0.9164213 0.3888703 -0.10282728
0002e0 a7 e0 91 be ca 5a 35 bf be fa de be c3 b1 a9 bf
       -0.2849171 -0.7084166 -0.43550676 -1.3257374
0002f0 9c a3 a5 be 6c 93 0e 3f 2f 1f 7e 3f 58 5d ba 3e
       -0.32351387 0.556937 0.9926633 0.3639934
000300 d9 0e db be 56 b3 cf 3f 01 30 0d 3d 29 0e 33 3e
       -0.42784765 1.6226604 0.03446961 0.1748587
000310 33 56 33 bf 8e 9d 21 bd 24 da 17 3f 19 3d 8c bf
       -0.70053405 -0.039456896 0.5931723 -1.0956146
000320 8a 2c 0d bf 0e ff 3f 3c 9a 40 9e 3e 82 1d 1e 3e
       -0.55146086 0.011718525 0.30908662 0.15440944
000330 f5 f4 00 3f 91 1d 39 3f 7c d3 03 be ea 3a ad 3e
       0.50373775 0.7231074 -0.12873644 0.3383401
000340 bd 07 7e 3d 7d 85 fd be 05 68 bc 3e d1 f1 35 3f
       0.0620191 -0.49515906 0.3679811 0.7107211
000350 a5 5c 6f 3e eb 10 ef 3e 88 bf 90 3f bb b9 a8 3e
       0.23375185 0.46692595 1.1308451 0.329542
000360 88 a4 3f 3f 70 18 9f 3e b6 7e da be f9 b1 14 be
       0.7486043 0.31073332 -0.42674798 -0.14521016
000370 85 13 bb be bd 85 1d 3f 56 c1 bd 3f 3a d6 2e 3f
       -0.3653833 0.61532193 1.4824626 0.68295634
000380 d6 f6 b6 be ca e1 05 bd 3e 43 4e be 0f ff 09 be
       -0.35735196 -0.032686032 -0.20142838 -0.13476203
000390 35 65 07 3c b1 a3 f2 3e bd 6c 52 be 3e e8 66 3f
       0.008263876 0.47390512 -0.20549293 0.90198123
0003a0 df ce ba 3e 80 3f d6 3e d0 d6 4f bf be 5a 28 be
       0.36485955 0.41845322 -0.8118715 -0.16440865
0003b0 d8 71 83 bd 87 b4 ca 3f c9 0c 12 be a0 53 44 3e
       -0.06418198 1.5836343 -0.1426269 0.19172525
0003c0 a0 6f 16 bf 6f bb d0 3e dc 76 30 be 9b 36 17 3e
       -0.58764076 0.40768 -0.17232841 0.14766924
0003d0 67 74 d5 bf 40 92 28 bc 9b fa 1e bf 0d 2d 56 3e
       -1.6676148 -0.010288775 -0.62101144 0.20915623
0003e0 92 8c e7 bd 8a 4c 61 3f 5d b6 5e 3f 9c 4b e3 be
       -0.113061085 0.88007414 0.86997014 -0.44393623
0003f0 73 62 2c 3f b2 b9 e2 3f 63 e1 a5 3e 4f 0e f4 bd
       0.6733772 1.771292 0.3239852 -0.11916792

actor.0.bias f4 [64]
000000 c1 65 f0 bd cb 88 2f 3e 72 16 a8 be 45 5e 49 3e
       -0.11738158 0.17142026 -0.32829624 0.19664867
000010 54 68 a3 3e 8f b8 4a bf e3 c5 f4 3e 16 02 aa be
       0.31915534 -0.79187864 0.47807226 -0.33204716
000020 dd 6f 22 be 31 06 2c be d1 c4 9e be 2a 96 1d bf
       -0.15862985 -0.16799237 -0.31009534 -0.6155726
000030 61 84 ca 3d aa 82 88 3e 8f b7 18 bd a4 41 da be
       0.098885305 0.2666219 -0.03728443 -0.42628205
000040 bc 19 b5 be 07 56 16 be 86 44 02 bf be 94 ef bd
       -0.35371196 -0.14681254 -0.5088581 -0.11698292
000050 bc 62 c2 3c 17 89 3a bf 02 28 a1 bf 11 c0 14 3e
       0.02372872 -0.7286543 -1.2590334 0.14526393
000060 e2 f3 58 bf 18 78 80 3d ae f7 b5 3d eb 18 8b bd
       -0.84747136 0.06272906 0.08885132 -0.06791862
000070 f0 e2 89 be 17 76 12 bf 9e b0 bb be 98 01 1e be
       -0.26930952 -0.5721144 -0.36658186 -0.15430295
000080 89 ef a8 be f6 19 be bc be 76 0c be 0f d3 19 3c
       -0.3299525 -0.023205739 -0.13717172 0.009388699
000090 4d 00 7b be a4 e4 8e be 3b 7b 1b bf fc ae f0 3e
       -0.24511833 -0.27908814 -0.6073491 0.47008502
0000a0 d6 f3 19 bf 28 b2 8d 3e b9 23 49 3d 8a 37 79 be
       -0.6013769 0.27674985 0.049106333 -0.24337593
0000b0 8e 26 09 bd bf f8 1a bf fc d6 7f bf e3 47 cf bd
       -0.033484034 -0.60535806 -0.99937415 -0.10121133
0000c0 07 cf 46 3e 51 de 7f 3e af 7a 91 3e 9e c1 ce 3e
       0.19414912 0.2498715 0.28413913 0.40382093
0000d0 8f 07 77 bf 58 19 28 bf 6c 38 3c be a1 45 32 bf
       -0.9649591 -0.6566367 -0.18380898 -0.69637495
0000e0 eb 80 54 3d 71 25 a4 be 0b 73 bd be ba c2 4f 3e
       0.05188076 -0.32059816 -0.37001833 0.20289126
0000f0 45 ef da be 17 ca 0c 3e ad bb 71 bf 34 7f 6f 3e
       -0.42760673 0.13748966 -0.94426996 0.23388368

actor.2.weight f4 [64, 64]
000000 8b de ad 3c 03 ac 4a 3e 0b 0a ca 3e 41 80 81 bf
       0.02122428 0.1979218 0.39460787 -1.0117265
000010 fb c0 40 bf 8d 63 89 bc 1a 4a 05 3f c7 e0 04 bf
       -0.75294465 -0.016771102 0.52066195 -0.51905483
000020 a4 8d 9f be 37 be 4c bf f8 b5 28 bf 71 6c 0a 3f
       -0.3116275 -0.79977745 -0.6590266 0.5407172
000030 47 24 ed be e7 c0 01 be 0a 59 92 be 3d 40 0b 3f
       -0.4631674 -0.12671243 -0.28583556 0.54394895
000040 fe 6d 9b be 11 6a 74 bf c3 1d 11 3e 69 62 ff be
       -0.30357355 -0.95474344 0.1417151 -0.49879768
000050 48 f0 f6 bd 41 f4 f1 be b6 a6 a0 bf 90 99 80 bc
       -0.12057549 -0.47256663 -1.2550876 -0.015698224
000060 55 ed 30 3e cd 10 90 3d 9b 69 0a 3f b0 af 1e 3e
       0.17278035 0.070344545 0.5406739 0.15496707
000070 b5 a0 39 3e f7 3d d2 bd ca b5 94 bd fe fb fb be
       0.18127711 -0.10265725 -0.07261236 -0.49215692
000080 ed d3 9b 3d 89 5a 26 be 25 94 1f 3d 90 b9 6c 3d
       0.07608781 -0.16245474 0.03895964 0.057794154
000090 f6 76 95 3e 7b 01 28 3e 5b 29 d5 3e a4 32 b6 be
       0.29192322 0.16406815 0.41633114 -0.3558551
0000a0 70 ec 15 bf 9e df 8a 3e 8f 8a 9f be 7f c4 d8 3e
       -0.585639 0.2712373 -0.311604 0.42337415
0000b0 2c 42 e1 3e 8f 72 1c 3e 33 9d 61 bf 13 2d 28 3f
       0.43995798 0.15278076 -0.8813049 0.6569378
0000c0 e4 f6 7d bf 79 ef b8 3d 17 88 bc 3e 9e 30 cb 3e
       -0.9920485 0.09030051 0.36822578 0.3968553
0000d0 15 6e 90 be 21 b8 13 3f ca bc 95 be 92 fa 5a 3f
       -0.28208986 0.57702833 -0.29245597 0.8553859
0000e0 5d a6 48 bf 7d 24 aa 3e e1 f2 5f 3d 20 7c 34 bf
       -0.7837885 0.33230963 0.054674987 -0.705019
0000f0 6a 77 21 3f 2f 7d 12 3e f0 69 ac 3e f1 92 66 3e
       0.63072836 0.14305566 0.33674574 0.22516991
000100 ec 0b 18 bf f6 66 db bf 23 74 d5 3e 4d dc 84 3e
       -0.5939319 -1.7140796 0.41690168 0.25949326
000110 e8 24 5a 3e 39 e0 c9 3d a3 38 d2 3e c1 7f 44 3d
       0.21303141 0.0985722 0.41058835 0.047973398
000120 f6 37 14 bd bc d9 8c 3e bb 57 17 be 5d 15 57 bf
       -0.03618618 0.27509868 -0.1477956 -0.8401697
000130 3e 5c 9d 3e 5a d5 1c be 32 da 01 bf b9 d6 0f bf
       0.30734438 -0.15315762 -0.50723565 -0.56187016
000140 3f a1 11 3e 95 9b 7a be 8c fd 1a 3f c1 1a 4c 3f
       0.14221667 -0.24473412 0.6054313 0.79728323
000150 b9 d7 0c bc 42 fa 89 3e a1 a0 2b bf ed ad 2f 3e
       -0.008596354 0.26948744 -0.67041975 0.17156191
000160 ea 17 27 bf 39 44 76 bd 34 3d f1 be 37 55 76 be
       -0.65270865 -0.060123656 -0.47117007 -0.24055944
000170 e1 ce 48 3c f1 4c e3 be db 12 3d 3e ef e3 29 be
       0.012256355 -0.4439464 0.18464224 -0.16590856
000180 b1 cd 20 be b7 e1 02 be 69 84 8a 3e ae c0 25 bf
       -0.15703465 -0.12781416 0.27054146 -0.6474713
000190 37 4b 82 3f 5d b9 12 be 4d 0f b4 3e f4 58 fa 3e
       1.0179204 -0.14328523 0.35167924 0.4889599
0001a0 7c a4 8c 3e bc 79 aa 3e c1 6a b7 bd dc 3b 76 bf
       0.27469242 0.33296 -0.089559086 -0.9618509
0001b0 d8 a3 9a 3e 66 ed b1 3e 98 d4 43 be 6d 03 b2 be
       0.30203128 0.34751433 -0.19124067 -0.3476824
0001c0 cd d0 df 3d ba 75 2c bd 5c ca b2 be 63 4d 67 bf
       0.109284975 -0.04210446 -0.34920013 -0.9035246
0001d0 7c 3a 0f bf bc 14 16 be e7 79 bd bf 2e 94 f8 bf
       -0.55948615 -0.14656347 -1.4802827 -1.9420221
0001e0 c9 1f 19 3f 0d 00 9f bf b5 98 dd 3e c0 0d 9f 3e
       0.59814125 -1.242189 0.4328057 0.31065178
0001f0 da 30 73 3e 7c c2 ab be 4e 8b 02 3f 09 bd 11 3e
       0.23749104 -0.33546817 0.5099381 0.14232267
000200 fa 41 0c be cb 22 a8 bf 41 d7 47 3f f4 cb e7 be
       -0.13697043 -1.3135618 0.78062826 -0.4527279
000210 b2 be 4a 3e ce 65 15 be da 31 cb 3e 5c 0a a7 3e
       0.19799307 -0.14589617 0.3968647 0.3262509
000220 38 6d 1f bf 6c aa ab bd ac 93 72 be f3 b3 00 bf
       -0.6227603 -0.08382115 -0.23689145 -0.5027458
000230 c2 02 db 3d b2 33 1a 3d a3 1f c4 be cb 10 d2 be
       0.106938854 0.037646957 -0.38305387 -0.41028437
000240 af 07 e1 3d a6 25 c8 3d bd b9 b8 3c 27 b4 97 3f
       0.10987794 0.09772806 0.022549504 1.1851853
000250 30 25 89 3c ab 24 05 be b1 83 85 bf b0 db 70 3f
       0.016741365 -0.13002269 -1.0430814 0.94085217
000260 6b 32 b9 be 54 50 cc bb 0c 57 0e be 70 d2 3f bf
       -0.36171278 -0.006235162 -0.13900393 -0.7493048
000270 c5 cb ca be 68 8e 7d bd 42 af 64 3e 84 3e 1d be
       -0.3960859 -0.061903387 0.2233248 -0.15355879
000280 d1 df 04 3e 33 ce 53 3e 24 d5 a7 3d a2 4c 07 bf
       0.12976004 0.20684128 0.0819495 -0.5285131
000290 96 b8 78 3f 4c ee 47 3e 39 62 e9 bc 2c 67 e1 3e
       0.97156656 0.19524497 -0.028489219 0.44024026
0002a0 94 83 1d 3e 83 5c 84 bd b7 28 9c bd 81 9e d9 be
       0.15382224 -0.06462958 -0.07624953 -0.4250374
0002b0 b0 99 74 bc 07 04 6f 3f 37 87 c7 be 50 38 c6 bd
       -0.01492922 0.9336552 -0.38970348 -0.096787095
0002c0 a5 6e d0 be 7a 12 b7 be f9 d5 29 bd c4 c5 f6 be
       -0.40709415 -0.35756284 -0.041463826 -0.48197758
0002d0 4f bf aa be cb 4c 84 be 22 be f3 be 0e 0e da bf
       -0.33349082 -0.25839838 -0.47605997 -1.7035539
0002e0 7f 7a 56 3f 9a 9f 5b bf d3 c7 b6 3e 33 37 97 bd
       0.83780664 -0.8579041 0.3569933 -0.07383575
0002f0 b4 81 3c bb aa 34 d5 be 30 10 47 3e 8f 50 84 be
       -0.0028763833 -0.41641742 0.19439769 -0.2584271
000300 f0 1e 86 be 5f 8b ed 3e 61 bc 38 be 6a d1 71 bf
       -0.26195478 0.46395394 -0.18040611 -0.94460166
000310 49 3b ed bf 92 5d e1 3e bf bc 97 3e 6f 9d 81 be
       -1.8533717 0.440167 0.2963619 -0.25315425
000320 f3 cd fb 3d d4 88 20 c0 61 9c 2d 3e bd ec 5a bd
       0.12295141 -2.5083513 0.16954185 -0.053448427
000330 49 24 ee 3e 70 a1 eb 3e 0d f4 e6 3d 05 d9 af be
       0.46512058 0.46021605 0.11277018 -0.3434526
000340 f4 3e 0f 3e 01 ae 3d bf 0a 34 0d bd 53 6d 22 3f
       0.13988858 -0.74093634 -0.034473456 0.63448066
000350 07 40 0e bf 42 88 1c bf e8 80 a7 be 0a 04 8c be
       -0.5556645 -0.6114541 -0.32715535 -0.27346832
000360 16 19 14 bf 38 ca d3 3e e3 46 4e 3e 38 1d 43 be
       -0.5785078 0.41365218 0.20144229 -0.19054115
000370 eb 17 0c bc 81 3b 72 bf d7 0a f0 be a1 53 05 bf
       -0.008550624 -0.94622046 -0.4688327 -0.5208073
000380 7a 8b af bd 4a 76 25 3e 57 5c 8a 3e d4 12 42 3e
       -0.08571525 0.16158405 0.27023575 0.18952495
000390 d4 67 91 3d f6 61 f5 3d 04 62 16 3e f9 6d 6e be
       0.07099882 0.11981575 0.14685827 -0.23284139
0003a0 c3 7d 15 3f f6 78 59 3d 07 e4 64 bf c0 3c 03 3e
       0.5839502 0.053093873 -0.8941044 0.12816143
0003b0 a3 ce 40 3d 3e 97 fc bd e5 eb 84 bf 0d aa 29 bd
       0.047072064 -0.12333535 -1.0384489 -0.04142194
0003c0 2a bd 8f bf 0d db 2d be e7 a8 7b bf 03 57 9d be
       -1.1229603 -0.16978092 -0.983046 -0.30730447
0003d0 39 c7 f8 3e 99 2f 78 3f e5 2c 8f be af c8 07 3f
       0.48589495 0.9694763 -0.2796394 0.53040594
0003e0 c6 3b be 3e f9 f6 4f 3e 6e 83 49 bf 38 e4 52 3d
       0.3715498 0.20309056 -0.7871617 0.051487178
0003f0 29 08 a9 be b7 07 0e be e3 23 f2 be 02 0b c9 3c
       -0.33014038 -0.1387013 -0.47293004 0.024541382

actor.2.bias f4 [64]
000000 89 eb b7 3e 90 d2 3e be e1 df 8c 3d 08 4f 04 3a
       0.35921887 -0.1863501 0.06878639 0.0005047177
000010 52 82 a3 3d 73 e9 13 bf f8 ca e4 3e e1 39 74 3e
       0.07983841 -0.5777809 0.44686103 0.23850204
000020 98 97 cf bc d7 fc 66 be fe 4f aa be 85 1a 15 be
       -0.02534084 -0.22557388 -0.33264154 -0.14560898
000030 f4 12 ac 3d c2 61 82 be 51 ad f3 be db f4 b0 be
       0.084020525 -0.25465208 -0.47593167 -0.3456181
000040 6c 9c 7b be 93 b3 5b be d1 5a ed be 53 19 4c bd
       -0.24571389 -0.21455221 -0.4635835 -0.04982884
000050 44 de 1e 3e a4 1b 96 be 64 d5 e7 be 33 5c 02 be
       0.15514475 -0.29317963 -0.45279992 -0.12730484
000060 e9 b3 b1 3d 93 6e ce bd ce c2 f0 be bd 1a c4 be
       0.08676893 -0.10079684 -0.47023624 -0.3830165
000070 f6 5c 08 bf 95 af 0a 3f c6 a5 7d bd e8 ca 10 bf
       -0.5326685 0.54174167 -0.061925672 -0.5655961
000080 90 f4 c9 be 55 c3 d2 be 91 02 71 bb 45 74 93 bd
       -0.394444 -0.41164652 -0.0036775211 -0.07199911
000090 19 0f b4 3c 17 13 a6 3d 4c a7 39 be ef db 08 bd
       0.021979855 0.0810911 -0.18130225 -0.03341287
0000a0 bc a7 98 bc 79 84 32 bf 3a bb 62 be 9d 18 64 bd
       -0.01863467 -0.6973339 -0.22141734 -0.055687536
0000b0 41 5a 3f be 74 8b 0e 3f e3 67 a0 3e 7a 3c d9 be
       -0.18686773 0.5568154 0.3132926 -0.42428952
0000c0 38 1f 9c 3c 1a 87 59 3d 1f 7e 01 bf bc e2 e2 3d
       0.019057855 0.05310736 -0.5058307 0.110784024
0000d0 c7 2f 11 be 54 4d d1 be 13 64 1c bd 79 51 e8 be
       -0.14178382 -0.4087931 -0.038181376 -0.4537466
0000e0 5d 3d 69 bc 8b 03 95 bd 6e 07 29 3e 1c f2 dc be
       -0.014235822 -0.072760664 0.1650674 -0.43153465
0000f0 ec 59 7f 3e 8e 40 cf 3c 5a 8e df bc 7e e2 99 bd
       0.24936646 0.025299337 -0.027289558 -0.07513903

actor.4.weight f4 [1, 64]
000000 bb bc ff 3e 10 44 1e 3f 4c 8e 17 3f b9 5f 50 3f
       0.49948677 0.61822605 0.592015 0.8139606
000010 ae 9b 19 3f b6 ff 41 3f 5d 54 ed 3f 71 04 ed 3e
       0.60003173 0.7578081 1.8541371 0.4629245
000020 16 d9 b6 3e e9 72 67 bc 45 9b 0f 3f 13 b6 67 3f
       0.35712498 -0.014126518 0.560963 0.905122
000030 57 3a 8e bf d6 f4 85 3f 24 87 c5 be db 2e b5 3e
       -1.1111554 1.0465343 -0.38579667 0.3538731
000040 5e dc 23 bf 3f 18 e3 3e 54 20 f8 3e 24 5a 5f bf
       -0.6400813 0.44354436 0.48462164 -0.8724692
000050 cd 6f 30 bf 29 0f 95 bf 53 99 92 bf 04 b9 25 bf
       -0.68920594 -1.1645252 -1.1453041 -0.64735436
000060 18 b3 62 bf ee 0e a1 bf 24 34 f1 be 4a d2 85 bf
       -0.88554525 -1.2582681 -0.47110093 -1.04548
000070 19 a7 58 bf 3a de 89 3e 6c f6 1e bd f6 16 5b bf
       -0.8462997 0.26927358 -0.038809225 -0.8558191
000080 a5 9a 44 3f 27 13 e4 3e af 05 fa 3e 55 0a 50 3f
       0.7679847 0.44545862 0.4883246 0.81265765
000090 ad c5 e2 be c2 8a 84 3f e7 d8 5c 3e 1f 14 69 3f
       -0.4429144 1.0354846 0.21567117 0.9104633
0000a0 34 ef b5 bf 0e a4 ef be 0c 53 a6 be 17 a1 6b bf
       -1.4213624 -0.4680485 -0.32485235 -0.9204268
0000b0 34 8c 18 bf 78 e3 09 3f 07 f5 29 3f 78 8a 04 3f
       -0.59588933 0.53862715 0.6638951 0.51773787
0000c0 2f a4 78 3f 09 1a 4b bf c7 a9 8a bf ee c7 9f be
       0.97125524 -0.793366 -1.0833062 -0.31207222
0000d0 83 f7 62 bf 2b 8f e7 3e 7c e6 87 bf 68 80 9a bf
       -0.8865892 0.45226416 -1.0617213 -1.2070436
0000e0 14 65 0a 3f 5e f1 97 3f 9d 09 2a 3f 79 fd c2 bd
       0.5406048 1.1870534 0.6642092 -0.09521002
0000f0 d3 00 93 3e 58 50 12 bf 77 f9 52 3f 66 70 b7 bf
       0.28711566 -0.57153845 0.82411903 -1.4331176
