preTrained/Pendulum-h-v1/2level/HAC_Pendulum-h-v1_level_1_crtic.pth (torch_old, 20607 bytes, 5 tensors)

critic.0.weight f4 [64, 9]
00000000: 94d4 a4bd a534 1d3f dc05 1f3e a458 4fbe
00000010: 8f14 1fbe c7f1 0fbe 8e15 9ebe 8e7b 9e3c
00000020: 3d4b 5abe 49ff 953e a739 d13d 9e6b d7bd
00000030: fe00 f3be da3e 2bbd bf6d debd de0b bfbe
00000040: 85ba ff3d c8cf 983e 138d 36be b982 21be
00000050: b0e8 78be e9de 143d 78f4 01bf 5983 86be
00000060: d1b6 7f3e e4a5 803d 8b1a 94bd 476c 3bbe
00000070: 197f 393e 26e0 93bd 52b7 e8be b474 c13e
00000080: c4c2 67bd 1c84 37be 2a41 4dbc c632 31be
00000090: 55bb 8bbe 7888 093e 0429 f93d 35d7 143c
000000a0: 5ee7 eebb 7d81 63be 03c5 9dbe c4df 2d3e
000000b0: d4da 12bd 9267 123e 350b f53e 709c 89bd
000000c0: 09bd 3a3e 570f ee3e d1eb ed3c 830b 99be
000000d0: 9468 0d3e 1c65 58bd 2268 b3be 697a 94be
000000e0: 7c58 023b faf9 f0be 53d8 bb3e a58b d2bd
000000f0: 01d4 0cb9 7dad dabd c460 46bc 7485 a43e
00000100: 95eb ccbe d538 c63b 419e 533d 1e04 d0bd
00000110: 02d5 22be 8efc 403e 9547 133e ca32 6fbc
00000120: 9235 773e 2bcd be3e 5c17 9fbd 57fe 85be
00000130: bec2 a2be 9e5e 3d3e d3f4 04be ca62 36bd
00000140: d959 a13e c76e 20bd 5393 77be 4929 d43d
00000150: ec1a a1be 63de 653e 1957 8b3e 6670 9a3d
00000160: c6a7 bc3e 8969 483e 38e5 7fbe 37d8 f7be
00000170: 256d 80bd f796 b6bd 3e7b 2fbe 599d da3e
00000180: 5c22 44be e693 77be 49f8 1c3e 8f80 523e
00000190: 9c7f 92bd 0065 923d 6977 54bd 76fa 91be
000001a0: b200 a03e ffb3 a8bd 7696 3f3e 821d 7abe
000001b0: 5f00 303d 012b d7be 871b 0a3e 76c2 643e
000001c0: 1605 51bd a2d9 133c 833f 49be 00fd a03d
000001d0: 2edd 93be fdd9 7ebe 9bed a5bb a461 053e
000001e0: 8175 8bbe 1cb9 7f3e cf29 8e3e 924f 8abe
000001f0: 8c29 10be af39 4e3e 4fec e1bd 8b85 31be
00000200: ca6e 353d 7325 01be 8537 c23e 08af 2fbe
00000210: 37b7 45bd 9966 0cbe 3d2b 6abe ef77 bf3e
00000220: f624 60bc 2738 8bbd 6c33 aabe 7cd7 5abd
00000230: 77da 59be 52d4 c8bd 087b 55be b53d b4bd
00000240: 0042 29bc 47ec a73e 5849 3ebc d955 5a3e
00000250: b401 85be ae7e 66bb f42c 813e d23e 3fbd
00000260: c937 fb3d 1cae 963e b279 e73e f75f 013c
00000270: a923 163e a02a 98be c4e1 293e ac91 3bbe
00000280: c8a8 5e3e 5d09 57be c7df aabe d88d a13e
00000290: 6b7d a1bc 5164 c6be b817 333e 05ed d9bd
000002a0: 1fe7 ee3d a880 7c3d 07f8 2c3d ac9f 8fbd
000002b0: 1537 a0be f323 623e 14ac 843e 9e27 5c3e
000002c0: fbcc 5dbe 8200 f53c 8118 843e 1219 13be
000002d0: 9cee f7bd 269b f5be 1f77 0e3e bd54 13be
000002e0: 3b48 7d3e ae6b 613e 2e99 523e 8b0f 37be
000002f0: 43a0 7b3d 6b3d fd3e b0f5 fcbe afa9 d0bc
00000300: 32e5 56be 2746 053f 8d95 49be 3e34 1c3e
00000310: 126a a6bc a132 2a3e 56e6 2cbd aa13 a0be
00000320: be57 88bd 01ca 89be b7d4 023f 114f c83c
00000330: 87fb b0bd ad6d da3e fd7e ea3d be3f b5bd
00000340: 31ee f83d 7650 13be a559 1a3e f5cc 15be
00000350: 9495 b23e 93f6 823e ea9c 14be 06c8 663e
00000360: 5263 923e 4c04 95be ac5e f23d c5e4 96be
00000370: 9f00 c3bd 5464 383e f9ab b7bd 3e66 a93d
00000380: f1b6 8e3e a882 4abe 46bb 5b3e 3ba3 4e3e
00000390: b9de 7dbe 290c f6bd 27fd 8b3e ec39 2fbe
000003a0: 9019 97bd 2804 1b3d de3e 4cbe ed2a 51be
000003b0: f763 0fbe e52a a6be bfbc a1be 2f15 abbe
000003c0: c064 dd3d b968 853e 5caf 57bd 346a 80be
000003d0: df21 bbbe 1e7b b7bd 979d a93e a5ec 14be
000003e0: c931 483d 9dc2 29be 3dbd b7be 75fd 7fbe
000003f0: 4d3f 523d 18fe 8e3d 8f0a 3dbe f350 d23e
-0.080483586 0.61408454 0.15529579 -0.20248657 -0.15535186 -0.14057074 -0.3087582 0.019346025
-0.21317764 0.2929633 0.102160744 -0.10518573 -0.47461694 -0.041807987 -0.10860776 -0.3731374
0.12486748 0.29846025 -0.17827253 -0.15772523 -0.24307513 0.036345396 -0.50763655 -0.26272085
0.24972083 0.06281641 -0.07231625 -0.18303023 0.1811489 -0.07220487 -0.45452362 0.3778435
-0.056582227 -0.1792149 -0.012527743 -0.17304525 -0.2729136 0.13430965 0.12166026 0.0090845125
-0.0072907647 -0.22217365 -0.3081437 0.16979891 -0.035853222 0.14297321 0.47860113 -0.06719291
0.18236174 0.46496078 0.02904311 -0.29891595 0.13809425 -0.0528308 -0.35040385 -0.28999642
0.0019889167 -0.47065717 0.3668848 -0.10280541 -0.00013430418 -0.106776215 -0.012108032 0.32133067
-0.40023485 0.0060492554 0.051664595 -0.10157035 -0.15901569 0.18846342 0.14382775 -0.014599511
0.24141529 0.37265906 -0.07768127 -0.26170608 -0.31789201 0.18493125 -0.12984018 -0.044527806
0.3151386 -0.039168146 -0.24177293 0.10359437 -0.31465852 0.22448115 0.27214888 0.075409696
0.3684675 0.19571508 -0.24989784 -0.48407146 -0.06270818 -0.08915513 -0.17136857 0.42698172
-0.19153732 -0.24177513 0.15329088 0.20556854 -0.07153246 0.071481705 -0.05187169 -0.285114
0.3125053 -0.082374565 0.1870974 -0.24425319 0.042969104 -0.42024997 0.13487063 0.22339806
-0.05103024 0.009024056 -0.19653134 0.07860756 -0.28879684 -0.24887843 -0.005063725 0.13025528
-0.27238086 0.24972957 0.27766272 -0.27013832 -0.14078349 0.20139192 -0.110314004 -0.17336099
0.04429511 -0.12611942 0.37932983 -0.17156613 -0.04827043 -0.13711013 -0.22868057 0.3739619
-0.013680687 -0.067978196 -0.33242357 -0.05342816 -0.21274744 -0.09806122 -0.20847714 -0.08800832
-0.010330677 0.32797453 -0.011614166 0.21321811 -0.25977862 -0.0035170722 0.2522961 -0.04669077
0.122664995 0.2942971 0.45210034 0.007896415 0.14662041 -0.2972002 0.16590029 -0.18317288
0.21744072 -0.20999666 -0.33373854 0.3155353 -0.019713124 -0.3874841 0.17489517 -0.10640911
0.116651766 0.061646134 0.042228725 -0.07012877 -0.31292024 0.22084026 0.25912535 0.21499488
-0.21660225 0.029907469 0.25799945 -0.14365032 -0.12106058 -0.4796993 0.13912629 -0.14387794
0.24734585 0.22013733 0.20566246 -0.17877023 0.061432134 0.4946092 -0.49406195 -0.025471536
-0.20985869 0.5206017 -0.19685955 0.15254304 -0.02031425 0.16620876 -0.042211853 -0.31265002
-0.066573605 -0.2691193 0.5110583 0.024451764 -0.08641725 0.426618 0.11450002 -0.088500485
0.121548064 -0.14386162 0.15073259 -0.14628966 0.34879744 0.25578746 -0.14512983 0.2253724
0.285914 -0.2910484 0.118344635 -0.29471412 -0.09521603 0.18007022 -0.08968348 0.08271454
0.27873948 -0.19776404 0.21458158 0.20179455 -0.24791993 -0.12014038 0.27341577 -0.17111939
-0.073779225 0.03784576 -0.19945857 -0.20426531 -0.14002977 -0.324546 -0.31589314 -0.334146
0.10810232 0.2605646 -0.05265747 -0.25081027 -0.3654928 -0.089590296 0.33128044 -0.14543398
0.048875604 -0.16578145 -0.35886565 -0.2499903 0.0513299 0.06982058 -0.18461059 0.41077384

critic.0.bias f4 [64]
00000000: f32b 5f3e ada7 8f3e dee2 9cbd ba6f 9dbd
00000010: 3d51 853e a5b0 ba3e fd2b 2d3e c94e 6a3e
00000020: fb30 333d 00e4 22be 5853 02be 66d6 e5bd
00000030: 0174 793e d6e6 51be 4d83 0dbd 2486 b3be
00000040: c20f 03be bab3 c73d 2f3a 4f3d b740 e2bd
00000050: 0493 84be 91c7 84be 3dcf e8bd 2e47 e7bd
00000060: 7e1e 893e aadb a23e f94d 9cbe 14d3 1bbe
00000070: 56fc a23e 91c8 903e 9293 843e 9f5d 90be
00000080: 95b4 763e a214 fd3d 9883 7fbe be87 9a3d
00000090: 6539 b23e 52ed 073d 8c95 21be 403d ba3e
000000a0: be4f 7fbe bb10 82be 273e f33d 99ba 973d
000000b0: 3edb 813e 1042 a93e 7a08 1e3d d6ba 79be
000000c0: 28e4 d8bd 1e7f 60be 52ac 193e 30ae 51be
000000d0: 9c45 533d 7448 893e 4b1f 983b c34f 8bbd
000000e0: 383f a5bd fc64 0d3e bf31 5539 466b a03c
000000f0: 086a 973b 5d15 8f3e 3c0e 25be cfa2 13be
0.21794109 0.28057614 -0.07660459 -0.07687326 0.26038542 0.36462894 0.16911311 0.22881617
0.043747883 -0.15907288 -0.12727106 -0.11222534 0.24360658 -0.20498213 -0.034549046 -0.3506328
-0.1279898 0.09751077 0.050592598 -0.110474996 -0.25893414 -0.25933507 -0.113676526 -0.11292873
0.26781076 0.31808215 -0.30528238 -0.15217239 0.31833142 0.2827802 0.25893837 -0.28196427
0.24092324 0.12357451 -0.24952543 0.07545422 0.34809414 0.03318531 -0.15779704 0.36374855
-0.24932763 -0.2540339 0.11877089 0.074086376 0.2536258 0.33058214 0.038582303 -0.24387679
-0.10590392 -0.21923491 0.15007141 -0.20476604 0.051580057 0.2681309 0.0046424023 -0.06802323
-0.08068699 0.13808054 0.00020331795 0.019582402 0.004620794 0.27945986 -0.16118711 -0.14417575

critic.2.weight f4 [64, 64]
00000000: 903b a8bd 2c1e e8bc 0d52 dcbd 22b3 dfbd
00000010: 1561 a33d 415f 7e3d 7e52 0ebd d620 7f3d
00000020: 7897 923d a738 c13d 8eea 0ebe 4736 973d
00000030: 6986 183e 2908 bebc 6a7e 803c 953d e6bd
00000040: 9d67 263d 48b1 cbbc cbd5 1dbd 44d5 f93d
00000050: 05c0 8cbc 0ebe 44bd 5c56 aa3d 15ff c33b
00000060: 65e5 49bc e285 57bd 2cb1 c83c 585e 16b9
00000070: c90a adbc ca4e 853d 4de9 cb3d 3b21 37be
00000080: 3e88 67bd d4ed 933d b38d b53c 7c6e 393d
00000090: ce4e 093e ea43 15be f992 2e3d 4cb1 27bd
000000a0: 2799 883a 8cd5 e3bd 6c0a 003e 470d e5bd
000000b0: fe61 873d 0dc6 783b b246 db3d 3d8d d5bc
000000c0: e8eb e53c bcfd 963d 0b9d 063d f9e0 b23d
000000d0: ac54 02be 4aa4 c03c 9fd4 1bbb b126 b9bd
000000e0: f38e b8bd a410 73bd ab0e 0fbd 8c87 8d3c
000000f0: 4afc b1bc 94bb 71bd 5bd1 3c3d c240 2fbd
00000100: bafe 9d3d 30e5 b4bd 73d0 173b d567 76bd
00000110: c578 263d 7b5f 07be 0233 933d f1d3 5cbd
00000120: d8bf 923d 71c9 d1bd b7d0 233d 6554 023d
00000130: 101c 8d3c 1029 75bd 096c e4bd 5602 463d
00000140: d428 3dbd 52f6 11bd a91b 00bd dd6f 50bd
00000150: 0edc 81bd aa00 48bd 1b23 bebd 5e4e ee3c
00000160: 03d9 a1bc f4c7 0fbe 7456 af3d 43b0 ba3c
00000170: 8df7 02bd 8a11 443d 9306 09be 5447 eb3d
00000180: a5f4 5a3d 9aae ab3d 6581 edbd b7d1 3cbd
00000190: 63d3 f9bc 58e3 1f3d f01d 8ebc 432d 3e3c
000001a0: eaa1 a6bd 3f02 d43d a25b 83bc 84bc 24bc
000001b0: c295 fcbc a661 ddbd 86d1 ccbd 5d5d df3c
000001c0: b647 993c 0919 58bd 932f 75bd e702 d5bd
000001d0: d1e2 fcbd b4b5 a4bc bb36 2dbe 72d9 86bc
000001e0: b1ce 96bd 3283 d5bd 78e7 5bbd 8d32 18bd
000001f0: 4c0b c5bd 2588 f0bc bc0a bebc d58a 36bd
00000200: dc8c 363d c2ce 093e ff1a 89bc 188d 53bd
00000210: f6f4 ff3d 9aa5 bcbc 62a2 773d 6656 e73c
00000220: 6e92 643d cd49 853d 7eae 5abc e63e efbd
00000230: 50e6 87bd 836f c83d e28a b83d 1458 fd3c
00000240: 4823 8c3c e6c6 88bb c864 a5bd ca0f 31bc
00000250: e0e6 e03d f299 db3d 6e6b 083e cc01 1cbe
00000260: a9b0 36bd 8728 03be 9b26 c3bd a761 38bd
00000270: ce6d 843d 5d1b c33d 5311 84bc e827 9ebc
00000280: 5335 dcbd e70d 2c3d b372 ccbd 94c3 5bbd
00000290: aaa7 92bc 95d6 d63c cb2d 44bb bc08 de3d
000002a0: 2a42 97bd ed27 84bc 5fbd 9a3c 028b ffbc
000002b0: da18 af3d dacb e4bc 18dd fdbc 27e0 d1bd
000002c0: 37b1 b5bd dbe1 ebbd 365f 99bd 47fa 19bc
000002d0: 958b acbc 3928 533d 5312 70bd f73b 1ebe
000002e0: 6c43 4fbe baf0 07be 7466 7bbd 5500 8b3d
000002f0: 7c51 03be 1a2d b2bd 771b 17be 604e 20be
00000300: 13f9 053d 29b3 5e3d d21e 543d 7af5 12be
00000310: 9ccd 0abe 1a08 03be 8440 18bd e68e a43d
00000320: 5166 19be 1ea6 cabd 3a44 04be a7d7 f8bd
00000330: f4f8 2cbd e0e7 483d ee08 4c3b b77a dcbd
00000340: 7943 4dbd 44a9 cc3d 6480 423d d327 76bd
00000350: bc33 9fbd f1f3 f5bd 4455 003d fac6 ccbc
00000360: 87c5 823d 5a26 e7bd 1b8a af3c 6c56 06bd
00000370: 80a0 403d fe77 c03d c9a9 8bbb 7c71 41bc
00000380: 438a 5d3d 843b 733d 2c5c 0abd c3fd e6bd
00000390: d1e3 ebbd 6bd4 263d 2617 4ebd 0cca 74bd
000003a0: 5c60 d2bd 88f1 f9bd 4bd2 bcbd e3f0 b93d
000003b0: ffd7 923d 3e6e a3ba 36fa 1d3d 00d7 8ebd
000003c0: da63 953c 19d6 c6bc df5b 15bc 83da 853c
000003d0: 2bf8 673d 33f5 083d 376a d8bd 0b19 c9bd
000003e0: 7b0e 8e3d 8859 303d d14a 89bd a100 8c3d
000003f0: 4c31 ea39 5039 d5bd 2279 f6bd 4205 f8bd
-0.08214486 -0.0283347 -0.107578374 -0.10922839 0.07977501 0.06210256 -0.03474664 0.062287174
0.071577966 0.09434634 -0.13956663 0.073833995 0.14895023 -0.02319725 0.015685279 -0.112422146
0.040626157 -0.024864808 -0.038533967 0.1219888 -0.017181406 -0.048032813 0.08317253 0.005981336
-0.012322758 -0.052617915 0.024498545 -0.0001434026 -0.021123307 0.065091684 0.09956608 -0.1788377
-0.056526415 0.072230965 0.022162294 0.04527138 0.13408968 -0.14576688 0.042620633 -0.040940568
0.001042162 -0.11124715 0.12503976 -0.11184173 0.066104874 0.0037959844 0.107068434 -0.026068324
0.02806659 0.07372615 0.03286461 0.087343164 -0.12727612 0.02351584 -0.0023777855 -0.09040583
-0.090116404 -0.05934204 -0.034926098 0.017276548 -0.021726746 -0.05901678 0.046098094 -0.042786367
0.07714601 -0.088327765 0.0023165017 -0.060157616 0.04064252 -0.13220017 0.07187463 -0.05391306
0.071654975 -0.102435 0.039993968 0.031818766 0.017225295 -0.059853613 -0.111534186 0.04834207
-0.046181515 -0.0356353 -0.03127638 -0.05088793 -0.063408 -0.04882876 -0.092840396 0.029090103
-0.0197568 -0.1404112 0.085614115 0.022789126 -0.031974364 0.04786829 -0.13381414 0.11488214
0.053455967 0.08382912 -0.11596946 -0.046098437 -0.030496305 0.03903517 -0.01734826 0.011607471
-0.081363514 0.10351991 -0.016034905 -0.010054711 -0.030833129 -0.108096406 -0.10000901 0.027266199
0.018710952 -0.05275825 -0.059859823 -0.10400944 -0.12347949 -0.020106174 -0.1691541 -0.016461108
-0.07363642 -0.10425414 -0.053687543 -0.037157584 -0.09621295 -0.029361794 -0.023198478 -0.044565994
0.044567928 0.13457778 -0.016736506 -0.05164823 0.124978945 -0.023028184 0.060457595 0.02823944
0.05580371 0.06508217 -0.013347266 -0.11681919 -0.066357255 0.09786894 0.09010865 0.030925788
0.017106667 -0.004174101 -0.08075863 -0.010806987 0.10981536 0.10722722 0.13322231 -0.1523506
-0.04460207 -0.12808429 -0.09528848 -0.045015004 0.06466256 0.095267035 -0.016121542 -0.019306138
-0.10752358 0.042005446 -0.09982815 -0.053653315 -0.017902214 0.026225368 -0.0029934521 0.1084151
-0.07385667 -0.01613232 0.018889127 -0.031194214 0.08549662 -0.027929235 -0.030989215 -0.10247832
-0.08871692 -0.11517688 -0.07488863 -0.00939805 -0.021062652 0.05155203 -0.058611225 -0.15452562
-0.20240563 -0.13275424 -0.061377004 0.06787173 -0.12824053 -0.08700009 -0.14756571 -0.15654898
0.03270824 0.05437008 0.051787205 -0.14351454 -0.13554996 -0.12796059 -0.037170902 0.08035068
-0.14980437 -0.098949656 -0.12916651 -0.121505074 -0.042229608 0.04904926 0.0031133252 -0.107655935
-0.050113175 0.09993222 0.047485724 -0.060096573 -0.077735394 -0.12009419 0.031331316 -0.024997223
0.063853316 -0.11286612 0.021428159 -0.032797262 0.047028065 0.09397887 -0.0042621833 -0.011806842
0.054086935 0.05938293 -0.03377931 -0.1127887 -0.11518062 0.04072992 -0.050315045 -0.059763
-0.10272285 -0.122042716 -0.09219798 0.090791486 0.07170104 -0.0012468768 0.038568698 -0.06974602
0.01823609 -0.024272012 -0.009116142 0.016339546 0.056633156 0.033436965 -0.10567134 -0.0981923
0.06936356 0.043054134 -0.06703723 0.068360575 0.00044668687 -0.10411322 -0.12034823 -0.12110378

critic.2.bias f4 [64]
00000000: 68e5 c6bd 152f 41bd a7de 353d 4e69 cdbd
00000010: 4c51 243e 6dc0 573d a31f a1bc f03c e43d
00000020: df8a 91bd a0fe 16bd 67ed 68bb edec 3cbc
00000030: a231 3dbe beeb 70bb 1157 aebd 814a 91bc
00000040: 78be 77bd d7e8 6cbd 71ab a03c a9a9 873d
00000050: 844b 0e3e e622 1b3e 290f 163d b6eb f23d
00000060: b851 8cbd d6cd 653d 29ce bd3d 3220 c23c
00000070: a126 f43c fdee c23b c2d9 f13d 670e 013e
00000080: 3fe5 8fbd e85e ddbd 4e55 95ba dcde 4c3c
00000090: b7e3 05bd bd77 03be ddc4 03be 5978 2d3e
000000a0: 83eb 5db8 4272 5fbc cf93 edbd 46aa 273d
000000b0: d1ee 393d 4f1d b3bc 79b9 4c3d 518f 663c
000000c0: 6bc0 debb 2b3f bd3d c8d3 16be bb29 b53d
000000d0: c33b 9cbd 9cfd 523c 5059 0dbe ba35 c8bd
000000e0: 2b27 36bd 9690 03be 2c1b b63d 8c80 d23d
000000f0: 6c9e 803d 3c13 8d3d 4598 563b 0c47 5abc
-0.097117245 -0.04716404 0.04440179 -0.10029851 0.16046637 0.052673746 -0.019668406 0.111444354
-0.07106566 -0.036863923 -0.0035541893 -0.011531097 -0.18475965 -0.0036761607 -0.085127 -0.017735722
-0.06048438 -0.05783924 0.019613 0.06624157 0.13895994 0.15150031 0.03663555 0.118613645
-0.06851524 0.056104504 0.092678376 0.023696993 0.029803576 0.0059489 0.11809112 0.1260315
-0.07026147 -0.108091176 -0.0011393221 0.012504306 -0.03268787 -0.12838645 -0.12868066 0.1694044
-5.2909843e-05 -0.013638081 -0.11600458 0.04093387 0.04539377 -0.021864561 0.049981568 0.014072255
-0.0067978404 0.09240564 -0.14729226 0.0884585 -0.07628586 0.012877848 -0.13803601 -0.097758725
-0.044470947 -0.12848124 0.088919014 0.102784246 0.062802166 0.06888434 0.0032744568 -0.013322603

critic.4.weight f4 [1, 64]
00000000: af93 89bb 5598 b73d 03a4 10bd 7d67 343d
00000010: da8c cabd 2396 1e3e 2ac0 62bd 93dc 09be
00000020: fec9 bd3d f383 213e dab3 153e ad63 f5bc
00000030: c6a0 a73e d1d3 d43d d0b5 c23c b74b 133e
00000040: aaf4 63bb bffc c6bd f687 6a3e 6c35 043e
00000050: 2625 c0bc fed9 92bb dd45 e93d b598 bcbd
00000060: f68c a2be 5314 393e ce64 423d 44d5 863c
00000070: 4dea 0b3f abff 583e 0d7c 023e e963 5abd
00000080: 698f c63d 767c df3b ef11 0d3e 96cd 2ebd
00000090: 2415 493e 9d4b 993b 6444 7dbc e5d4 12be
000000a0: d627 0d3e 8d2e 00be 1671 95bd fbbc 0ebd
000000b0: ed68 1b3e 3fbd 9abd b5f5 3c3e 51e1 62bd
000000c0: a6f7 853e 4149 cabc 4eab 8c3e 5982 113e
000000d0: 0831 eebd bb51 ba3d df0d 8dbd fa1e 81bd
000000e0: dc24 b43e f732 f9bb 8a8e 0e3e 3047 d9bd
000000f0: f0e8 c7bd d1e9 abbd 86bd bdbd b19e fe3c
-0.0041985135 0.08964602 -0.035312664 0.044044007 -0.098901466 0.1548696 -0.055359043 -0.13463049
0.092670426 0.15772991 0.14619389 -0.029954756 0.32739848 0.10391963 0.023768336 0.14384352
-0.0034783282 -0.09716176 0.22903427 0.12911004 -0.023455214 -0.004481553 0.113902785 -0.09208814
-0.3174817 0.1807416 0.047459416 0.016459115 0.5465439 0.2119128 0.12742634 -0.053317938
0.09695322 0.006820257 0.13776372 -0.04267653 0.19636971 0.0046782033 -0.0154582 -0.14339025
0.13784727 -0.12517758 -0.0729696 -0.034848195 0.15176745 -0.07555627 0.18453105 -0.05539066
0.26165503 -0.024693133 0.27474445 0.1420988 -0.11630446 0.0909762 -0.06887411 -0.063047364
0.3518437 -0.0076049524 0.13921562 -0.10609281 -0.09761226 -0.08394206 -0.09264664 0.03108153
