preTrained/Pendulum-v0/2level/HAC_Pendulum-v0_solved_level_1_crtic.pth (torch_old, 20615 bytes, 5 tensors)

critic.0.weight f4 [64, 9]
00000000: af6b c23f 10f7 b33d b9df a7be bfc7 8b3f
00000010: 3617 23be d064 ecbc fd94 2abf ecaf 1e3f
00000020: d01c 2ebf 89bf 833e 11ea 1b3f 4bbe 65bd
00000030: 3dc5 94bf 3ad9 b9be d826 cabd 9880 353f
00000040: 8057 b93e d4c5 83bd 8610 84be a74a 903f
00000050: ec2a 9b3d 5c7d 5e3f b415 8b3f f234 3cbe
00000060: 3cca 693d 41af b5be e0c4 3bbe 9969 043f
00000070: db65 713f 2e4b a9bd 2e65 783f cb20 883f
00000080: e060 723e ae79 3abf e3b9 7f3e acb8 d4be
00000090: 2c08 a43e 73e7 3abf d368 3bbf d0c9 6d3f
000000a0: 749d e13e 7525 d6be 371a 80bc 889f 29bd
000000b0: 92a5 0f3e a605 1e3f 24d0 6c3f 0ca3 8a3e
000000c0: 7e8d 2d3f 6f4b 90be 6b7a 87be cbdb ad3e
000000d0: 8890 163e f439 f0bd 2ad1 4e3e 5150 733e
000000e0: 55b0 243e 64ad 0bbf 0f1d 32bf dc09 aa3f
000000f0: 61cf 41be 063a 8bbe f438 74be e6d4 773f
00000100: e837 1fbe a60c ecbe 97ef 7bbd 75d9 273f
00000110: 48b2 1ebe 2460 96bc 6e79 32be 0f37 173f
00000120: 65ed 25bd d5b4 f4be 86e2 0fbf 73d0 87be
00000130: 7f31 13bf 2b9f e2be 1e99 2f3d d2b6 22bf
00000140: fc78 02be 47d9 9d3e f4c3 36bf 6578 04bf
00000150: 909c e0be de10 733f 87ea 023f c2e3 8c3d
00000160: eb7c 4a3f 0f49 8c3e 8d4d 69be f4a9 38be
00000170: a4ff 64bc c70f 683f d51f b63e 5879 f2be
00000180: 8961 da3d 8dc9 b3bc 3879 b13e 34cc 4b3f
00000190: 4bf6 efbe 99d2 8bbe d33e 42bd 6707 7fbf
000001a0: 3745 de3e 0267 873e 176a bb3e 0e1f b83e
000001b0: 81f8 1a3f 609a c9be 32b1 1ebe 8b7a 043f
000001c0: e2c3 8cbf b8f5 0f3f c90d efbe 630c 61be
000001d0: 45e6 3abe 29c2 263f 66d0 babe e66d 303d
000001e0: 6532 8dbf 037a 32bd fbc6 853e c58e 253f
000001f0: 9f0a ae3d 3bd0 31be c562 313f b4e8 39bf
00000200: 20af 9d3e d73f 8c3f 76d8 483f a03a 7f3d
00000210: e1a0 f8bd e334 033e dd36 c03e 8309 113d
00000220: 49c5 10bf cbe1 543e e47e a9bf 3b82 763e
00000230: a88d a03b f5b2 923c 43bc fd3e f0d0 613e
00000240: 2332 113f 68a5 85be b1ba 80be 3a32 bb3e
00000250: c633 8cbf 42c3 443e d62d cfbe e8a0 43bf
00000260: 4195 24bf acea fe3e 5372 a73e 0aeb ab3e
00000270: bad5 723e 922e 99bf d4f6 d5be 17a6 ecbe
00000280: 8823 993c 664d cb3e d9be 273f ed94 403f
00000290: 6f26 45bb 38a4 963e 3581 383f 414b ee3b
000002a0: 3a68 7b3f 5ad8 423f 5700 5abe f190 22bf
000002b0: 7303 2e3f 7a02 b03d 3c02 513e abf6 4b3f
000002c0: 9f79 c9be a0f7 21be b80b 16be 37b0 61bf
000002d0: 6bce ea3d 7009 7d3f e4db 56be dbec fdbe
000002e0: d404 8ebe 4b19 4f3f 84cf 93be b3c0 3abe
000002f0: 0603 91be de5d 07bf 0adb 2c3f 605b bb3d
00000300: e8d0 463f 493f 923f c200 683e 62c1 013f
00000310: ff2d 8bbf 5a34 10bf 6849 d53e b1b1 90be
00000320: 1ee4 b0be 7387 063f e830 af3e 660f 0e3f
00000330: bf09 25bf 72d3 47bf afa1 5d3e 1b00 e23d
00000340: 1339 20be b68d acbd 132f 303f 42cd 1c3f
00000350: 5038 f43e 2c7e b2bd 1c4b 23bf 4cc4 293c
00000360: 7048 80bd d2ce 42bf 55db 85bc 954b 693f
00000370: cad4 743f 6d4d 4a3e 1682 e73e cc24 a23d
00000380: ff2c 413f 8eba 79bf 8e28 61be d837 50be
00000390: a29f c43e ee0b 313f d80c fdbd 3828 913e
000003a0: 37f9 b33e a052 43be 9632 4bbf 66b1 9e3f
000003b0: 59da 703e f116 5a3f 7ca6 aabe efb7 203e
000003c0: 625a 63bf 9271 803e 62f9 e03e 1bc0 2cbf
000003d0: b958 23be 42a1 11be d34f 393f 79a0 433f
000003e0: d4de d0be 1d67 5d3e 7a2a 1fbe 3f05 373f
000003f0: 799c 4bbf 955b c5be 9fbd 8abd fa1a 8c3f
1.5189112 0.08787358 -0.32787874 1.0920333 -0.15926823 -0.028856665 -0.6663359 0.61987185
-0.68012714 0.25732067 0.6090403 -0.05608968 -1.1622692 -0.36298543 -0.0987069 0.70899343
0.3619957 -0.06434217 -0.25793856 1.1272782 0.07576546 0.86910033 1.0865998 -0.18379572
0.05707763 -0.3548527 -0.1833682 0.5172363 0.94296044 -0.082662925 0.9702939 1.0635008
0.23669767 -0.7284192 0.24973254 -0.41547143 0.32037485 -0.73009413 -0.73206824 0.92886066
0.4406544 -0.41825452 -0.0156375 -0.041411906 0.14028004 0.6172737 0.925051 0.2707752
0.67794025 -0.2818255 -0.26460585 0.3395675 0.14703572 -0.11729804 0.20196977 0.23761107
0.1608289 -0.5456145 -0.6957559 1.3284259 -0.18926765 -0.27192706 -0.23849851 0.9680923
-0.1554867 -0.461034 -0.061507788 0.6556619 -0.15497696 -0.01835639 -0.17429134 0.5906839
-0.0405096 -0.47794214 -0.5620502 -0.26526222 -0.574974 -0.4426206 0.042870633 -0.6356021
-0.12741464 0.30829832 -0.7139275 -0.5174621 -0.43869448 0.9494761 0.5113911 0.06879379
0.7909686 0.2739949 -0.2278349 -0.18033582 -0.013976965 0.90649074 0.3557116 -0.47358203
0.106631346 -0.021946693 0.34662795 0.79608464 -0.46867594 -0.2730911 -0.047423195 -0.9962067
0.43412182 0.26445776 0.36604378 0.35961193 0.60535437 -0.3937559 -0.15497282 0.51749486
-1.0997279 0.5623431 -0.46690205 -0.21977381 -0.18251903 0.65140015 -0.3648712 0.043073557
-1.1031004 -0.04357339 0.26128373 0.64670974 0.084981196 -0.1736459 0.69291335 -0.726207
0.30797672 1.0956982 0.78455293 0.06231177 -0.1214006 0.12813143 0.37541857 0.03540946
-0.56551033 0.20789258 -1.3241849 0.24073116 0.0048996992 0.017907599 0.49557695 0.2205236
0.5671713 -0.26102757 -0.25142434 0.36561757 -1.09533 0.1921511 -0.40464658 -0.764174
-0.64290243 0.49788415 0.3270441 0.33577758 0.23714343 -1.1967337 -0.41789877 -0.46220466
0.0186937 0.39707488 0.65525585 0.7522724 -0.0030082723 0.29422164 0.72072154 0.0072721546
0.9820591 0.76111376 -0.21289192 -0.63502413 0.67974013 0.08594222 0.20411009 0.7967326
-0.39350602 -0.15817118 -0.14652908 -0.8815951 0.11465152 0.98842525 -0.20982319 -0.4959477
-0.2773806 0.8089797 -0.2886926 -0.18237571 -0.2832262 -0.52877605 0.6752173 0.09148288
0.77662516 1.1425563 0.22656539 0.50685704 -1.0873412 -0.5632988 0.41657567 -0.28260568
-0.3454904 0.5255043 0.34217 0.55492246 -0.64467996 -0.78057015 0.21643709 0.11035176
-0.15646772 -0.08425467 0.6882183 0.612507 0.47699213 -0.087154716 -0.6378648 0.010361742
-0.06263816 -0.7609683 -0.016339937 0.91130954 0.9563719 0.19756098 0.45216435 0.07917175
0.75459284 -0.97550285 -0.21988127 -0.20333803 0.3840304 0.6915883 -0.123559654 0.28350997
0.35151073 -0.19074488 -0.79374063 1.2397888 0.23520793 0.85191256 -0.33330142 0.15695165
-0.8880979 0.25086647 0.43940264 -0.6748063 -0.15951814 -0.14221671 0.7238743 0.76416737
-0.40795004 0.21621366 -0.15543547 0.7149238 -0.79535633 -0.38546434 -0.067744486 1.0945733

critic.0.bias f4 [64]
00000000: ab0e 2d3f a212 51bf 2bff 993e 6be1 c2be
00000010: 4929 1bbf 0817 38be e800 e33d fa54 30be
00000020: f8e4 0f3f 34f1 48be 9510 973e eb8a f9bd
00000030: 6ecf d9be a7e0 1a3e 6d28 db3e bf06 d23d
00000040: 354e a73e 7820 e1be 6207 563f c438 f0bd
00000050: 2027 2a3e e9f7 cc3e 4fdf 9b3e 8f51 2abf
00000060: 6faa 823d face 193f 68cd 95bd 43d1 b73d
00000070: 9b01 f93e b979 50bf d2c2 9bbd ebd6 563e
00000080: 892d bf3e ec5f 0d3d cf26 3ebc 5153 693e
00000090: 785f edbe 0578 2cbf 9f9f 073e b17d 72be
000000a0: 1afb 0a3f a895 8a3e c321 6d3d c669 9bbe
000000b0: f58a 04be 6f09 1ebf 7426 dbbe b527 10bf
000000c0: 24d8 acbd a036 8cbe a8b4 1abd 7bb5 0bbf
000000d0: bd91 00bf 232f a53d 2353 863e d504 133f
000000e0: 6a91 853e 9a18 05bf 190b b7bd 107d 7cbe
000000f0: afe0 24bc 36f8 883e dbb2 99be d4b1 4dbf
0.67600507 -0.81669056 0.3007749 -0.38062605 -0.6060987 -0.17977536 0.11084157 -0.17219916
0.56208754 -0.19623262 0.2950484 -0.121846996 -0.4254107 0.1512476 0.4280428 0.10255193
0.32676855 -0.43970084 0.83605015 -0.11729577 0.16616488 0.4003289 0.30443808 -0.665307
0.06380164 0.60081446 -0.07314569 0.089754604 0.48634037 -0.81435734 -0.076055184 0.20980422
0.37339428 0.034515306 -0.011605932 0.22785689 -0.463619 -0.67370635 0.13244484 -0.2368076
0.542894 0.27067304 0.057893526 -0.30354136 -0.12943633 -0.61733145 -0.42802775 -0.5631059
-0.08439663 -0.27385426 -0.037769943 -0.5457379 -0.5022238 0.08065631 0.26235303 0.5742925
0.26087505 -0.51990664 -0.089376636 -0.24657083 -0.010063334 0.2675187 -0.30019268 -0.8034947

critic.2.weight f4 [64, 64]
00000000: e09e 18bf e1d3 14bf 01ad 963d 5d55 0b3f
00000010: f992 e1be d3fc 6cbd bab2 e83e 1d1b aa3d
00000020: 9983 3cbf 5fd6 f23e 61bc 2ebc 5e6d 38be
00000030: 5ea9 813e 2a0a e83e b7e8 993d 5b86 e23e
00000040: 347b bfbd 49cf 38be b02d 4f3e 3efb a93d
00000050: 0402 773d 9685 433d e3c4 8d3e 91eb b93e
00000060: 43f9 b53e eccb da3e 8865 b0be f0a9 9abe
00000070: 37d7 02be aa45 26bf 0963 523e a36b 82bc
00000080: d0ed a5be 5900 2d3e bb16 0a3e f33d 2f3f
00000090: 5ae9 71be 8cac 293f a50e 1bbd 320a ed3e
000000a0: bd14 8f3c 3120 463e 8074 24be 974e 32be
000000b0: 90ac e33e 0ef7 19c0 9bd9 94be 9fcb aa3d
000000c0: f104 b4be 98f4 9ebe 0347 363f 41d9 a53e
000000d0: e7d7 f13e 3fa3 f43e be3c 0a3f 5590 8b3e
000000e0: 7ef0 11be ed09 cd3e 0ab9 03bf 6c2b 57bf
000000f0: 6bab b83f d01b 683e d11e 1a3d 7ce1 c3bf
00000100: 0d25 f9bd d64c 69bf 2222 e8be ba45 36bf
00000110: f8ff 08bf 9741 8bbf 1759 b1bd 15a2 2dbe
00000120: ffb6 dfbc f921 2dbd 1401 22bf a642 343e
00000130: 43ee 0f3e faaf 3c3e deb6 10bf 886b 533d
00000140: 9276 403d c7b8 a9bd 89df 0cbf 24c4 8d3d
00000150: 89a1 533d e2d3 19bf 387c b9be 55d1 47bc
00000160: c546 83bf 6348 293e 15e3 12bf 63f5 803e
00000170: 88e5 a33d 1e02 54bf e1ed bd3d 080d 27bf
00000180: 2edb cc3d 2206 22bd a86d f33d efa5 00bf
00000190: 9e2c 81bd d1e0 f0be 7fbf 06bf 6ba6 733e
000001a0: e6ab 67bd ce3b c43d 3710 b63b 1969 183e
000001b0: b1be 02be 1d63 aebe 95d6 16be ed92 06bf
000001c0: 253e 98bd 8d1f 693e 02c6 ecbf 0540 b8be
000001d0: dcbe b3bd 415a 33bf 3cc7 6ebe 7592 b43d
000001e0: b104 32bf 1e3e f0be 30ca 74bd 1c0c afbe
000001f0: 9531 30bf 010c 02bf d361 61bf adfc f5be
00000200: 6107 f3be e6b5 1abe 0a4b 8a3a cef8 e73e
00000210: 04b0 053f b2fa fd3e 8118 fdbd 2dbf 2fbf
00000220: f2fe 9439 3d89 babf 8dcb f63f 7693 34be
00000230: e69b 33be bdec 48bf a519 bdbf 9cca 0dbf
00000240: e10c a1be a5fb c03e f986 683e 238c 37bf
00000250: b825 52bd d883 343d 8899 0abe 945f ec3d
00000260: 261f d1be d2a0 88be a5c3 863d c113 debe
00000270: d92b eb3d 0735 9fbd 1c19 babc 4949 4cbf
00000280: 65c8 f4be 702c 8fbe 0421 05bf 2abd f4bd
00000290: 3025 b3be d56f 813e 60d8 95bd 42ab 043f
000002a0: 3f4e 4abf af5f 8c3e c4b2 31be ec23 153f
000002b0: d9f3 c5be e931 5f3f a30e 93be 8b18 b3be
000002c0: 6c46 b23e 28e4 593e e722 4fbd 1e18 aa3f
000002d0: c8b1 45bd cff2 bcbf 8e49 31bd 8eaa da3c
000002e0: 154f b3bd c602 a33f 889e 8ebf 793e 423f
000002f0: e529 43bf 87a1 df3d 7e82 16bf 5e01 8d3f
00000300: 76a1 1abe d4fd 89bf 66e2 59be ea17 de3d
00000310: 8d07 083f 1f0e 803d 7a49 bdbe d538 973e
00000320: 43bf e03e 9846 24bd 388c 1b3e b050 e9be
00000330: cc9e 0dbe dc57 053d a32f 0e3f 0d39 333e
00000340: 3369 52be df4a e1bd fb5b 61bd 1b30 8b3d
00000350: f3db 4c3e 314c 9ebe d433 b0bc d9dd 50bf
00000360: 0697 ed3e 163b d33e 7f0e 4cbf 15d6 2d3e
00000370: 65b2 403f 171a d3be ea85 33bc e660 053f
00000380: ac4a f03d 05b5 90bf 3329 b93e f93b c83e
00000390: 51c7 213d f646 4ebf 8554 4ebf a131 ddbf
000003a0: 1d56 933e 890b b6bf 2e87 473e 2d12 37be
000003b0: 2257 013f 040a e4be 3fd0 90be 7d96 b9be
000003c0: 0db1 07bc 4a88 bdbe 047b 6f3f 4214 25be
000003d0: 909a a03e 8ec4 593f aa57 fdbc f9c7 4bbf
000003e0: a6cb c73e 219b b1bc 544b b13e 3215 82bd
000003f0: c94d 913e e71d 1d3f f611 f0be 7607 1c3f
-0.59617424 -0.581358 0.073572166 0.5442713 -0.44057444 -0.0578583 0.45448858 0.08305953
-0.736383 0.47429177 -0.01066503 -0.1801047 0.2532453 0.45320255 0.0751509 0.4424313
-0.09349671 -0.18047823 0.20232272 0.08299874 0.060304657 0.04773482 0.27689275 0.36312535
0.35541734 0.42733705 -0.34452462 -0.30207777 -0.1277741 -0.6495005 0.20545591 -0.015920466
-0.32408 0.16894664 0.13485233 0.684539 -0.23624173 0.6627891 -0.037855763 0.4629684
0.017465943 0.19348218 -0.16060066 -0.17412792 0.44467592 -2.405704 -0.2907227 0.08339619
-0.3516002 -0.31045985 0.71202105 0.32392314 0.47235033 0.47780797 0.53998935 0.27258554
-0.14251897 0.40046635 -0.5145422 -0.8405063 1.4427313 0.2266686 0.037627045 -1.5303187
-0.1216527 -0.9113287 -0.4533854 -0.71200144 -0.5351558 -1.0879391 -0.08659571 -0.1695636
-0.027308939 -0.042268727 -0.63282895 0.1760355 0.14055733 0.18426505 -0.56529033 0.05161622
0.046988077 -0.082871966 -0.5502859 0.069221765 0.051667724 -0.6008893 -0.36227584 -0.012195905
-1.0255972 0.1653152 -0.5737775 0.25187215 0.08002764 -0.8281573 0.092738874 -0.6525426
0.10002743 -0.03955663 0.1188615 -0.50253195 -0.06307338 -0.4704652 -0.5263595 0.23793952
-0.05656042 0.09581719 0.005556132 0.14883842 -0.12768055 -0.34059992 -0.14730294 -0.5256794
-0.07433728 0.22765942 -1.8497927 -0.35986343 -0.08776638 -0.7005959 -0.2331819 0.08816997
-0.6953841 -0.46922392 -0.059763134 -0.34188926 -0.68825656 -0.50799567 -0.8803989 -0.4804434
-0.47466567 -0.15108451 0.0010550928 0.4530701 0.52221704 0.49605328 -0.123581894 -0.68651086
0.0002841871 -1.4573132 1.9280869 -0.17634377 -0.1753994 -0.78486234 -1.4773451 -0.5538728
-0.31455138 0.3769199 0.22707738 -0.71698207 -0.051305503 0.04407105 -0.1353513 0.115416676
-0.40844077 -0.26685196 0.06580285 -0.43374446 0.11482973 -0.07773786 -0.022717051 -0.79799324
-0.4780914 -0.2796359 -0.520035 -0.11950143 -0.3498931 0.25280634 -0.07316661 0.5182382
-0.79025644 0.2741675 -0.1735335 0.5825794 -0.38662603 0.8718553 -0.28722104 -0.34979662
0.34819353 0.21278441 -0.050570395 1.328861 -0.04826525 -1.4761599 -0.043283038 0.026692655
-0.08755318 1.2735221 -1.114213 0.75876576 -0.762358 0.10919481 -0.58792865 1.1016042
-0.15100655 -1.0780587 -0.2127777 0.10844405 0.5313652 0.062526934 -0.3697012 0.29535547
0.4389592 -0.040106386 0.15190208 -0.45569372 -0.13830107 0.032554492 0.5554144 0.17502232
-0.20547943 -0.11000609 -0.05501936 0.06796285 0.20005779 -0.30917504 -0.021509089 -0.8158851
0.46404284 0.41256016 -0.7970962 0.16976197 0.7527221 -0.41230842 -0.010957221 0.5210098
0.117329925 -1.1305243 0.36164245 0.39108256 0.039496724 -0.8057703 -0.80597717 -1.728077
0.28776637 -1.422227 0.1948516 -0.17878027 0.5052358 -0.4453889 -0.2828388 -0.36247626
-0.008281958 -0.37018043 0.9354708 -0.16121009 0.31367922 0.85065544 -0.03092559 -0.7960201
0.3902256 -0.021680417 0.34627783 -0.06351699 0.28379658 0.6137375 -0.46888703 0.60948884

critic.2.bias f4 [64]
00000000: 9ea8 c23e 4e9f c93c 5227 3a3e 71d4 963e
00000010: 55db f6be 79cd a83e 45fb 91bd 27a1 e43d
00000020: 47ec fcbd 3c7c 9abd 19cf cfbe 746f 363d
00000030: af4a 753e e632 b73e 81d3 da3e c191 3bbd
00000040: 0e7f e7bd 57a7 d13e 8031 013d b82a 17be
00000050: 77b5 0c3d 3c71 1abe 2345 1fbe 12db 72be
00000060: e64c 70bd ada9 613e 74ed 75be 4759 d7bd
00000070: 75f9 a73d 540e 8f3e 69bd a6be 3fbf b0bc
00000080: fe07 cfbd 8bdb 8bbd 2638 853d 8b09 b8bd
00000090: bf24 493f d4a8 dbbd b248 3b3f 0fec 93bd
000000a0: b8ef 0abf 3008 ae3e 7d2c 133e 28e5 953e
000000b0: 811a ebbe 5cfd e33d 7cf4 b4be 486b 853d
000000c0: 336a 88bd 0ad5 483d 32e3 0ebe 8477 ff3e
000000d0: 6e35 ea3e b07c 2fbf d053 7fbd 720c 51bf
000000e0: d732 fbbc 0b4b 8fbe ee25 813b 7802 38be
000000f0: 4fa7 603e 0678 993e 4f04 97bd 0d25 033f
0.3801927 0.024612095 0.18179062 0.29458955 -0.48214212 0.32969263 -0.07128004 0.1116355
-0.12349754 -0.07543227 -0.4058769 0.044539884 0.23954271 0.3578102 0.4273949 -0.0457933
-0.11303531 0.40947983 0.031541348 -0.1476239 0.034352746 -0.15082258 -0.15553717 -0.23716381
-0.058667086 0.22037382 -0.24016362 -0.10515075 0.08201877 0.2794062 -0.32566383 -0.021575568
-0.10108946 -0.06828984 0.0650485 -0.08986195 0.78571695 -0.10725561 0.731578 -0.07222759
-0.5427203 0.33990622 0.1437244 0.29276395 -0.45918658 0.11132309 -0.35342777 0.06514603
-0.06660881 0.049031295 -0.13953856 0.4989587 0.4574389 -0.68549633 -0.06233579 -0.81659615
-0.03066389 -0.2798694 0.003941289 -0.17969692 0.21938823 0.29974383 -0.07373869 0.5122841

critic.4.weight f4 [1, 64]
00000000: 4d9a 75bf 3758 7fbf 926d b03f 6bdf 90bf
00000010: ce8e 7e3f f83d 7fbf dd93 4440 4520 9f3f
00000020: 96f9 66be ec3d ad3e 6e6a 493f ede1 c3bd
00000030: 8968 c2bf e626 35bf 1f25 1dbf dcbd c43f
00000040: 0794 9f3f c87c 05bf 8b44 1dbe 1008 123f
00000050: 7185 df3e e9b3 913f 8301 b8bf 5031 0040
00000060: 9802 2c3f c0ce 8ebf d979 6e3f ff27 903f
00000070: 72d3 88bf 0f13 96bf b404 903f 5d9e 24be
00000080: f2c8 31be 2654 b93f a8f7 203f 72f1 3440
00000090: 8647 f6be cbbc c73f 8d9d eabe b98e c0bd
000000a0: 0cfb a53f 48d8 40bf 3896 4cbf cb7b 07bf
000000b0: 9574 a63f 2075 66bf 9857 b43d cfd5 1940
000000c0: 0b98 c7bf 3a31 abbe a084 273f cdbc ddbe
000000d0: ab8a 0cbf 1638 8f40 d8b4 1440 b688 4440
000000e0: c3b7 9c3f 5f6d b53f 9a2e c93d f72c 2c40
000000f0: ac19 0540 0e5e b4bf ae61 173f 4573 67bf
-0.9593857 -0.9974398 1.3783438 -1.1318182 0.9943665 -0.9970393 3.0715249 1.2431723
-0.22556147 0.33836305 0.78678024 -0.09564576 -1.5188152 -0.7076248 -0.6138477 1.537044
1.2467049 -0.52143526 -0.15358178 0.5704355 0.43656495 1.1383029 -1.4375461 2.0030098
0.6719146 -1.1156845 0.93154675 1.1262206 -1.0689528 -1.1724566 1.1251435 -0.16076036
-0.17361811 1.4478805 0.62877893 2.8272367 -0.48101443 1.560449 -0.45823327 -0.09402222
1.2967238 -0.7533002 -0.79916716 -0.5292327 1.3004328 -0.9002247 0.0880577 2.4036748
-1.5593275 -0.33435994 0.65436745 -0.43308106 -0.5489909 4.4755964 2.3235378 3.0708442
1.224358 1.4174002 0.09823342 2.6902444 2.079692 -1.4091203 0.5913342 -0.9041026
