preTrained/Pendulum-v0/2level/HAC_Pendulum-v0_level_0_actor.pth (torch_old, 19830 bytes, 5 tensors)

actor.0.weight f4 [64, 6]
000000 cf 9b a4 bd c6 58 d5 3b 31 fd 18 be 03 a8 38 3e
       -0.08037531 0.0065108268 -0.14940335 0.18032841
000010 60 b3 96 be 0d d7 46 3d d8 5c 92 be 3f 3f c4 be
       -0.29433727 0.048544932 -0.2858646 -0.38329503
000020 a6 89 a1 3e 74 6a d2 3d d4 66 8d 3e 1b 14 a9 be
       0.3155033 0.102742106 0.27617514 -0.33023152
000030 78 12 70 3e 91 b8 4f 3e 87 07 a2 3e 34 67 8d 3e
       0.23444545 0.2028525 0.31646368 0.276178
000040 72 c2 c5 be ee ad a1 be b0 3c 5c be 77 85 e3 bd
       -0.38624913 -0.3157801 -0.21507525 -0.11109441
000050 2d 64 bc 3e e8 4f 0b 3e 2a 01 87 be 89 65 7e bd
       0.36795178 0.136047 -0.26368076 -0.06210855
000060 81 a6 78 be d0 d5 53 3e d8 9b 84 be d6 ff bd be
       -0.24282266 0.20687032 -0.2590015 -0.3710925
000070 b1 87 0c 3e fd 1f 84 3e 2d 6f 6e bd 3e 61 6d 3e
       0.13723637 0.25805655 -0.058211494 0.23181626
000080 a7 42 a1 be dd 80 e3 3e 4d 1f a7 be a1 d1 84 3e
       -0.31496164 0.44434252 -0.32641068 0.25941184
000090 b8 8e be be 1c 6c f0 bd 31 fb 09 3d 54 fb 44 bd
       -0.3721826 -0.1173937 0.03368682 -0.048091248
0000a0 af 18 99 be d9 cd cc 3e 50 d3 1e 3c 5a b2 62 be
       -0.29901645 0.400008 0.0096939355 -0.22138348
0000b0 e8 df 8e bd 6a a9 92 be 26 4f d2 be b5 bb 7a 3e
       -0.069763005 -0.28644878 -0.4107601 0.24485667
0000c0 a5 c0 13 3f 1b 6b 7b be cd 5e 22 3c 88 00 b5 be
       0.5771583 -0.24552576 0.009910298 -0.35351968
0000d0 9e 2a 13 be e5 b7 74 3d cf 42 99 3c 97 35 a6 3e
       -0.14371726 0.059745688 0.018708615 0.3246276
0000e0 6c 60 07 3e b0 4c ae 3e 0f 45 81 be 49 17 dc bd
       0.13220376 0.34042883 -0.25248 -0.10746629
0000f0 65 08 0a be 28 e6 02 3e c0 6f d4 3e 53 ba 4a be
       -0.13479765 0.1278311 0.41491508 -0.1979764
000100 43 db c2 be f0 82 29 be c4 37 14 be ad d8 e3 3e
       -0.38057908 -0.16553855 -0.14474398 0.44501248
000110 a3 9e d4 3d d0 f7 9e 3e 36 c4 71 be fa 80 3b be
       0.1038182 0.3104844 -0.23610005 -0.1831092
000120 19 52 96 3e 8c c4 bd be 5d 95 a3 be f1 63 59 be
       0.2935951 -0.37064016 -0.31949893 -0.21229531
000130 9e df 55 be 09 b7 1f 3e a1 4c 94 be 1a 48 64 be
       -0.20886084 0.15597166 -0.28964713 -0.2229313
000140 5a c5 2e be 9c c7 af 3e 87 62 f3 be f5 cc 66 3d
       -0.17067471 0.34331977 -0.47536108 0.056347806
000150 98 0d 8d be 24 14 01 3a fa d2 8e be f9 33 d0 3e
       -0.27549434 0.00049239607 -0.27895337 0.40664652
000160 02 a1 18 be f2 18 ac 3e c6 9e 0e 3d 42 f7 a7 3d
       -0.1490517 0.33612782 0.034819387 0.082014576
000170 e1 3d 4e 3e 72 42 bc 3e 47 30 97 be f4 68 6f be
       0.20140792 0.36769444 -0.2952902 -0.2337988
000180 40 32 f5 bc 62 5d e4 3e 54 23 04 3d 49 b8 dd 3e
       -0.029931188 0.44602495 0.032260254 0.4330466
000190 65 59 3c be 83 a8 4a be b7 e6 0d bc 50 9d e2 3c
       -0.18393476 -0.19790845 -0.008660964 0.027662903
0001a0 70 e2 92 bd 70 15 4b 3c 7d b9 75 3e 32 f4 44 3e
       -0.07172096 0.012395248 0.2399654 0.19233778
0001b0 7c 2c 33 be 3a af af 3d 68 69 b4 3e 35 4c d4 be
       -0.17497438 0.08578344 0.3523667 -0.4146439
0001c0 7b 88 0c be 5c 2f db 3d 18 20 e5 bd 9c 78 61 be
       -0.13723938 0.107023925 -0.11187762 -0.22018665
0001d0 6c c5 3c 3e c9 bc 10 bd 90 19 00 3d 11 67 c0 be
       0.18434685 -0.03533629 0.03127438 -0.37578633
0001e0 94 20 cd be 7c 3b c7 bc 33 57 07 be bf e4 93 3e
       -0.40063918 -0.024320357 -0.13216858 0.28885457
0001f0 1d c6 95 be c5 6b 6e bd 5d a8 98 3e 4c 81 a2 be
       -0.2925271 -0.058208246 0.2981595 -0.3173927
000200 9c 78 ac be 77 56 55 3e da 06 99 3e 3b 60 e5 bd
       -0.33685768 0.20833765 0.2988804 -0.11199995
000210 9e 77 68 be 85 c1 d5 be 96 75 3c be fb e5 b5 3e
       -0.2270188 -0.41749206 -0.1840423 0.35527024
000220 ec a8 4c be c5 e2 d3 3d 57 77 6d be 71 36 6e be
       -0.19986314 0.10345987 -0.23190056 -0.23262955
000230 17 c5 b6 3d 3e d5 91 be b8 f9 21 be e2 cc 05 bf
       0.08924311 -0.28483003 -0.15817916 -0.5226575
000240 5e ea 01 be 28 44 47 3e 09 bb a4 3d 64 a2 a3 bd
       -0.1268706 0.19459593 0.080434866 -0.07989958
000250 85 a4 27 3e 64 0d ae 3e b8 49 36 be 3d ba bc be
       0.16371353 0.3399459 -0.17801559 -0.3686084
000260 3a 8f 73 3e c8 6a 84 bc 0b 45 75 be 29 c9 87 3e
       0.23785105 -0.016164199 -0.23952119 0.2652066
000270 09 41 f8 bd 69 5b 25 3e 2e 0e 8f 3e ee 15 27 3e
       -0.121217795 0.16148151 0.27940506 0.1631696
000280 ec 95 04 3e 67 d0 0f bf 6d 24 07 3e f6 28 fe be
       0.12947816 -0.5617737 0.13197489 -0.49640626
000290 a7 f2 4f be 62 60 5a 3e e8 84 e0 bc bc 7b c5 be
       -0.20307408 0.2132583 -0.027407125 -0.38570964
0002a0 0a 4f 25 3e 9a af bb be 05 36 4a 3e a8 ca f5 bd
       0.16143432 -0.3665741 0.1974717 -0.12001544
0002b0 75 1b ff be 75 65 e7 be e8 d5 85 3e 57 c6 90 be
       -0.49825636 -0.45194593 0.2613976 -0.2827632
0002c0 59 92 81 be af e0 d1 3d 26 cd 45 be 27 86 2e bd
       -0.25306967 0.10247933 -0.19316539 -0.042608406
0002d0 46 c1 d6 3d bb 6d c0 3e 79 2c b8 bd f0 50 52 bd
       0.10486083 0.37583718 -0.089928575 -0.05134672
0002e0 78 12 9e 3e d0 5f 68 be a0 71 d3 3e e3 f1 a0 3e
       0.30873466 -0.226928 0.41297626 0.31434545
0002f0 1d 70 2d 3d a0 6b 59 be b2 1f 12 3d b4 e6 c8 3e
       0.042343248 -0.21232462 0.03567476 0.39238513
000300 c2 8b b0 be fd d0 9d 3e b1 ad b5 3d 7f 31 92 3d
       -0.34481627 0.30823508 0.0887102 0.07138347
000310 87 b3 78 3b 63 b4 0c bf 5a ba 3b 3d 35 a5 98 3e
       0.0037948804 -0.5496275 0.045832016 0.29813543
000320 72 be 60 be 4c 95 00 3e ce b3 b5 be 83 26 bb 3e
       -0.21947649 0.12556952 -0.35488743 0.3655282
000330 92 04 ed 3c 31 cc f1 be d9 08 9c be a0 19 b2 3b
       0.028932843 -0.47226098 -0.304755 0.0054351836
000340 12 05 93 be 36 4b 40 3e 2e 70 e8 3d b7 a9 a3 3e
       -0.28714806 0.1877869 0.113495216 0.3196542
000350 2d 2e 18 3e fb b6 02 bf 99 64 87 3e 2c 74 a6 3e
       0.14861365 -0.51060456 0.26443937 0.32510507
000360 f1 e5 50 3e 69 9c a4 3e f9 61 a8 3e 61 3a a5 3e
       0.20400216 0.3215058 0.32887247 0.32271102
000370 f6 57 d8 3d eb 28 58 3e 84 cb bb 3e 1e 2c d2 be
       0.10563652 0.21109359 0.36678708 -0.41049284
000380 58 fe d9 3e 0c 0e 3d be 15 3c ac 3d da 53 a3 3e
       0.4257686 -0.1846239 0.08409897 0.3189991
000390 62 67 e2 bc dc 18 22 be 64 3c a9 3e 4a 92 41 be
       -0.027637187 -0.15829796 0.33053887 -0.18903461
0003a0 c8 30 45 3e 5c e8 8f be 4d 37 5c 3e f0 e1 e3 bd
       0.1925689 -0.28106964 0.2150547 -0.111270785
0003b0 ac d0 44 bd e0 9e 87 be 9b f2 6b bd f4 02 33 be
       -0.048050568 -0.264884 -0.057604413 -0.17481595
0003c0 58 27 bc 3d 92 4c 7c bd 75 9a c1 3b 0b 46 c4 be
       0.09187192 -0.06159646 0.0059083053 -0.3833469
0003d0 ac 99 eb bd ac 9a b6 3e 3a d5 5f be 44 71 86 bd
       -0.1150392 0.3566488 -0.21858683 -0.065645725
0003e0 9e c2 9f be 3e dd c8 bd 8d 44 f8 be c5 97 79 be
       -0.3120317 -0.098078236 -0.484898 -0.24374302
0003f0 7e 24 9d 3e 8d 5d 60 be 1a 26 85 be b1 fb 93 be
       0.30691904 -0.21910687 -0.26005632 -0.28902963

actor.0.bias f4 [64]
000000 91 db ca be 3d a5 92 3e 24 53 af 3d cc 7a 89 be
       -0.3962064 0.28641692 0.0856078 -0.268515
000010 12 f9 81 3d 45 4d d7 be 15 3a bb 3e b1 6f 87 3d
       0.063463345 -0.4205114 0.3656775 0.066131
000020 53 8a 23 be 3f c2 76 3d eb 3a 8f ba 19 42 40 be
       -0.15970735 0.06024384 -0.0010927593 -0.18775214
000030 b8 f4 20 be 08 a6 48 be 8a cd b8 3c 1b c1 09 3e
       -0.15718353 -0.19594586 0.022558946 0.1345257
000040 31 52 f2 3d 8d 54 68 be 2d 25 68 3d e7 32 5c 3e
       0.11832083 -0.22688504 0.05667608 0.21503793
000050 54 8e 89 3d c8 d1 87 3e c3 13 51 be 1a ff 24 bd
       0.067166 0.26527238 -0.20417695 -0.040282346
000060 58 8e a2 3e fd c7 ab be 6c 2a 83 3e d9 0d b7 bd
       0.31749225 -0.33551016 0.25618303 -0.08938188
000070 8a 66 63 3d c4 ac 25 bd f8 cd 4c 3c 8e 34 8d bd
       0.05551771 -0.040447965 0.012500279 -0.0689479
000080 b5 f9 1c be 7e cf 2e be 8a 6c b8 3d 6b 14 8b be
       -0.1532963 -0.1707134 0.09005077 -0.27164015
000090 79 9c a6 be ae 4f d1 3b 92 f4 8b 3d 98 94 6e bd
       -0.32541254 0.0063876724 0.068337575 -0.05824718
0000a0 44 e2 ee 3d 21 65 d8 3d 14 e5 0c 3d e8 30 1b 3e
       0.116642505 0.10566164 0.034398153 0.15155375
0000b0 ab c7 08 bc ac 26 c5 bd 76 05 ab be 67 07 4a be
       -0.008348386 -0.09626517 -0.33402604 -0.19729386
0000c0 ac b1 64 be aa 15 5d 3e b3 bc 8a be 8b 46 9e be
       -0.22333401 0.21590295 -0.2709709 -0.30913195
0000d0 e1 f1 5f 3e 77 79 d0 bc df c1 33 be 9c 6f d3 be
       0.21869613 -0.025448544 -0.17554425 -0.4129609
0000e0 34 56 57 3e f7 92 9e be 4e bc a4 be 19 3d bc be
       0.21028978 -0.309715 -0.32174915 -0.36765364
0000f0 10 01 c4 3e b9 6d 11 bd 6d 84 14 be 2b 54 52 be
       0.3828206 -0.03550503 -0.14503641 -0.2053992

actor.2.weight f4 [64, 64]
000000 63 ad 86 3d 42 b5 7b bd 76 6b 5e 3c 1d 38 c5 bd
       0.0657604 -0.061452158 0.013575425 -0.096298434
000010 ef 58 00 be 58 ea 98 3d 58 21 84 3b f1 a8 13 bd
       -0.12533925 0.074665725 0.004032295 -0.036049787
000020 b6 87 96 bd 5f 47 5b 3b ed 47 5f bc da cc de 3d
       -0.073501036 0.0033459289 -0.013627988 0.10878916
000030 4a c6 4e bd 65 54 fb bc 36 3b cb 3c 03 65 d5 3d
       -0.050482072 -0.03067989 0.024808507 0.10419657
000040 20 b1 df 3d 87 18 f4 bc fd 46 65 bd a3 1c cd bd
       0.10922456 -0.029796852 -0.055975903 -0.10015228
000050 94 df 9f bb 87 0a 5b bc 34 c8 48 3d 13 96 c7 bd
       -0.0048789475 -0.013369209 0.049019054 -0.09745421
000060 c6 9f 82 bd d9 bb 00 3d fc 89 25 bd 2d ac 84 3d
       -0.063781306 0.031429145 -0.040414795 0.064781524
000070 15 7e 74 3d 4e d8 0f be 62 a6 9d 3d 41 25 b5 bb
       0.059690554 -0.14047357 0.07697751 -0.0055281227
000080 7d 87 f8 bd c0 df da 3d 0a 97 34 bd 02 18 cc 3d
       -0.12135217 0.10687208 -0.044089355 0.099655166
000090 06 40 80 3d 49 30 27 3d b0 cb 72 3d 71 67 1e bd
       0.062622115 0.040817533 0.059276283 -0.03867287
0000a0 00 4d 29 3d 0e f0 ac 3d 50 b7 1e be 7e 2d 81 bd
       0.0413332 0.08444224 -0.15499616 -0.06307505
0000b0 8e 3e 2b bd e7 60 71 3d 53 3e 9e 3c 89 45 ee 3d
       -0.041807704 0.058930304 0.019316828 0.116343565
0000c0 43 4f 1b bd 3b 73 08 3d 44 a0 4f bd 76 a0 e5 3c
       -0.037917387 0.033313017 -0.05068995 0.028030615
0000d0 3a 9f 61 3d 49 21 4f 3b 14 06 ee bd 22 66 e3 3c
       0.05508349 0.0031605533 -0.11622253 0.027758662
0000e0 c7 e2 c3 3d 64 a9 d6 3d a9 ea 08 be 0a 6d 8a 3d
       0.09564739 0.104815274 -0.13370766 0.06759079
0000f0 ea 3a 45 3d 76 a7 cf 3c ce 72 33 3d 1b 0e 60 ba
       0.048151888 0.025348406 0.04381066 -0.0008547024
000100 f6 73 b3 3d 94 84 9a bd 2f 8a 13 3d 52 42 c2 3d
       0.08762352 -0.075448185 0.036020454 0.09485306
000110 b7 c5 45 bd 23 2b bf 3d d7 4e a4 bd 47 77 fa bd
       -0.04828426 0.093343996 -0.0802285 -0.122297816
000120 11 59 66 bc 57 59 c8 bd 5d 50 ab 3d 44 36 f3 3c
       -0.014059321 -0.09782665 0.083649375 0.029688962
000130 ce e6 56 bd 38 58 83 bd 02 d4 ca 3b 74 5c a8 3b
       -0.052466206 -0.06413311 0.006189824 0.0051379744
000140 2d 60 35 bd b2 05 b5 bd 90 48 99 bc f3 6a d2 3d
       -0.044281173 -0.08838977 -0.018711358 0.10274305
000150 2c 95 9e bd 9e 76 ef 3d a3 54 d5 3d d3 a4 ff bd
       -0.07743296 0.11692546 0.10416534 -0.124826096
000160 5b 00 ee bc dd 22 a9 bd 6d 47 26 bd 8d 6a 52 3c
       -0.029052904 -0.08258603 -0.04059546 0.0128427865
000170 77 20 a0 bd 1d ee 9c 3d 02 7b a4 3c 56 7c 68 bd
       -0.07818692 0.07662604 0.020078186 -0.0567592
000180 a5 f0 b2 bd 2e 91 41 bd d6 e3 b9 3d 34 57 df bd
       -0.087373056 -0.047257595 0.090766594 -0.109053046
000190 f3 f3 58 3d 04 06 b3 bc ba 76 b1 bd b7 fe 28 bd
       0.052967023 -0.021853454 -0.086652234 -0.04125854
0001a0 16 fc f8 bd 93 04 53 3d ec 66 e9 3d 00 46 be 3d
       -0.121574566 0.051518034 0.11396584 0.09290695
0001b0 67 4c 9c bc 0e d6 99 3d a5 59 a8 3d 8b 2f 00 3d
       -0.0190794 0.07511531 0.08220223 0.03129534
0001c0 e5 8f 9c 3d 9f 13 82 3a 79 75 0e 3e 8d 06 75 3d
       0.07644633 0.000992406 0.13912 0.0598207
0001d0 a9 e7 84 3c 46 79 8f 3d 88 5e af bd 59 d6 a3 bd
       0.016223745 0.07005553 -0.08562952 -0.07999868
0001e0 56 7d c0 3d 59 6b 14 bb 1a 5e bc bd bb 7f 3a 3d
       0.09398906 -0.0022646992 -0.09197636 0.04553197
0001f0 b7 d3 08 be d8 59 52 bd 45 69 37 3d e2 63 5a bd
       -0.13362013 -0.051355213 0.044778127 -0.053317912
000200 83 f5 6e 3d b5 01 4c bd 54 7e 43 3d e5 e7 d9 3a
       0.058339607 -0.049806315 0.047727898 0.0016624896
000210 88 15 9e 3c 9c 1b 76 bd 5b 9c b8 bd c3 08 a9 3b
       0.019297376 -0.060084924 -0.090141974 0.005158515
000220 60 86 13 bd a6 29 e3 bd 35 fb 66 3c b6 aa be bd
       -0.03601682 -0.11091928 0.014097978 -0.09309904
000230 66 09 b7 3d bf e4 ec bd 2f 03 bc 3c cb cf b1 bd
       0.089373395 -0.11567067 0.022950737 -0.086822115
000240 f0 c4 fd bd 18 08 e7 3d d2 55 42 bd 6a 65 ac bb
       -0.123910785 0.11280841 -0.047445126 -0.005261113
000250 48 cc fe bd 91 d9 05 be cb 9d b9 bd 7f 8a a4 bd
       -0.12441307 -0.13071276 -0.090633 -0.080342285
000260 ff 7e 61 bd f4 57 d8 3c 4d 53 cf 3b 09 de 2e 3c
       -0.055052754 0.026409127 0.006327069 0.0106730545
000270 c3 26 ea 3c ef 52 7b 3d e4 76 ca bd 72 21 e4 3d
       0.028582936 0.06135839 -0.09885958 0.11139192
000280 14 ff bb 3d 05 19 a4 3d 15 57 e9 bd 70 99 8e bd
       0.09179512 0.080125846 -0.11393563 -0.0696286
000290 6c fc 79 3c ed 04 d3 3c a0 3e 95 bd b1 5b 01 be
       0.015257936 0.025759185 -0.072873354 -0.12632634
0002a0 ea 8c 8c ba 5b 2b 59 bd 64 1c 0a 3d d1 11 a4 bd
       -0.0010723148 -0.053019863 0.03371848 -0.08011211
0002b0 24 e5 89 bd 5b 26 dc 3b d1 83 12 be 46 63 ad bd
       -0.06733158 0.0067184395 -0.14308096 -0.084662005
0002c0 27 2a a2 3d 37 b3 ab bd 94 fd a4 bd e0 ad 20 3d
       0.07918196 -0.08383792 -0.08056179 0.03922832
0002d0 23 43 83 bd 2b 51 72 3b 2f 01 a1 bd e4 56 be 3c
       -0.0640929 0.003697465 -0.07861554 0.023234792
0002e0 4d 9f e9 3d 81 21 53 3d f8 9d f3 3c 23 e4 40 3d
       0.11407337 0.051545624 0.029738411 0.047092568
0002f0 20 f0 12 3d 8c 75 8b 3d 86 b0 b1 bd eb f7 b8 3d
       0.035873532 0.0680953 -0.08676247 0.090316616
000300 d7 2b 1c 3e f6 c5 30 3e 3f 22 4c 3e 6d 30 25 bd
       0.15251099 0.17263016 0.19934939 -0.040329386
000310 84 00 08 be dc 8d 8b bc d6 ee cd bc 9d 36 a8 3c
       -0.13281447 -0.017035417 -0.0251383 0.020533854
000320 4b 1a 96 bd ea 8f f8 bb 94 de 1e 3d 4a df db 3d
       -0.07329234 -0.0075855153 0.038786486 0.107359484
000330 c4 b0 16 bc bc 32 0d bd 06 34 b1 3c c8 fa f6 3c
       -0.009197418 -0.034472212 0.021631252 0.030148879
000340 0f 30 0c 3e 89 6b 23 3d 3e ec ec 3b 2c d9 d9 3a
       0.13690208 0.039897475 0.0072303107 0.0016620508
000350 e5 eb 8c 3d b9 3a 9f bd 4a 41 42 bd ea 6e 30 3d
       0.06880931 -0.07774872 -0.047425546 0.043074526
000360 3b 37 c1 3d fa 06 16 3e b0 05 c3 3d 53 f9 01 3e
       0.094343625 0.14651099 0.09522569 0.12692766
000370 7b 3d 2c 3e 47 e8 a5 3d b2 bb 09 3e da c3 97 3d
       0.16820328 0.08100944 0.13450506 0.074104026
000380 29 a9 5f 3e 19 0f 77 3c 09 07 f2 bd 9b 4a 70 3e
       0.21841873 0.015079283 -0.11817748 0.2346596
000390 00 25 9d 3d b5 ff 6f 3e 37 11 9d bd 74 50 c8 bc
       0.07673073 0.23437388 -0.07669299 -0.024452426
0003a0 b2 ab 04 bd b3 e0 10 3e 5d 6c 03 be 5c 50 ee 3d
       -0.032390304 0.14148216 -0.12834306 0.11636421
0003b0 d8 87 fd 3c ea 26 30 3e ac 0c ae bc be 87 98 3d
       0.030948564 0.17202345 -0.021246277 0.07447766
0003c0 7e 70 91 bd 0e ab 23 bd 57 cb 42 3d a6 93 3d bd
       -0.07101534 -0.039958052 0.0475572 -0.046283387
0003d0 b3 dd 32 bd 22 14 b7 3c 3b 4e a8 bd 20 c3 9f 3e
       -0.04366846 0.022348467 -0.08218046 0.31203556
0003e0 15 c7 19 be fa 45 c3 3d 20 bc 88 3d 50 2d 70 3d
       -0.1501735 0.09534831 0.06676507 0.058636963
0003f0 80 d5 16 3e 52 8f ec bc 51 b5 8e bb cd 91 1b 3d
       0.14729881 -0.028876934 -0.0043551107 0.037980843

actor.2.bias f4 [64]
000000 23 ab cd 3b a7 0d da 3d 93 83 bf 3c cc 6e 2d 3d
       0.0062765046 0.10647135 0.02337817 0.042341992
000010 f0 ff 0b 3d 55 f7 ce 3c 54 76 22 3c d1 97 1e 3e
       0.034179628 0.025264421 0.009915907 0.15487601
000020 5d 49 91 bd 71 c1 48 3d 45 11 54 bc 8e 26 07 3d
       -0.07094071 0.049012605 -0.0129435705 0.032995753
000030 29 89 37 3c ff 8c 26 3d 6c 82 ff bb 9b b6 04 be
       0.011202135 0.040661808 -0.00779753 -0.12960283
000040 f8 64 0c be 4f d6 87 3c 43 8f 35 3d 00 49 d7 bd
       -0.13710392 0.016581682 0.04432608 -0.105119705
000050 9e 04 0a bd 44 48 88 3a 5b 6d 7e bd 08 de d0 bc
       -0.03369581 0.0010397513 -0.06211601 -0.025496498
000060 2a d1 db bc 92 8b ac bd f7 e3 1a 3b 22 ba 2c 3d
       -0.026833136 -0.084250584 0.0023634413 0.042169698
000070 7d ab ad bd a8 cc e1 bd ac 27 2d bd 22 1b 41 bd
       -0.084799744 -0.11025363 -0.042274162 -0.047145016
000080 53 08 e8 3d 1f 19 9b bc 2b a0 b0 3d 68 5f 2e 3d
       0.11329713 -0.018932877 0.086242996 0.042571455
000090 a3 c3 cd 3c bf 0e ed bd 00 00 1f be 2e f1 a6 3d
       0.0251177 -0.11575078 -0.15527344 0.0815147
0000a0 db 9b be 3d 79 a2 f7 bd 99 a1 14 3e 44 9d 59 bd
       0.09307071 -0.12091536 0.1451477 -0.053128496
0000b0 07 f8 f5 3d cd aa a2 bc 87 db 97 bd 98 29 c5 bd
       0.12010198 -0.019856835 -0.074149184 -0.09627074
0000c0 b2 ab d3 bc 58 80 10 3d ea 1b 86 3e 3a 98 41 bd
       -0.025838707 0.03527865 0.26193172 -0.047264315
0000d0 1d f4 91 bd 61 b7 1f be a9 c3 86 3c b1 00 70 bd
       -0.07126639 -0.15597297 0.01645072 -0.05859441
0000e0 6c 08 1e bd 9b 5c f3 3d a0 a4 ac bd 01 ee f0 3d
       -0.03858225 0.118828975 -0.08429837 0.11764146
0000f0 e1 3e f4 bd 29 5a 98 bc f7 80 19 3e da 6b 49 bd
       -0.11926056 -0.01859768 0.14990602 -0.04917512

actor.4.weight f4 [1, 64]
000000 7f 07 9d bd c6 8d fa 3d bf ac 17 bd 33 5d 07 be
       -0.076674454 0.122340724 -0.037029978 -0.13219146
000010 d5 88 74 bd 93 a4 b4 bd 14 57 48 be 08 a8 e3 bd
       -0.059700806 -0.088204525 -0.19564468 -0.11116034
000020 d2 85 7c 3c 8d 78 0d 3d 27 4e a7 3c a9 34 e2 bd
       0.015412765 0.034538794 0.020423008 -0.110452004
000030 e1 be e6 bc d4 6a 1a bd 7e 6c c6 bd b5 40 3e 3d
       -0.02816719 -0.037699535 -0.09688662 0.04644843
000040 20 ee 6b be dc 03 a3 bc 52 f1 21 be db 8c bd 3c
       -0.23040056 -0.019899301 -0.15814713 0.023138454
000050 0d 63 99 bd 5d ba 93 bd b2 bd 4f bd 11 ba f3 3d
       -0.074895956 -0.0721328 -0.050718017 0.11900724
000060 40 c3 60 3d 5a f2 ca bc 19 64 88 bd 80 fb 98 bd
       0.054873705 -0.024773765 -0.06659717 -0.07469845
000070 4f 3b 27 3d 04 ad 42 bb e7 ab ea 3c 31 c2 aa bd
       0.040828045 -0.0029705176 0.028646423 -0.0833782
000080 ff 9e 84 bd d7 1f ac bd ce 5c 5b 3d 5e a8 d9 bd
       -0.064756386 -0.084045105 0.053555302 -0.106278166
000090 a7 dd d9 3c ed 5d 95 3c 7d f9 1e bc 6e 2f 17 3d
       0.02659495 0.018233264 -0.009703037 0.036910467
0000a0 df 1c 89 bc ff 8d 32 3d e0 b0 1a 3e d2 af 5e be
       -0.0167374 0.04359245 0.15106535 -0.21746758
0000b0 7c 1b 00 3e f8 4d 65 bd e9 6b e0 3d c8 28 e3 bd
       0.12510484 -0.05598256 0.10958082 -0.11091763
0000c0 95 88 ec bd ea e6 fe bd d4 b9 09 3e 85 4e 81 bd
       -0.115494885 -0.12446387 0.13449794 -0.063138045
0000d0 5a da d8 bd 61 06 ef 3c 51 42 4d 3c 16 1b 12 3d
       -0.10588522 0.029177846 0.012528018 0.035670362
0000e0 a9 49 a0 bc 60 8d 19 be 58 d7 98 bc b7 16 e3 3d
       -0.019566374 -0.14995337 -0.018657371 0.11088317
0000f0 36 ef ee bc 90 6d bf be 10 42 82 be 72 1e 8b bd
       -0.029166799 -0.37388277 -0.25441027 -0.06792916
