preTrained/Pendulum-v0/2level/HAC_Pendulum-v0_solved_level_0_crtic.pth (torch_old, 20095 bytes, 5 tensors)

critic.0.weight f4 [64, 7]
00000000: b5f1 a43c 0078 673e 2ea1 843e d6d7 093d
00000010: 97d2 a8be cba8 26bf 9f50 5dbf 4d94 1cbf
00000020: f103 1f3f 9abe 173e 57dd 4fbc 02b7 55bf
00000030: 0797 e6be f9de 9c3d 954a 883e e730 31bf
00000040: c320 493d a961 0a3d 3ea3 be3e aa36 dfbe
00000050: 258a 1f3e 1122 203e 7b08 993f a9a6 053e
00000060: 9573 933c 4181 b13e dbb8 8bbf 0efb 35bd
00000070: c610 953e 9aed 1dbe 195b c83c 74a8 a6bc
00000080: 1f23 c53e 9428 34bf cbe8 b5be 5751 413d
00000090: aa36 453f 601d 0f3f 87f4 963d 967f b5bc
000000a0: 1fa7 c3be fc9f 15bf 2e99 cebe 67ac da3d
000000b0: 8951 8e3d 035f 5c3c 1e18 bbbe c7b0 9a3f
000000c0: 5704 213d b8c3 d0be b1a2 ce3e d8cc 7a3d
000000d0: a86e e73c 0db8 8e3e cc30 b43c b332 b3be
000000e0: ba38 e7bd b30a be3e da75 b8bd 7f47 c43b
000000f0: 8184 0dbf a8fc ccbf 5f7d ea3d 5279 bb3e
00000100: 0aa3 91bf 9edb 88bd 7f9a ebbc e9f6 5d3e
00000110: 1f89 663d 86bc c2be 908a d23e ed1c 2d3e
00000120: 40d4 b73c 871c b93c 928b ec3f eeeb aa3e
00000130: c3d9 babe b0a6 73bf 17da d13e da67 093d
00000140: 532a 9dbc fa4b 393f a1cb 19bf ce99 d5bd
00000150: f2f1 553f 1971 54be 6840 803c f111 943c
00000160: d357 27bf 400c e0be 4c0f 9cbd 8548 6fbe
00000170: c00c f33d a376 2f3f ee27 c63d cea6 093e
00000180: f860 9cbe b6b1 11bf b0a8 07bf dd09 51bf
00000190: 9ef8 473e fd7b 2f3c c9d2 633f 1192 593f
000001a0: 389e cebd 4749 063f e87c 0abe 023b 8bbd
000001b0: 6fd8 0abb 7777 5f3f 8a6a 3dbf 52b4 233e
000001c0: 3e9a 043d 837e e03e 77e2 a7bd 68dc 7ebc
000001d0: b93a b03f 03a1 373f 2248 38bc c174 693f
000001e0: 5685 7cbe 04ac 0dbe 99c1 a7bc 0975 d03e
000001f0: 9fa7 903f 1139 ae3e e033 32bf 21d7 ae3e
00000200: 74e1 f1bd 44cc d3bc 9f47 0140 dde2 60bf
00000210: aa98 5fbd ff98 633f 50f5 01be 1965 60be
00000220: 30a0 99bc cd10 dbbc 5457 a3bf 09d5 1a3b
00000230: e026 953f 4f09 edbe a644 8c3d 4e97 2fbc
00000240: c8ea 8fbe 9d32 7b3f 8e3d 03bc c6e9 81be
00000250: b4b4 c2be fb22 4c3c 2769 723b a9dd e53f
00000260: 9cc5 94bf 7260 e23d ea64 d53e 2fb1 05be
00000270: 82e6 64be 7cc7 ddbd e4a5 7c3f c9f5 003f
00000280: 8af7 06bd 81ce 553f cda7 923d dab3 623e
00000290: 4ba2 883d 727a 89be 0aa3 9c3d c90f 0b3e
000002a0: 4214 2ebd 0d13 2e3f 72f1 af3a 09ac 94bc
000002b0: 9141 05be 7035 a03f 252a 3b3c ddc0 0bbe
000002c0: c1be 683e d213 aa3c 76a7 933c 8f5f c3be
000002d0: d767 e43e b405 a9be 991a 1ebf 73d0 30bd
000002e0: db67 28bd 1d7f ecbb 3039 a0bf 4dee bc3f
000002f0: cce2 e7bd d5ac 923e 801e 31bf 0630 f13d
00000300: a432 01bc adc7 33bf d60e 1abf ca23 d5bd
00000310: b64f 91bf ed21 ebbe fa3a 0dbe 4a3f 59bd
00000320: 89ea c03e 8726 a0bd d0b3 64be f199 1d3f
00000330: 9497 17bf 9e6a 203e bf9d 913d a954 023f
00000340: 068c c93f 1552 69be a155 a2be 0917 f1bc
00000350: 3b5e 91bd b975 f53b 9158 863e 2421 6d3f
00000360: bbb4 773d 1083 313f d2d3 39be 5d63 9d3d
00000370: be51 3e3d a768 b23e 3b8c 88bf f155 68bd
00000380: c3f3 843f 0455 bfbf d10b 9fbe f351 51bc
00000390: c215 683e b73a e93c 6ac0 153d 2525 03bf
000003a0: 6155 733e 21b8 f93d c68b 9c3c 2991 853f
000003b0: e5b9 4dbd bc98 0c3c b342 9d3e 138b 33bf
000003c0: 1581 9d3d 0489 f03c ce69 f7bd 3ee0 06bf
000003d0: aca8 243e 40f8 e03c da31 46bc aba4 c4bd
000003e0: c7e8 08bd 9d5b 22bd bd6c b93f 7e4d 90be
000003f0: 0aeb fcbe f9df c2be 1c38 413d f5ec c83c
0.020134786 0.2260437 0.2590422 0.033653103 -0.32973167 -0.6510131 -0.86451143 -0.6116379
0.6211539 0.14818802 -0.012687049 -0.8348237 -0.450371 0.07659716 0.26619402 -0.69215244
0.04910351 0.033784542 0.3723392 -0.43596393 0.15580042 0.15637995 1.1955713 0.13051857
0.01799945 0.34668925 -1.0915788 -0.044428878 0.2911436 -0.15422669 0.024457501 -0.020343997
0.38503358 -0.7037442 -0.3552917 0.047196712 0.77036536 0.559042 0.07370859 -0.022155564
-0.3821344 -0.5844724 -0.40351242 0.106774144 0.06949145 0.013450387 -0.36541837 1.2085198
0.03931078 -0.40774322 0.403585 0.06123051 0.028251007 0.27874795 0.021995924 -0.34999618
-0.112901166 0.37117538 -0.090068534 0.0059899683 -0.5528031 -1.6014605 0.11449694 0.36615998
-1.137788 -0.06682514 -0.028760193 0.2167622 0.056283113 -0.38034457 0.4112134 0.16905566
0.022440076 0.02259661 1.8480093 0.33383125 -0.36494264 -0.9517622 0.40986702 0.033546306
-0.01918522 0.72381556 -0.6007634 -0.104297265 0.83572304 -0.20746268 0.015655711 0.018074961
-0.65368384 -0.43759346 -0.07620105 -0.23367508 0.11867666 0.685404 0.09675585 0.13442537
-0.3054273 -0.5691179 -0.5299177 -0.81655675 0.19528434 0.010710713 0.8899351 0.84988505
-0.100887716 0.5245556 -0.1352421 -0.06798364 -0.0021186133 0.87291664 -0.7399069 0.15986755
0.03237366 0.4384652 -0.081974916 -0.015555479 1.3767921 0.7173006 -0.011247667 0.9119378
-0.24660239 -0.1383515 -0.020478057 0.4071429 1.1301154 0.34027913 -0.69610405 0.34148505
-0.1181058 -0.025854237 2.0199964 -0.87846166 -0.05458895 0.8890533 -0.12691236 -0.21913566
-0.018753141 -0.02674141 -1.2761025 0.0023625514 1.1652489 -0.46296164 0.06849031 -0.010717226
-0.2810881 0.98124105 -0.008010281 -0.25373667 -0.3802849 0.012459512 0.0036988945 1.795827
-1.1622806 0.11053552 0.41678554 -0.13055871 -0.22353557 -0.10829064 0.9869063 0.5037504
-0.032950915 0.83518225 0.07160912 0.2213892 0.0667158 -0.2685123 0.07648285 0.1358024
-0.042499788 0.6799782 0.0013423397 -0.018148439 -0.13013293 1.2516308 0.011423622 -0.1364779
0.22729017 0.020761404 0.018024188 -0.38158843 0.44610474 -0.33012164 -0.61759335 -0.043167543
-0.04111467 -0.0072173015 -1.2517452 1.4760224 -0.11322555 0.28647485 -0.69187164 0.11776738
-0.007885609 -0.70226556 -0.6017889 -0.10407217 -1.1352451 -0.4592432 -0.13792029 -0.053038873
0.37678936 -0.078198485 -0.22334218 0.6156302 -0.59215665 0.15665671 0.07110166 0.5091043
1.5745857 -0.22785218 -0.31705955 -0.02942993 -0.07098051 0.0074908403 0.26239446 0.92628694
0.060475092 0.6934061 -0.1814721 0.07684968 0.046464674 0.34845468 -1.0667795 -0.056722585
1.038689 -1.494782 -0.31063703 -0.012775886 0.2266455 0.02847038 0.036560453 -0.51228553
0.23763038 0.12193323 0.019109618 1.0434924 -0.05022611 0.008581337 0.3071495 -0.70134085
0.07690636 0.02936221 -0.120807275 -0.52685916 0.16079968 0.027462125 -0.0120968465 -0.096017204
-0.03342512 -0.03963815 1.4486309 -0.28184122 -0.4939807 -0.38061503 0.04717265 0.024527052

critic.0.bias f4 [64]
00000000: 7eff ddbe 235f 0ebe 6f39 f63d 0c47 e0be
00000010: a534 b7be 2095 7c3c ac7b 1fbf ee7e f9bd
00000020: cc63 66bf 3d15 273f 00ce 49be 8eef a63e
00000030: 0ba7 02bd a1a0 613c 0eea 30bf 56aa 69be
00000040: 9992 0cbf bdf5 22bf f758 4ebf cfad fcbe
00000050: dd98 efbd 91a7 c6be d780 68be bf26 8cbe
00000060: fb98 5bbe 6665 3ebe 938e f6bc bfce c7be
00000070: 5b35 80bf 200f 1d3f dd75 4ebf b646 45bf
00000080: e097 79be a245 2dbe 330a 76bd 2b82 3ebf
00000090: 935f 4cbf dff0 cfbe bfcb 3fbf fa60 59bf
000000a0: 2bf2 603f 4480 6ebe a401 86bf f974 08bf
000000b0: bc07 a23f 6073 14bf b21a 11bf 9b8c a7bf
000000c0: 1872 a0bf bd40 84be 6352 9abf cf7a 5ebf
000000d0: 69ed cd3f 196a f3be 91fa 283f e21f 74be
000000e0: 5786 21bf cd87 c6be f4af 93be a166 66be
000000f0: c890 37bf 8314 8bbf 70b8 ab3d 3b8d 42bb
-0.43358988 -0.1390348 0.12022673 -0.43804204 -0.35782352 0.015416414 -0.62298083 -0.12182413
-0.8999603 0.6526678 -0.19707489 0.3260464 -0.031897586 0.013771207 -0.6910714 -0.22818884
-0.5491119 -0.63656217 -0.806045 -0.49351355 -0.11699078 -0.38799718 -0.22705398 -0.2737331
-0.21445076 -0.18593368 -0.030097282 -0.39024922 -1.0016283 0.61351204 -0.80648595 -0.7706102
-0.24374342 -0.16921094 -0.06006832 -0.7441737 -0.79833335 -0.40613458 -0.74920267 -0.849136
0.8786952 -0.23291117 -1.0469251 -0.53303486 1.265861 -0.5798855 -0.5668136 -1.3089784
-1.2534819 -0.2583064 -1.2056392 -0.8690614 1.6088077 -0.47541884 0.66007334 -0.23840287
-0.6309561 -0.38775483 -0.2884518 -0.22500087 -0.71705294 -1.0865635 0.08384788 -0.002968623

critic.2.weight f4 [64, 64]
00000000: 959d c93d c84c dcbe 6d73 0c3e f848 3c3f
00000010: 63cb 50be 5b86 613e 418b 013f d72f 33bd
00000020: 24e0 823e 5f2b f8bd 57d1 a23e 8108 eabe
00000030: fca4 0abd d3a2 2d3d 06c1 efbc 6a4c 11bf
00000040: 49c8 f43e ca92 843e e349 553e 3328 7e3e
00000050: b1d4 c93e c291 ef3d edbd 7c3e e6f7 01bf
00000060: b01b 2dbe 2a44 16be de03 22bf 7242 f93e
00000070: 06ba bc3d ac41 ad3e 83dc 3a3e 2c39 76bd
00000080: 6c86 cf3d 4d94 8a3e e4f9 06bf 98f1 9c3d
00000090: 6363 413f 35df 10bf 3fd7 873d f203 843e
000000a0: a4c4 ebbc e1ab a7bf b272 303e 1c47 e0be
000000b0: 287a c6be 7964 d0be 28ca 703d 5db0 0f3f
000000c0: 1183 60bf d5cd 82bd e862 1dbe 7f7b 94bc
000000d0: 91dd 4ebe 5c95 803f 11dc 0b3d 8f58 7fbe
000000e0: ce80 773e 20aa c9bd 6038 02bd a271 c8bd
000000f0: e436 acbe bc6c 063c 9d6f df3e 1f10 f5bd
00000100: 8c4f 8e3e def6 a8bd fa8d 88bf aa32 503e
00000110: e358 27bf 9b1d 183d b0be 513e 99ba 03bf
00000120: 546a be3e 9eb9 20be 77ee ddbd 68ca 19bf
00000130: dda8 17bf 6636 b6be fe57 aa3e 4b87 22bf
00000140: d1d7 813f aec3 1c3e ec75 a83e 2193 cf3e
00000150: 7078 17bf 0b52 c9be c34c d6be 6c93 56be
00000160: a803 1cbf 616d 69bc fdea 4cbe f79a 233e
00000170: 880b b5be 9c8d b93b deaf 86bb a440 ba3e
00000180: 5fde 19bf b604 e13e a18a 4ebf b4bf e43d
00000190: aee3 163f 5e71 78bd bea2 96bd 30db c23d
000001a0: e1d5 ecb9 d9e4 32bd 76ae 153e f7e3 883e
000001b0: eb2a 84bf 401f 753e 6d80 f8be 723a c9be
000001c0: 599c a33e bb95 0abe 8654 203e 2eb1 17bd
000001d0: 1761 f73c 56cc 063f 5efa 3c3e a516 c1be
000001e0: 223d cb3e 68c5 f5bd 4ca4 e03d cddc 1cbe
000001f0: f671 2e3e 7f25 7c3f cb92 e73e 06a7 52bf
00000200: dc33 9abe bba6 ea3d 7038 813e 0537 163d
00000210: a993 b63c 46f4 f8bd b9ec b8be 5128 46bf
00000220: cc61 2b3f 542f 923b 9500 e13e c383 033f
00000230: 739e 18bc a740 2c3f fa8b 9f3e 7963 1e3e
00000240: e179 593e e5d9 33bf 9eda 9abf 7b63 ddbe
00000250: 4943 a2be b00f 343e daa2 bebe 428a 0dbe
00000260: 8de3 0cbf 84cd 6cbf 6a2b ce3d 8252 643d
00000270: 1619 5dbf 563b eabd 1b5f 053f 8a4f e93e
00000280: 6b26 8cbd b6ef ed3e 98c1 a1bc bccc f0be
00000290: 0938 5abf 441f 1bbf be90 3ebd 6249 48bf
000002a0: afdf c5be a7ab 743e 8c33 453e 997d 3fbf
000002b0: 91df 203d 8193 e8bf e913 113e 2ec8 383e
000002c0: 103e 4e3e 910b b73d 2af5 59bf e54e e43e
000002d0: 56eb 1f3c f5da c73e 01fa c4be 125d 2bbe
000002e0: 8045 67bf 8064 8c3e 12d2 2cbe 2727 23bd
000002f0: 8a92 73be 755e 04bf a54d 54be 5311 a0be
00000300: 83a9 cebe ea02 0fbe f14c 183f c641 c83e
00000310: bc86 303e e65a dd3e 3911 633e d1bf 953e
00000320: 654f 8cbf 71aa a83e 504b 2bbf aaca 8abf
00000330: eab2 463f 69a1 49bd c889 88bd 622a ef3e
00000340: a77d 10bd a89b b53d 9db0 eebe 7132 433f
00000350: 73a8 993e 2d1f 16bf dbe1 82bc 4f14 d8bd
00000360: 9224 45be 00de babe fc03 eabd 7958 563f
00000370: 816c 6dbe 57e0 c8be 2ee6 61be 4d47 b4be
00000380: 6259 1c3f 3944 9abf c944 0dbf 8304 87bf
00000390: c1c4 2ebe c363 823d cbdf 803e 8727 d33d
000003a0: 0623 9c3e 5e04 0d3d df1d 7c3e 8891 523e
000003b0: bc2a af3e ffcd 0e3f a98e 0b3f 7aaf 49be
000003c0: 2dd0 4c3f 8231 d93b 0fb2 8bbf a7ed 633e
000003d0: 8a2e 84bb 52a9 7fbe 547c 13bf ba94 db3e
000003e0: 1aa3 69bf 9e8b bdbe ae8c 9ebe 27a4 073f
000003f0: 1d34 f73c 976b f5be 0cb6 29bd fc23 103f
0.098445095 -0.4302733 0.13715906 0.7354884 -0.20390086 0.22023909 0.5060311 -0.043746796
0.2556163 -0.121176474 0.3180034 -0.45709613 -0.033848748 0.04239161 -0.029266845 -0.56757224
0.47809055 0.2589324 0.20828967 0.24820022 0.39420083 0.11697723 0.24681826 -0.5076889
-0.16905093 -0.1467444 -0.6328715 0.48683506 0.09215169 0.33839166 0.18248181 -0.060113117
0.10133061 0.2706627 -0.5272505 0.07663268 0.7554228 -0.56590587 0.06632852 0.2578426
-0.028780289 -1.3099328 0.17231253 -0.43804252 -0.38765073 -0.40701655 0.05878654 0.56128484
-0.8769999 -0.063869156 -0.15369761 -0.018125294 -0.20201708 1.0045581 0.03414542 -0.24936126
0.24170229 -0.09846902 -0.031792045 -0.09787299 -0.33635628 0.008204635 0.43639842 -0.119659655
0.27795064 -0.08250211 -1.0668328 0.20331827 -0.65370005 0.03713761 0.20482898 -0.514566
0.37190497 -0.15695807 -0.10836499 -0.6007447 -0.5924204 -0.35588378 0.33270258 -0.6348769
1.0143987 0.15309021 0.32902467 0.40541938 -0.5916815 -0.39320406 -0.4185544 -0.20954674
-0.6094308 -0.014247269 -0.20011516 0.15977083 -0.3536036 0.005662633 -0.0041103205 0.36377442
-0.60104936 0.43948907 -0.8068028 0.11169377 0.5894116 -0.06065499 -0.07355259 0.09514463
-0.0004517278 -0.043675277 0.14617333 0.26736423 -1.0325598 0.23937702 -0.4853548 -0.39302403
0.3195522 -0.1353368 0.15657243 -0.037034206 0.030197663 0.5265554 0.18454883 -0.3771259
0.39695078 -0.12000543 0.10968837 -0.15318604 0.1703566 0.98494714 0.45229182 -0.8228611
-0.3011769 0.114575826 0.2523837 0.036673564 0.022287207 -0.121559665 -0.36118105 -0.7740527
0.669461 0.0044612084 0.43945757 0.5137293 -0.009315121 0.6728615 0.3116148 0.15467633
0.212379 -0.70254356 -1.2097967 -0.4323996 -0.3169196 0.1758411 -0.3723362 -0.13822272
-0.55034715 -0.9250109 0.10066874 0.055742748 -0.86366403 -0.11437099 0.52098244 0.45568496
-0.06843265 0.46471947 -0.019745633 -0.470312 -0.8524175 -0.6059458 -0.046524756 -0.78236973
-0.3864722 0.23893605 0.19257945 -0.7480102 0.03927571 -1.8170015 0.14167751 0.18045112
0.20140862 0.08937753 -0.85139716 0.44591442 0.009760698 0.39034238 -0.38471988 -0.16734722
-0.90340424 0.27420425 -0.1687701 -0.03983226 -0.23786369 -0.5170663 -0.20732744 -0.31263217
-0.40363702 -0.13965955 0.59492403 0.3911268 0.17238897 0.43233413 0.22174539 0.29247907
-1.0961729 0.32942536 -0.6691179 -1.0843098 0.7761675 -0.0492262 -0.06666905 0.46712023
-0.03527608 0.0886758 -0.4661912 0.7624884 0.3001133 -0.5864132 -0.015976837 -0.105507486
-0.19252232 -0.36497498 -0.11426541 0.8372875 -0.23185922 -0.39233658 -0.22060463 -0.35210648
0.6107389 -1.205207 -0.5518308 -1.0548252 -0.17067243 0.06366684 0.2517074 0.103102736
0.3049547 0.034427993 0.2462077 0.20563328 0.3421229 0.55783075 0.5451456 -0.19695845
0.8000515 0.0066282162 -1.0913714 0.22258626 -0.004033868 -0.24966934 -0.57611585 0.42886907
-0.912645 -0.37020582 -0.30966705 0.5298485 0.030176217 -0.47933647 -0.04143338 0.5630491

critic.2.bias f4 [64]
00000000: ba50 6ebf 29f5 13bf ed6f 113f 0642 c23c
00000010: 57e5 36bf 81e9 24bf 9d89 37bf d369 21bf
00000020: 18d7 a33e 6ca7 293f 4a27 c33e 19ac 00be
00000030: e261 f6be bf17 2fbf 57d4 3dbe 836e 58bf
00000040: bb12 00bf f0f4 99bd 53ba f7be e0b7 42bf
00000050: c565 37bf 22c2 2fbf e946 763e f421 18bc
00000060: dee8 ccbc 72b6 ab3e 75e8 5bbd 6726 9ebe
00000070: 12b6 49bf 1475 0cbf 0a61 23bf d69a e8be
00000080: 99e1 99be 3c9e 01be c1f6 20bf 3e86 12bf
00000090: 5feb 433e 2964 0f3e cfdf 4a3e 2699 f9be
000000a0: 3bb5 36bf 9992 52bf 1113 8d3d c5fe 0cbe
000000b0: b36f 05bf 4d5d f4be a524 35be d8a4 11bf
000000c0: 0695 a33e bbc2 73be 5c69 25be d6fa f33c
000000d0: 98db 6ebe f3b2 db3d 761b d23e 2b27 a0bd
000000e0: dfce 03bf fe2b b1bd 3f9e f43e b5a9 91bd
000000f0: 8253 333e 6fdf a43e 0c40 08bf 5dc7 3cbf
-0.9309193 -0.5779596 0.5681141 0.023713123 -0.71443695 -0.644188 -0.71694356 -0.630521
0.3200004 0.6627109 0.38115913 -0.1256565 -0.48121554 -0.6839561 -0.18538032 -0.8454363
-0.5002858 -0.07517421 -0.48384342 -0.7606182 -0.71639663 -0.686556 0.24050488 -0.009285439
-0.025013383 0.33537632 -0.053688485 -0.30888674 -0.7879344 -0.5486615 -0.63819945 -0.4543063
-0.3005493 -0.12658018 -0.62876517 -0.5723609 0.19132756 0.14003052 0.19811939 -0.48749655
-0.71370286 -0.8225494 0.06888402 -0.13769062 -0.52123564 -0.47727433 -0.1768976 -0.56892157
0.31949633 -0.23804753 -0.16153473 0.029782694 -0.23325956 0.10727491 0.41036576 -0.07819971
-0.51487535 -0.08650969 0.47776982 -0.07112447 0.17512324 0.32201716 -0.5322273 -0.73741704

critic.4.weight f4 [1, 64]
00000000: d2c7 593f be76 903f 74b5 93be 6a30 093f
00000010: 22ec de3e 0bda b43f 93c5 7c3f 276c 863f
00000020: cfb9 563e 2524 2abe 05d2 2e40 bc5c 6f3e
00000030: 0274 b73f 8bb3 5f3f 4f7e 3bbd 5b11 1b40
00000040: ec14 1040 4172 3d3c 4095 473f 6cf1 6e3f
00000050: bf2e 0e3f 9596 fa3f 264e 64be 8418 4ebd
00000060: 9bff 8abe 9bd6 c2be 30ff a23d 31c0 1bbe
00000070: 8e4d 8f3f d80e 983f f76c cc3e de3f 7c3f
00000080: 1361 ef3f 4e30 58be 31e1 943f 35cd 253f
00000090: c996 9dbe e926 40bf 46c7 943f 5063 ee3e
000000a0: a1c8 9d3f ab53 833f 8423 393f 8b7f 8e3f
000000b0: ca6f 2940 94fe b6be f22c 1a3f d7eb ad3f
000000c0: 9b28 703d 73b9 61bd d39f 0240 fb3e 02bd
000000d0: 5e0a 973e a12e 87be 6c0b 2540 34bd ff3e
000000e0: 0a33 1e3f 86a6 f8be a454 8fbe 610b 2240
000000f0: 20b3 b3be d8a8 2bbe 4e84 033f e55a 1540
0.85070527 1.1286237 -0.28849375 0.535895 0.4353953 1.4129041 0.98738974 1.0501755
0.20969318 -0.1661535 2.7315686 0.23375219 1.4332278 0.87383336 -0.045774754 2.4229343
2.251277 0.011562885 0.7796211 0.9333713 0.5554008 1.9577204 -0.22295436 -0.05031635
-0.27148136 -0.38054356 0.079588294 -0.15210034 1.1195543 1.187953 0.39926884 0.98534954
1.87015 -0.21112177 1.1631223 0.64766246 -0.30779102 -0.7505937 1.1623313 0.46560144
1.2326852 1.0259908 0.7231982 1.1132673 2.647448 -0.35741103 0.6022483 1.3587598
0.058632474 -0.0551085 2.041005 -0.031798344 0.29500097 -0.26402763 2.5788221 0.49949038
0.6179663 -0.48564547 -0.27994263 2.5319445 -0.350976 -0.16763628 0.51373756 2.3336728
